policy_ppo.pt (torch, 910129 bytes, 76 tensors)

sigma f4 [3]
00000000: 0000 0000 0000 0000 0000 0000
0.0 0.0 0.0

conv1.weight f4 [16, 3, 5, 5]
00000000: 7c9a 333b 9fe8 823d 7373 b5bd 6a2f a3bd
00000010: feb1 eebc 92f7 223d 2863 4d3b 5122 d23d
00000020: 2365 22bc a218 003d 3da2 eebc bbbb 02bc
00000030: b392 ccbd 6301 a9bd 0aa7 5dbd ac19 3a3b
00000040: 0774 383d 2932 903d 4306 a8bd 2d16 6abd
00000050: 2a13 423d 9f09 d23d a553 95bc 15d8 be3d
00000060: c034 99bc 226b 803c c94b cf3d 27e9 e7bd
00000070: 5761 90bd 58df 00bc 1605 3ebd 65cd c33d
00000080: d186 94bd 200b 55bd 712e 80bd 3bba c9bd
00000090: a220 58bd 7575 e83d 50ea 5c3d a1aa 4f3d
000000a0: a83a 833c d7cb 5bbd 38b5 a63c 76e2 e5bd
000000b0: 1110 cfbd eb35 43bd 7ae3 913d 581a 673d
000000c0: 5fb0 59bd ec6f e7bb 8dba 7e3d 954b e53d
000000d0: 0576 303d b2a1 0a3c 291b a13d e5d6 abbd
000000e0: 58a0 063c 3bcb c1bd 924d c6bd a3fa 76bd
000000f0: f852 403d 979a 233d f115 a1bd 73d4 953c
00000100: 6e8a 6d3d 9fae c3bc 2f8a 14bc ef96 8f3c
00000110: ac17 873d 6848 ee3d ce92 cfbd e63c 66bd
00000120: 9c08 0e3d 3041 c63d bd88 ca3d 4f4c dc3d
00000130: 2a37 aa3c 446b ccbd acb7 1f3c 8fdb 8abd
00000140: d735 e2bd 795c ba3d 81de 893d 846f fcbd
00000150: 8638 c23c 3545 c6bc e590 bcbc a881 87bd
00000160: fa27 1a3d d011 93bd f740 0a3d 61e7 4e3d
00000170: afee 9e3d 9838 223d 3af6 fcbd 6f62 a3bd
00000180: 3276 5d3d 2e1f a43c 4d03 babd 3206 a0bd
00000190: 1882 e63d 4027 8a3d d965 54bd e309 febc
000001a0: 5420 e2bd a230 943b 75bd bebd d0a0 c0bd
000001b0: e2b6 b9bb 1537 903c ac3c 21bd 1878 a23d
000001c0: bffc 87bd 5729 de3d 14b7 b23d fd56 b8bd
000001d0: 318f 8fbc 865b 423c 3c31 d23c 9a98 1a3d
000001e0: e40b 5d3d 8080 9b3c a7c2 22bd 6510 8c3d
000001f0: ea1f c8bd 49dc 60bd 582a ffbc 75d6 59bd
00000200: 1560 2bbd 55e7 b8bd df6e 8abc 878f d53c
00000210: 23cc 8fbd 3b02 edba 7d65 a43d 403f fdbb
00000220: e96c 0c3c 5c4b a5bb 4083 fe3c fb51 a63d
00000230: 6b06 e73d 0f63 9c3d 9d2d ef3d 3997 cbbb
00000240: 0d41 cbbd d416 5ebd b7d2 9f3d 2b2e 683b
00000250: 763f 7bbd c09e c0bd 976c c8bd b8cc b9bd
00000260: b55e 54bc 70df 8a3d 3b73 7f3d ded7 d3bd
00000270: 20a1 973d 31c4 b5bd 6323 a3bc 20d5 47bd
00000280: 4e83 76bc 6609 bebc bd3c dfbd fc64 bfbd
00000290: 6b85 8abc e115 d63b ec43 38bd a6e4 5a3d
000002a0: 85c0 c6bd ab41 5aba 32a1 ce3d 4557 1cbd
000002b0: 8ee8 e93d aab1 463d 7f78 ccbd 33ad ad3d
000002c0: df0f 19bb 881d 27bd 557d b23d 6226 e9bd
000002d0: 8d92 7f3c b7c6 cbbc 4933 9e3d 2725 df3c
000002e0: 7f00 333d b53c 643d c20d ebbc f724 1bbd
000002f0: 60e7 dabd c418 493d 1daf bf3d 4df3 a53d
00000300: ef1d bbbd f88f 77bb 59b4 adbd cd68 86bd
00000310: 7954 60bd b3ca 363d 7c8a 86bd 3271 2d3c
00000320: efdb a53c ded9 a83d f3b3 a3bd 6c0c a7bd
00000330: 8c86 9bbd 4da8 bd3d e1ff 14bd ffa7 c23d
00000340: 57eb 3a3d 7854 083c 4ff3 163c 0665 acbc
00000350: 62c1 723c e050 45bc 5756 8bba 921b ae3c
00000360: 98b2 babd 1106 72bd 5643 cd3d 3d0f c7bd
00000370: d4f6 453a 57fc f93d 0b4a 193d 8ae5 3b3c
00000380: b303 bbbd d8ec 6f3d ee88 b2bd 7c7b 43bd
00000390: 8374 38bd f019 22bc 563c 8cbb 38ef c23d
000003a0: 6a35 543c 6bb9 be3d f8ad 933d ad28 95bd
000003b0: 6ed7 623d 0684 95bd 2add 5dbd 9c01 173d
000003c0: 095f 463d d723 bd3d 26e3 f7bc 3f56 d93b
000003d0: 60ba 863d fb23 d7bd f4c1 b43d 5d86 b7bd
000003e0: 26d7 3f3c 354e 60bc 58b8 2fbd 8ea1 e33c
000003f0: db6b b13d f414 1ebd 2d0a 91bd 7d78 cdbc
0.0027405312 0.06392025 -0.08859911 -0.07968028 -0.029137608 0.039786883 0.003133962 0.102604516
-0.009911808 0.03127349 -0.029130096 -0.007979329 -0.09988918 -0.082522176 -0.05411438 0.002839665
0.045032527 0.07040817 -0.08204319 -0.057150055 0.047381558 0.10255741 -0.018228361 0.09318558
-0.018701911 0.015676085 0.10121877 -0.11323767 -0.07049816 -0.007865749 -0.04639157 0.0956066
-0.07252277 -0.052012563 -0.06258858 -0.09849974 -0.052765496 0.11350528 0.053934395 0.050699834
0.01601918 -0.053661194 0.020350084 -0.112248346 -0.10110486 -0.047658842 0.07123466 0.056421608
-0.053146716 -0.0070629027 0.062189627 0.11196057 0.043081302 0.008461403 0.078665085 -0.08390597
0.00821694 -0.09462591 -0.09682764 -0.06029762 0.046954125 0.03994235 -0.07865513 0.01828978
0.057993345 -0.023886977 -0.009066149 0.017528025 0.06596312 0.11634904 -0.10135423 -0.05621042
0.03467618 0.09680402 0.09889362 0.10756742 0.020778257 -0.09981397 0.009748381 -0.06780159
-0.110454254 0.09099669 0.067318924 -0.123259574 0.023708593 -0.024202922 -0.02301831 -0.06616527
0.03763578 -0.07181132 0.03375336 0.05051363 0.07760369 0.039604753 -0.123516515 -0.07977759
0.054067798 0.020034399 -0.09082661 -0.07813682 0.11255282 0.067457676 -0.051854942 -0.031010574
-0.11041322 0.004522399 -0.0931348 -0.094056726 -0.0056675533 0.01760439 -0.0393645 0.07933062
-0.06640004 0.10847729 0.08726326 -0.09000967 -0.017524334 0.011862641 0.025658242 0.03774319
0.053966418 0.018982172 -0.039736416 0.068390645 -0.09771712 -0.05489758 -0.03114812 -0.053183038
-0.041839678 -0.09028498 -0.01689857 0.026069416 -0.07021358 -0.001808233 0.0802717 -0.0077284873
0.008570888 -0.005044384 0.031068444 0.08121105 0.11280521 0.076360814 0.11678622 -0.0062130955
-0.09924517 -0.05422099 0.078038625 0.003542791 -0.061339818 -0.09405279 -0.09786337 -0.0907225
-0.012962033 0.067808986 0.06236575 -0.10343908 0.07403779 -0.08875311 -0.019914335 -0.048787236
-0.015045954 -0.02319784 -0.10900257 -0.09345433 -0.016909322 0.00653337 -0.04498665 0.053440712
-0.09704689 -0.00083258253 0.10089339 -0.038169164 0.114213094 0.048509277 -0.0998392 0.08480301
-0.0023355407 -0.040799648 0.087153114 -0.11384274 0.015598905 -0.024875028 0.077246256 0.027239395
0.043701645 0.055721957 -0.028693084 -0.03787705 -0.106886625 0.049095884 0.09359572 0.081030466
-0.09136569 -0.003777502 -0.08481664 -0.06562958 -0.05476806 0.044626903 -0.065693825 0.01058607
0.020246474 0.0824468 -0.07993307 -0.08156666 -0.07594022 0.092606165 -0.036376838 0.09504699
0.045634594 0.00832092 0.009213283 -0.021044265 0.014816614 -0.012043208 -0.001063059 0.02125338
-0.09116095 -0.059087817 0.10022609 -0.09719703 0.0007551734 0.12206333 0.03742413 0.011468301
-0.09131565 0.05857548 -0.087175235 -0.047725186 -0.04503299 -0.009893879 -0.0042796535 0.095182836
0.012952188 0.093127094 0.07210916 -0.07283149 0.05538123 -0.07300572 -0.054165997 0.03686677
0.048430476 0.092353515 -0.03025968 0.006632596 0.06578517 -0.105049096 0.08826056 -0.08961175
0.01170901 -0.013690521 -0.042900413 0.027786996 0.0866315 -0.0385942 -0.07082019 -0.025081867

conv1.bias f4 [16]
00000000: c30c 7d3d 39de d73d 9718 dd3d b949 ddbd
00000010: e61b 97bd bb9f 46bd a0a8 a1bd 0bab e13d
00000020: 3bed 22bc 3bb4 a4bd 8cc3 7fbd e11f 48bd
00000030: 1f58 143d 0594 cebd 42b1 e2bd d041 f1bd
0.06177975 0.105404325 0.10795706 -0.10805077 -0.07378368 -0.048492175 -0.07893491 0.11018952
-0.009944255 -0.08042189 -0.062442347 -0.048858527 0.03621685 -0.10086826 -0.110689655 -0.11780131

bn1.weight f4 [16]
00000000: 35af 813f 91ae 7c3f be08 803f 21d9 803f
00000010: e5ac 823f 39b7 7d3f df5a 7f3f 3e10 823f
00000020: b8c7 813f fd7e 7d3f 46ff 7e3f aff7 7e3f
00000030: 6cca 7b3f 63d1 7e3f 103c 7c3f 96e1 803f
1.0131594 0.9870387 1.0002668 1.0066262 1.0209013 0.991077 0.99748033 1.0161207
1.0139074 0.99021894 0.99608266 0.99596685 0.98355746 0.9953825 0.9852915 1.0068843

bn1.bias f4 [16]
00000000: 1527 023c 5fe5 7fbc d947 b6ba 916b b1bb
00000010: 2213 003c ec53 1e3c 5dee bb3b d3f5 cb3b
00000020: 1484 693c 7220 7eba 9812 87bc acdb 75bb
00000030: 8bd8 12bc d178 09bc db93 f4bb 1463 823c
0.007943888 -0.015618651 -0.001390691 -0.0054144342 0.007817062 0.009663563 0.005735202 0.006224373
0.014252681 -0.0009694166 -0.016488358 -0.0037514968 -0.008962761 -0.008390621 -0.007463915 0.015916385

bn1.running_mean f4 [16]
00000000: 964e 343a 8959 8fbd 303e ccbd 225a 2cbe
00000010: f35b 6f3b a25f 673e e887 50bd 9193 df3d
00000020: f116 03be 7515 783d d64a 763c d83c 0d3c
00000030: 2f51 3b3e 488f 6bbe 8caa cfbe 4b02 c4be
0.00068781653 -0.06999499 -0.09972799 -0.16831258 0.0036523312 0.22595075 -0.05091086 0.10916818
-0.1280172 0.060567338 0.015032491 0.008620463 0.18292688 -0.23003876 -0.40559804 -0.38283

bn1.running_var f4 [16]
00000000: fb48 203c 7fe8 4b3c e368 713c fbbd 443b
00000010: 2520 cb3b b899 383d 343e 8b3b d93a 633c
00000020: 92ba b23b adaa ec3b a4d7 793b 4aa5 713b
00000030: 402f 5e3c 1d27 df3b d127 0a3d 1eae 893c
0.009783025 0.012445568 0.01473448 0.0030020464 0.0061989003 0.045068473 0.0042493585 0.013869011
0.00545437 0.0072224946 0.0038122917 0.0036872202 0.01356107 0.0068100826 0.033729378 0.016806658

conv2.weight f4 [32, 16, 5, 5]
00000000: 26a1 a13c 3798 443d 1bd4 07bd 51c5 693c
00000010: e884 0c3d 830d 823c 5299 1a3b 81c8 d2bb
00000020: 4f02 98bc 4adf cd3c 1e09 53bd 1d55 b83c
00000030: 43dc 043d f00c f8bc 0295 1f3d 70d4 5b3d
00000040: bdd5 66bc 9617 afbb 2055 3e3d 15b8 dbbc
00000050: 539c 833c f2d0 3e3c a204 dc3c 314d 3bbd
00000060: fb09 fdbc c4c5 3a3c 720c 7e3c 96ca 2fbd
00000070: 09d7 16bd eaac 36bd 9310 44bd 16c0 e5bc
00000080: a0a5 753d fbe2 86bc 39de 053d 87d5 1d3d
00000090: e0d4 753c d6a4 4bbd 2f65 e13c 0e59 613c
000000a0: ee04 4f3d 2afa 83bd ff3c 133d b405 343d
000000b0: 59fd 28bd 0be1 0b3c 987f 0a3d a401 56bd
000000c0: 0e65 473c 5e60 833c 8caf 083c 3cd8 5f3d
000000d0: 238e 4d3d a83b 283d 652b 84bb eb4b 113d
000000e0: 02d5 87bd 87a1 0ebd 25e6 56bc 09e1 febc
000000f0: 9953 413d d553 823c 2e90 133d c8bf ed3c
00000100: 76df 07bd aab7 bebb 9cb7 773c 5a69 753c
00000110: cc2c d33c fc79 1fbc a4e6 6abc 086c 263d
00000120: dcfc 77bc 6f4a e7bc 5465 013d 7470 ad3c
00000130: 69f0 69bc a2c9 acbb 346b 24bd c305 5ebd
00000140: 5d09 903c d7b5 dcbc cfa4 0f3d bd97 fcbc
00000150: e1ff 51bc bfb7 9f3c 23ff 453c f887 343d
00000160: d9a9 de3c 681e 063c 2912 a1bc 7144 30bd
00000170: e7d2 79bd 9397 053c 9f8f f63c da81 1bbb
00000180: 2f42 a3bb 9746 6ebd b205 513c 1fd4 a93c
00000190: 98e8 1cbd 5e84 66bd 871b 1d3d d7cb 31bc
000001a0: 0abb 373c 84b0 f0bb d925 bbbc 9429 76bd
000001b0: cfad 5cbd c349 243d 8080 a8bb d774 c1bc
000001c0: 3762 1ebd 3fe0 30bd 1c8a efbc 5c0c e9bc
000001d0: b348 303d aa33 a23c c9e0 bebc 664d ccbc
000001e0: 8df5 103d 6e23 57bc 66a9 c83c 792c 8b3c
000001f0: 9d95 39bd cabf 243c d8e6 263c 7ca0 223d
00000200: 9fd2 a7bc 4d0d 90bc 02a1 173d 062d 46bd
00000210: b6fe 8539 84ce 193d 95e5 d7bc 2ac2 373d
00000220: 211c f33c 3135 243d 31e4 5bbc db73 363d
00000230: 7a53 c6bc e780 01bd 53fd 043c 5c1d e53b
00000240: a090 803c 91bf 323d 545c cfbc ac9a 483c
00000250: 6940 223c 9db1 723c a904 083c 275f f5bb
00000260: 3899 35bd 1009 ff3c ad13 f0bc 081d f03c
00000270: fa77 63bd 6572 60bc a08c 88bc f322 05bc
00000280: a338 84bb ef7a 9a3c 9174 05bc 4035 4d3c
00000290: ec97 233d 02e7 d6bc 57cb b83b 1040 aabb
000002a0: 881c 3c3d 1577 4f3d 10e9 12bb a64c dabc
000002b0: 807b a4bc 6f19 4c3d b698 86bb 6cd5 6c3d
000002c0: 3b73 0a3d 9caa 283d 7df0 103d 86d2 09bd
000002d0: 6044 df3c a797 99bc ef09 b13c f467 a3bb
000002e0: 9881 f0ba 62f1 4cbd 9c58 34bd 7eaf a03c
000002f0: 213b 5e3c 71ba 18bc e0e4 0b3d 8406 86bc
00000300: 4f3d dc3c 579c a0bc 6024 a53c 64d2 203b
00000310: e2d6 213d dff7 423d 293c 533d 141d b93b
00000320: 1c87 fc3c 54b3 4abd 1f72 f6bc 4bb5 803c
00000330: fbce 8b3b 4ba9 05bd f64e 87bb 5038 86bc
00000340: fd3d 1cbd 7850 1b3c 427b fc3c 3ef3 da3c
00000350: c19e c7bc 3253 2fbd d17f 58bd a295 c8bb
00000360: 5b08 043d ef01 cfbc f221 bfbc 2632 7cbc
00000370: f1c4 40bb 8d67 0cbd 436e 33bd 70f9 2d3d
00000380: 3736 d1bb d3de 593b d90b 3abc f890 2bbd
00000390: 2c2a 443c 2edf bc3b d19f 42bc cd6b 87bb
000003a0: 0f24 3c3c fe17 45bd 82ca 1b3d 76a7 df3c
000003b0: 1535 a83c c68c 92bb 8ba0 fd3c 20da 35bd
000003c0: 1c3b f6bc c0d3 88bc 133e 52bc f752 853c
000003d0: 96bd a5bc 71c0 e1bc 698b 8abc 2267 86bd
000003e0: 0451 1ebc 98e3 35bd e2b5 053d ab33 fe3c
000003f0: 3b73 2c3d 7a65 85bc 60be 013c 87c8 6d3c
0.019730162 0.047996726 -0.033161264 0.014268235 0.034306437 0.015875584 0.0023589921 -0.0064325933
-0.018555788 0.025130887 -0.051522367 0.022501523 0.03243662 -0.030279607 0.038960464 0.053669393
-0.014089045 -0.005343388 0.0464679 -0.026821176 0.016065752 0.011646496 0.026857678 -0.045727912
-0.030888548 0.01139969 0.015505897 -0.04291781 -0.036826167 -0.044598497 -0.04786737 -0.028045695
0.059972405 -0.016465655 0.03268263 0.038533714 0.015004367 -0.049717747 0.027514068 0.013754142
0.05054181 -0.064441994 0.035946842 0.04395075 -0.041257236 0.008537541 0.03381309 -0.05224766
0.012170089 0.016037162 0.008342635 0.054649577 0.05018438 0.041072518 -0.0040334933 0.03547279
-0.06632425 -0.034822013 -0.013116394 -0.031113164 0.047198866 0.015909115 0.036026172 0.029022112
-0.033172093 -0.0058202343 0.0151194595 0.014978731 0.025778197 -0.009733673 -0.014337216 0.04063037
-0.01513597 -0.028233735 0.031590775 0.021171786 -0.01427851 -0.00527306 -0.0401413 -0.054204714
0.01758259 -0.026942177 0.035069283 -0.030834073 -0.012817354 0.019496797 0.012084755 0.044074982
0.027180599 0.00818596 -0.01966198 -0.04303402 -0.060992148 0.008153814 0.03009778 -0.002372852
-0.004982255 -0.05817279 0.0127577055 0.02073103 -0.038307756 -0.05627858 0.03835633 -0.010851822
0.011214027 -0.007345261 -0.022845196 -0.060098246 -0.053876694 0.040109407 -0.0051422715 -0.023615284
-0.038667884 -0.043182608 -0.02924066 -0.028448276 0.04303808 0.019800026 -0.023300545 -0.02493925
0.035390425 -0.013131006 0.024494838 0.01698898 -0.045308698 0.010055492 0.010186873 0.03970383
-0.020486174 -0.017584467 0.037018783 -0.04838278 0.0002555751 0.037550464 -0.02635459 0.044862904
0.029676499 0.04008979 -0.013421104 0.044544082 -0.024209727 -0.03161707 0.008117038 0.0069920253
0.015693963 0.043639723 -0.02531258 0.012243908 0.009903052 0.014812854 0.008301892 -0.0074881497
-0.044335574 0.031132251 -0.029306257 0.029310718 -0.05553434 -0.013699149 -0.016668618 -0.008126008
-0.004035072 0.018857447 -0.008145467 0.012524903 0.039939806 -0.0262332 0.0056394744 -0.005195625
0.045925647 0.050650675 -0.0022416748 -0.026647877 -0.02007842 0.049828943 -0.00410756 0.057820722
0.0338013 0.04117833 0.035385597 -0.033648036 0.027254283 -0.018749071 0.021611182 -0.0049867574
-0.0018349169 -0.050034888 -0.044029817 0.019614931 0.013563902 -0.009321795 0.03415382 -0.016360529
0.026884703 -0.019605799 0.020158947 0.0024539465 0.03951157 0.04759967 0.051571045 0.0056492183
0.030826144 -0.049487427 -0.030083714 0.015711447 0.0042666174 -0.032632153 -0.004129286 -0.016384274
-0.038145054 0.009479634 0.030820493 0.026727315 -0.024367692 -0.04280395 -0.05285627 -0.0061213532
0.03223453 -0.025269477 -0.023331616 -0.015392816 -0.0029414261 -0.03427844 -0.043806326 0.04247421
-0.0063846367 0.0033244386 -0.011355364 -0.0418863 0.011972945 0.00576391 -0.0118789235 -0.004132724
0.011483206 -0.048118584 0.038034923 0.027301531 0.020533124 -0.004472348 0.030960342 -0.044397473
-0.030057482 -0.016702533 -0.012832182 0.016274912 -0.020232003 -0.027557584 -0.016912179 -0.0656264
-0.00966287 -0.044406503 0.03264416 0.031030497 0.04210208 -0.01628374 0.007918924 0.0145131415

conv2.bias f4 [32]
00000000: 3913 1fbd d9c5 caba 64dc 31bd 1ece a53c
00000010: 7317 153c a629 64bb cc2d e83c 6b0c e33c
00000020: b610 24bc c478 203b c556 8f3c afbf 34bd
00000030: 111d 2b3c 81e5 753b 2a3a 1139 b8fb 89bc
00000040: 2f3e f9bc 0fbd 883c 9acc 04bd b279 9b3c
00000050: 2ca8 3fbd 5a82 463c 4b82 d53b 498e cbbc
00000060: 99e8 d2bc 0e2d 82bc 9e4c dbbc 0d77 8dbc
00000070: 3358 10bc 8a85 323d d74f b53a 8fc7 383d
-0.03883669 -0.001547034 -0.04342307 0.020239886 0.009099829 -0.0034814863 0.02834215 0.027715882
-0.01001375 0.0024486044 0.01749743 -0.044128116 0.010443942 0.0037520828 0.00013849945 -0.016843662
-0.03042516 0.016691713 -0.032421686 0.018978927 -0.04679124 0.012116039 0.0065157763 -0.02484812
-0.025745677 -0.015890624 -0.026769932 -0.017268682 -0.008810091 0.043584384 0.0013832998 0.04511219

bn2.weight f4 [32]
00000000: b04e 7f3f 92e3 7f3f 2812 803f c86a 7e3f
00000010: 8cdf 803f 95f6 7f3f faa2 803f 7cd3 7f3f
00000020: e8af 7c3f 49c3 7e3f e9f3 7e3f af01 803f
00000030: 1918 7d3f 4836 7f3f ba78 813f 72bd 7f3f
00000040: 46dd 7a3f 17b2 813f b051 7c3f 47b4 7f3f
00000050: a8ae 803f 1418 813f 3144 823f 4558 7f3f
00000060: b3b9 7d3f cd8b 7d3f 0a7c 803f c54c 803f
00000070: 77cc 813f 432a 803f ea86 803f 5047 813f
0.9972944 0.9995662 1.0005541 0.99381685 1.0068221 0.9998563 1.0049736 0.99932075
0.9870591 0.9951673 0.9959093 1.0000514 0.98864895 0.996922 1.0114968 0.99898446
0.97993886 1.0132474 0.98562145 0.99884456 1.0053301 1.0085473 1.017706 0.99744064
0.9911148 0.99041444 1.0037854 1.0023428 1.0140523 1.0012897 1.0041173 1.0099888

bn2.bias f4 [32]
00000000: 3835 1abb d1a7 1dbc 98b4 d6bb 9942 aabc
00000010: fa50 343b 0c6d b13a 2e07 4cbc 248f 0cbc
00000020: 4dc7 2bbc e995 e8ba 9d7f d9bb 8fb0 30bc
00000030: 4fe8 abbb 8777 8dbb 642b 543b 9286 88bc
00000040: abbd efbc 4702 723c 25e8 74bb 929f 0abc
00000050: 4143 713a 78ee a339 6d39 833b 6fe9 b6bb
00000060: f33d 21bb cc41 b5bc 1361 c4bc 5f83 4dbb
00000070: 03b0 0e3c 3149 d1ba 54b2 2abc a226 4ebb
-0.0023530256 -0.00962253 -0.00655229 -0.02078371 0.0027514086 0.0013536527 -0.012452884 -0.008579049
-0.010484529 -0.0017744872 -0.006637527 -0.010784282 -0.005246199 -0.0043172273 0.0032374496 -0.01666573
-0.029265245 0.014771051 -0.0037369814 -0.008460896 0.0009203442 0.00031267456 0.0040046484 -0.0055820267
-0.0024603575 -0.022126101 -0.02397207 -0.003135882 0.008708957 -0.0015967247 -0.010418493 -0.0031456132

bn2.running_mean f4 [32]
00000000: 56d9 dbbb 455b 613e 4e8d 4cbe 1b9d b9be
00000010: b081 3fbc a28e 19be f2ff 483e fd89 c0be
00000020: 816b 7f3d b3b7 513d 2002 3dbe cfba b43a
00000030: 9364 1c3e 0d5d 413d e786 923d 7c06 b63d
00000040: 8177 c6bd ada0 a7bd f911 f33e 5747 c6bb
00000050: 9ec0 98be b234 00be b182 e2be 46cf dabd
00000060: 8cd6 dc3e 9c8f f53e e4d7 3e3e fcbc 113e
00000070: c268 a0bd 2f44 c03b c55a b83d 063d 2a3e
-0.006709258 0.22007473 -0.19975778 -0.36252674 -0.011688635 -0.14995816 0.19628885 -0.37605277
0.062358383 0.05120058 -0.18457842 0.0013788583 0.15272741 0.04720788 0.07154637 0.088879555
-0.09690762 -0.08184943 0.4747465 -0.006050985 -0.29834455 -0.12520102 -0.44240335 -0.106840655
0.43132436 0.47961128 0.18637043 0.14232248 -0.07832481 0.005867503 0.09001688 0.16624841

bn2.running_var f4 [32]
00000000: c180 a33d 3b7f d33d f10b a93d 5165 8c3d
00000010: fd46 e73d fa2a 113e 7821 b33d 1227 d83d
00000020: 6e41 053e 376f a73d e209 de3d d1c3 2c3e
00000030: aaa3 1b3e 278d d53d 8831 bb3d 2e3f db3d
00000040: 603a fa3d 572a 913d ddb6 1d3e 2e9f 093e
00000050: 96e2 233e 591f 333e 38be fc3d dd7a c23d
00000060: 787a 553e 44a7 1f3e 0f00 d73d 82e7 313e
00000070: 848c 023e 8742 ae3d 4e95 f73d 9414 e23d
0.07983542 0.10327002 0.08254231 0.06855262 0.11292837 0.1417655 0.08746618 0.10554327
0.1301324 0.081755094 0.10841729 0.16871573 0.15199152 0.10427313 0.09140307 0.1070541
0.122181654 0.07088154 0.15401788 0.13439628 0.16004404 0.17492427 0.12340969 0.094960906
0.208475 0.1559115 0.10498058 0.1737347 0.12748915 0.08508783 0.120890245 0.11039081

conv3.weight f4 [32, 32, 5, 5]
00000000: 9457 1bbc abd9 c8bc 2510 4ebc a323 a53b
00000010: 880e 7bbc f6a6 c03c fbce 033c 5112 fc3c
00000020: 27ab babb 10e8 f0bc 1001 71bc edc3 903b
00000030: 4f13 84bc 7b6c f23c 0110 133d fe9c 34bc
00000040: 2053 983c ccc8 1e3d a4f6 a33a 0782 41bd
00000050: 1e1a 19bd edb8 21bd 08d5 7abb 9363 a33c
00000060: e360 ab3b 4fdf 08bc c523 993b 0c56 9c3c
00000070: 90f1 a4bc a77f c7bb bd57 cabb 1dfe 333c
00000080: 2cac 913a 26ec 12bc 3fdd 08bd b0bd c53c
00000090: 75fa 6d3c ff0e d73c d43d 8f3c 388a 633c
000000a0: bdbd b9bc 5173 05bb 1789 593d 4ea6 703b
000000b0: 75db da3c 0ade 9cbc 37ed 6bbc 9685 323d
000000c0: 43e0 a73c 16e1 643c 018c 903c c052 f6bc
000000d0: 65aa 883c b7ee 243d 3114 5dbc 6121 c23c
000000e0: 3717 843b 888f 2ebd 1b02 1bbc 801f ba3c
000000f0: 3081 70bb 87d0 04bd 022a 9c3c 2384 cebc
00000100: 9827 9c3c 61f6 553c ca2f e03b 1fa9 4ebc
00000110: 0e99 e63a 8819 bb3b 17d3 c73b 0e5c 70bc
00000120: 1826 603c 68bd c03c 0520 75bc a679 f8bc
00000130: ed5b e43b b6a9 0a3d 15a0 d9bc 73e3 e53c
00000140: f819 313c 908f a63c 31df 1f3c 4c8c 0cbd
00000150: a2c4 e8bc ab42 8e3c 6712 e83c 6d61 d9bc
00000160: fb0a aebc 49f5 273c 07f1 253c 0067 c13c
00000170: 0dd4 59bb e08f e33c 6bc9 4b3c b242 e23c
00000180: df72 abbc ca9a 17bd 6cec 063d b640 843c
00000190: fb7e 1abd 8840 2bbc 9f4a 87bb d822 863c
000001a0: 5800 debc 8aa8 f63c c0d1 c9bc 66b0 ae3b
000001b0: 0e7c 17bc 79ee b1bc b464 393c 9a71 c33b
000001c0: d7d2 e4bb 96c0 84bb a62f 2abc 1e27 253d
000001d0: 9a76 f1bc 4e5a 6abb 7501 d33b 0f7e dbbc
000001e0: 026a b3bc b183 1c3b 9fd4 b33b 31a2 ed3c
000001f0: 0a65 883c 4644 e93c e6de 11ba 7309 f83b
00000200: 87d6 7ebc 6704 e33b ae56 4d3c 3bc8 43bc
00000210: 1bb8 b5bb 8a16 813c b43c 2f3d 31dd f4bc
00000220: e28d 9f3c 1d2a 903c 21f1 9b3c 7b20 3d3a
00000230: 0fa7 e93c 5e54 4c3d 048f 003d 7ca1 533c
00000240: 69aa d0bc c8cf 913b 8d6f ecbc 783c c73c
00000250: ce15 093c f974 633b b459 ce3c 56fe 0e3c
00000260: d8d3 1ebd 188e 14bd 8e6a 573c ba2c 0fbd
00000270: c1fc 4a3c 92f8 b93b b188 003b c7c8 02bd
00000280: d03c ccbb fd8d 23bc 838d 0c3d c16f e53c
00000290: 5913 023d e855 833c 45cb e73c ac89 11bc
000002a0: 39bf 353d 175e aabc 3565 2d3c a6a0 323d
000002b0: 3a0e 73bc 8321 a2bc 0487 103c 5fc1 7dbc
000002c0: 4fa6 afbc 6f84 013d 2c4f dfbb 73f0 1a3d
000002d0: 0123 26bc 1eb1 433c ff3a 7cbb ebf3 f7bb
000002e0: 5c4a 093c d39d 13bd afbd ea3c 95d7 36bc
000002f0: 2a3d b33b feba 00bd 43f6 98bc 428e 523c
00000300: 56c0 a2bc 4c30 b6bc 9bd4 c43c 36dd bd3b
00000310: 04d0 c8bb dcfd ddbc a2c7 e33c 9abb eebc
00000320: a509 25bb 47f4 c63b 54c3 623c ffe6 cf3c
00000330: 6e73 82bc ec07 8ebc 243f 0fbd d5b1 b6bc
00000340: 594c a43c b2da 22bc 76bf e03c 1ef6 49bc
00000350: 2351 dabb 75a7 50bc 04e9 97b9 5064 c33c
00000360: 3282 ecbb 962e 1b3c 5b62 7dbc 99c0 d53c
00000370: 6c67 4dbc 1fa2 963c 9446 d53b 51d5 833d
00000380: f245 13bc 7d72 173d 7963 bb3c d7f2 5fbc
00000390: d933 3abc 8509 9c3c c718 203c 98c7 333d
000003a0: 4fc3 fcbb f79b 62bc 3973 473c b098 9dbc
000003b0: d9f1 8c3c 684f ca3c c30f da3c 28ca 443d
000003c0: 0e37 49bb 1567 b13c d6a3 8dbc 4565 193d
000003d0: 4af3 353b 9507 81bb 3270 943b 5a81 203d
000003e0: 5f61 4abc 98f8 7f3c 9c79 84bb 85de f6bc
000003f0: e219 d83c be01 993b 2f37 913b 19e5 1fbc
-0.0094813295 -0.024517855 -0.012577091 0.0050396486 -0.015323289 0.023517113 0.008044953 0.030770453
-0.0056966725 -0.029407531 -0.014709726 0.0044178874 -0.016122488 0.029592743 0.035903934 -0.011023758
0.018594325 0.038765714 0.0012509418 -0.047243144 -0.037378423 -0.039483 -0.003827395 0.019944942
0.0052300557 -0.008354022 0.0046734535 0.019084 -0.020134717 -0.0060882154 -0.00617501 0.010985878
0.0011113933 -0.008967435 -0.03341412 0.024138302 0.014525046 0.026252268 0.017485537 0.013887934
-0.022673482 -0.0020362923 0.053109255 0.003672022 0.026715973 -0.019148845 -0.014399818 0.04358443
0.020492679 0.01396968 0.017644884 -0.030068755 0.016682813 0.04026672 -0.013493584 0.023697557
0.0040310877 -0.04261735 -0.009460951 0.022720098 -0.0036698096 -0.03242543 0.019063 -0.025209492
0.019061849 0.01305923 0.0068416344 -0.012613564 0.0017593221 0.0057098307 0.006098162 -0.014670385
0.013680957 0.023527816 -0.014961247 -0.030331444 0.006968966 0.033853255 -0.02656559 0.028062558
0.010809414 0.020332128 0.009757803 -0.034313485 -0.028414074 0.017365774 0.028329087 -0.026535714
-0.02124547 0.010251352 0.010128266 0.023608685 -0.0033237964 0.027778566 0.0124381585 0.027619693
-0.020928798 -0.037012853 0.032940313 0.016144138 -0.037718754 -0.010452397 -0.0041287686 0.016374037
-0.027099773 0.030109663 -0.02463615 0.005331087 -0.009245886 -0.021720158 0.011315513 0.00596447
-0.006983142 -0.0040512783 -0.010387337 0.04032051 -0.029475499 -0.0035759392 0.0064393827 -0.026793508
-0.021901134 0.0023882205 0.005487993 0.029008003 0.016649742 0.028474938 -0.00055645255 0.007569486
-0.015554077 0.006928015 0.012532873 -0.011949594 -0.0055456287 0.015757818 0.0427825 -0.029890629
0.019476835 0.017598206 0.019035878 0.0007214618 0.028522043 0.049885146 0.03138639 0.012916919
-0.025471883 0.0044498183 -0.028861785 0.024320826 0.008367015 0.0034707172 0.025189258 0.008727631
-0.03877625 -0.036268324 0.013147963 -0.034954764 0.012389363 0.005675384 0.0019612724 -0.031929757
-0.0062328354 -0.009982583 0.034314644 0.02800739 0.031756733 0.016032174 0.028295169 -0.008882921
0.044371817 -0.020796819 0.010583212 0.043610238 -0.014834935 -0.01979137 0.008821253 -0.015487998
-0.021441607 0.03162044 -0.006814858 0.037826966 -0.0101401815 0.0119440835 -0.0038487313 -0.007566919
0.008379545 -0.036039185 0.028654901 -0.011159797 0.005469938 -0.03142833 -0.018672114 0.0128513
-0.019867104 -0.022239827 0.02402716 0.0057941927 -0.006128313 -0.027098589 0.027805153 -0.02914219
-0.002518275 0.0060716006 0.013840515 0.025378702 -0.015924182 -0.017337762 -0.034972325 -0.022301594
0.020055937 -0.009939836 0.027435046 -0.012326745 -0.0066625043 -0.012735237 -0.00028974575 0.023851544
-0.007217669 0.009471556 -0.015465344 0.026092814 -0.012536865 0.018387852 0.0065086577 0.06437171
-0.008988844 0.03697442 0.02287458 -0.013668737 -0.0113649005 0.019047508 0.009771532 0.04389152
-0.0077137123 -0.01383113 0.012173467 -0.019237846 0.017205166 0.024696067 0.026618844 0.048044354
-0.0030702981 0.021655599 -0.017290037 0.037450094 0.002776342 -0.0039376714 0.0045299763 0.03918586
-0.012352317 0.015623234 -0.0040428173 -0.030135402 0.02637953 0.004669397 0.004431627 -0.009759211

conv3.bias f4 [32]
00000000: 52a6 153d 1636 fe3c 0ffd efbc 0ffa 13bd
00000010: 2616 023d 2407 573c 799e 103c d520 0cbc
00000020: 5c45 dcbc 40ee dbbc 0f46 c4bc 41ad 5ebc
00000030: 13cc 9f3c 45e2 e9bc 1d7b 0d3d 7328 023d
00000040: b799 063d e62b b73b b61e ad3c 7787 0d3c
00000050: 7a54 67bb 3949 c1bb aa96 bbbc 7c22 cd3c
00000060: 723c 933c 6755 ff3c ef69 fd3b d7c1 c43c
00000070: e2a5 b8bc aa35 d2bc 833a 143c 6b4e 263c
0.03653557 0.03103165 -0.029295472 -0.036127146 0.031759404 0.013124261 0.008826845 -0.00855275
-0.026888542 -0.026847005 -0.023959188 -0.013591112 0.01950649 -0.028550277 0.034541238 0.031776857
0.032861438 0.00558995 0.021132808 0.008638254 -0.0035298155 -0.0058986214 -0.02289899 0.025040857
0.017973159 0.031168653 0.0077335755 0.024018211 -0.022540037 -0.025660355 0.009047153 0.010150532

bn3.weight f4 [32]
00000000: 8479 7d3f 0f9d 823f bc62 7f3f ec12 803f
00000010: f86f 7f3f 5724 813f 13d5 813f a13f 7f3f
00000020: 2cca 7e3f 0226 823f 17e5 813f 5106 7f3f
00000030: eafc 7f3f 3d19 823f 964f 803f 3def 813f
00000040: fd53 813f 4c62 823f 135a 823f 257e 823f
00000050: 05e0 803f cd85 7f3f be69 813f e24a 813f
00000060: a3e1 813f 6866 813f 0fd1 813f d21f 813f
00000070: 0d91 7f3f 8b50 823f 54bd 833f c204 803f
0.99013543 1.020418 0.9976003 1.0005774 0.99780226 1.0089215 1.014315 0.99706465
0.9952724 1.0167849 1.0148038 0.99619013 0.9999529 1.0163952 1.0024288 1.0151135
1.0103756 1.0186248 1.0183738 1.0194746 1.0068365 0.9981354 1.0110395 1.0100977
1.0146984 1.0109377 1.0141925 1.0087836 0.99830705 1.018083 1.0292153 1.0001452

bn3.bias f4 [32]
00000000: db63 31bc ac6c 903c 4426 55bb 09b4 68bb
00000010: f322 82bb c228 71bb 3285 28bb 0557 55bb
00000020: 36ef 0fbb 172e 313c 0850 37ba 6042 c03a
00000030: 5f14 90bb 1238 dcbb 62fb 06ba 1a53 903b
00000040: d603 a338 3971 3d3c e7f8 853c 8924 b6bb
00000050: 46f4 673a 78d9 02bc bc1d 0239 7146 083c
00000060: 2ac7 a0ba a7e5 053c 797b 023c 3867 3a3c
00000070: 1b0e 50bb e40c 703c e98a 9d3c 650d a0bb
-0.01082703 0.017629944 -0.0032524029 -0.00355077 -0.0039714514 -0.0036797975 -0.0025714156 -0.0032553088
-0.002196265 0.010814211 -0.00069928216 0.0014668219 -0.0043969597 -0.0067205513 -0.00051491533 0.0044044377
7.77316e-05 0.011562639 0.016354037 -0.0055585545 0.000884835 -0.007986419 0.00012408843 0.008317576
-0.0012266387 0.008172429 0.0079640085 0.011377148 -0.0031746689 0.014651511 0.019231277 -0.0048844093

bn3.running_mean f4 [32]
00000000: fd8e 1d3f d981 c7be 5cc9 8c3e fdc7 543e
00000010: 49cc 71be d5ea 213e a263 253e 2a31 7ebe
00000020: a61d fa3e e9ab 37bf 285b 2dbd c066 fd3d
00000030: c858 ac3e 80ba 16be d6a2 273e ac21 47ba
00000040: 1183 45bc e5fc 143e 4481 153e af99 733e
00000050: f8b8 193e eb44 e6bd 23f0 99bd 01ec ffbd
00000060: 4c1a 98bd d95b 18be 6a15 003d 1203 1cbe
00000070: 404f 06bd 8bfc 0b3e d38f eebd c8b0 073f
0.6154631 -0.38966253 0.27497375 0.20779414 -0.23613085 0.15812238 0.16151288 -0.24823442
0.48850745 -0.7174669 -0.04232326 0.12373114 0.33661485 -0.14719582 0.1637071 -0.0007596265
-0.012055174 0.14549597 0.14600092 0.23789094 0.15011966 -0.11243614 -0.075165056 -0.12496186
-0.07426891 -0.14878787 0.031270422 -0.15235546 -0.032790422 0.13670556 -0.11648526 0.5300412

bn3.running_var f4 [32]
00000000: e194 623e cc70 553e b91b 213e 6678 1f3e
00000010: 6424 2d3e c8a2 333e 071e 143e 1f2a 353e
00000020: 87e6 7e3e cd46 653e 3ff2 483e a087 573e
00000030: 0583 443e d3ea 193e 1f35 353e 5023 f03d
00000040: f3e0 223e a8cd 473e bb9a 6a3e 5b2f 853e
00000050: 1764 423e 806a 143e c84f e33d 5025 213e
00000060: 8841 643e 08a2 1e3e 7ded 213e 1407 383e
00000070: f4b1 033e 3940 fc3d 770e f73d 949f 3f3e
0.22127105 0.2084381 0.15733232 0.15573272 0.16908413 0.17542565 0.1446458 0.17691849
0.24892627 0.2239029 0.1962366 0.2104783 0.19190605 0.15030985 0.17696045 0.11725485
0.15906124 0.19512045 0.22910587 0.26012692 0.18983494 0.14493752 0.110992014 0.1573689
0.22290623 0.15491498 0.15813251 0.1797145 0.12860852 0.12316937 0.12063306 0.18713218

shared_layers.0.weight f4 [128, 128]
00000000: 08eb dc3c 06f8 05be 0e33 893d 3df5 123d
00000010: 2927 333e 11bc 74bd 27a3 a2bd 738a 90bc
00000020: 3d98 0cbe c3b2 94bd 2dad a43d 7aaa c13d
00000030: 23c5 f2bd cdba ff3d 4cf5 0abe 3cc5 08be
00000040: b0f7 203d 7a23 adbd 7f7d d4bd fe7e 33bd
00000050: 47da 1ebe ad3e a53d 7c30 003e ec64 123e
00000060: 7ad8 be3d 8e3b 123e 0d0a 7a3d ddc2 183e
00000070: f9c3 3dbd 18b5 8a3d a9f5 f0bb 4071 ffbd
00000080: 05b2 433d 968b 79bc f757 d03d e230 d33d
00000090: faad 273e e936 dcbd da07 fc3d 86c2 1dbe
000000a0: 455a c13d 7ae3 b33d 3929 c6bd 550f 893d
000000b0: d7e3 eebc 1930 103d b6e3 273d 01b4 d53c
000000c0: a776 293e 4075 70bd 2dbf c7bc feba fc3b
000000d0: b886 dd3d b145 f4bd 1606 633d 77c9 83bd
000000e0: ecbd 11be 020f a13b 24d6 0cbe bfa3 153e
000000f0: 18fd e63c c7c5 8b3d 24b1 b03d 1852 f13d
00000100: 08fd 9e3d 3b2d 383e 99cb 203e 8fbd 823d
00000110: 039f dc3d 10d4 513c af74 fd3d b575 0f3e
00000120: d06d 1f3d a152 033e 3d12 bb3d 69a2 9a3d
00000130: 3f3d 04be 7f58 73bd 4d45 063d 6bd8 01be
00000140: 8836 ac3b 6a28 a73d 5c8a f9bd 29a7 0b3d
00000150: 5ad2 2a3e 779d 033d bd72 51bd 9aef b1bd
00000160: 0d5d 89bd 0991 813c dbc1 2fbd 28b9 a5bd
00000170: adb9 e5bd 38f0 b5bd decf b33d 366d bd3d
00000180: d392 c13d 5b53 a43c 93f6 09be 051b f2bd
00000190: 5782 e0bd 990d d1bd a43f a93c d10b 223e
000001a0: dcc6 90bd 3f2e bb3d 64a3 7dbd 012c 20bd
000001b0: 8e9c 09bd 7297 9bbd 25b1 a53d c8ed a3bd
000001c0: 3908 683c d321 5bbd bbc4 32bd 241a 633b
000001d0: d38d 01be a7f3 a7bc ce08 e1bd 8e27 afbd
000001e0: a2c0 25be b1db babd 4ef3 b73d 6971 11be
000001f0: 2256 be3d 15d1 2d3d 6281 f4bd ca65 9f3c
00000200: 5f21 f5bd 022d 99bb 3005 0d3c be9b 96bd
00000210: f149 ee3d e7b1 903d b810 98bd 19af f4bc
00000220: 3e48 40bd dd52 babd 46a0 7b3d cfcb 10be
00000230: 2ec4 033e 25d2 febd bb6d 42bc 4b0d 963d
00000240: aeff 04bd c0f3 533c 9466 a93d 5b06 753d
00000250: af1c 76bd 64dd 2f3d 9837 f6bd 0fa4 7e3d
00000260: 73f5 6b3d 051c 2e3c 8d23 023e 465e b13d
00000270: 6999 2fbd 336e 9f3d 5ac7 cb3d dc86 d7bd
00000280: d76a 013e 44c5 023e a497 a93c 97dd a2bd
00000290: c7c6 a23c 5ebb 9bbd d92f 043e 05f9 9b3d
000002a0: 2f55 883d 33e1 1e3d cb10 16be 8f98 febd
000002b0: 64e7 0abd db99 2bbd 3276 943d 928a 0e3d
000002c0: 0feb a3bd 27ad 873c 6244 783c 5a65 d5bd
000002d0: 59de 9abd 3977 aa3d c2cc 25be bea8 d53c
000002e0: cd0c 12be 07de 7fbd 7b95 99bd 8c23 0ebe
000002f0: c2e1 5c3d 2ab1 00be f717 21be 9e84 12bd
00000300: 5f60 853c 72b9 79bd f2a9 cc3d ce00 2bbe
00000310: bae4 e1bd df73 b3bd 73be 81bd 3313 803d
00000320: 8360 90bc 5348 fdbd 82bc ec3d 3b96 3e3d
00000330: 490f c6bc 31f6 9e3c b062 b3bd 3ce6 95bc
00000340: cde4 d13d e775 4cbd 9129 7fbc 8bc9 643d
00000350: b788 7f3d 244f 743d 004f e93d 2455 1cbe
00000360: 69a1 313d f4d1 fcbc 5433 fa3c 2e49 febc
00000370: 0014 9d3c bcfb f4bd fb15 ea3d bb3c 0dbe
00000380: 1bf9 033e 0b32 6a3d bd1e 863d 1eb9 81bd
00000390: f98c c13d 893b a4bd 21f1 ec3d 8377 f4bd
000003a0: 6dec 54bc 3c22 fb3d 78a8 e7bd 2c20 8a3d
000003b0: 4a3a 183c 5f76 ec3d 3041 443a 95e8 9c3b
000003c0: 11d9 e33d 57fe 663d c061 133e 1c49 dd3d
000003d0: ed28 05be e63c de3d 4e66 913d 8321 fbbc
000003e0: 3c80 233e 8c3f bfbd 7ad5 ea3d a227 073e
000003f0: c5e6 d0bd b563 843d 77ef 3abd 387c 80bd
0.02696754 -0.13082895 0.06699191 0.03587841 0.17495407 -0.059749667 -0.07941275 -0.017644143
-0.1372995 -0.072606586 0.08040843 0.09456344 -0.11854007 0.12486801 -0.13570136 -0.13356489
0.039298713 -0.08454032 -0.10375499 -0.04382228 -0.15512954 0.08068595 0.12518495 0.14296311
0.093186334 0.14280531 0.06104474 0.14918084 -0.046329472 0.06772822 -0.0073535037 -0.124727726
0.047777195 -0.015231034 0.10173028 0.10312058 0.1637496 -0.10752661 0.12306185 -0.15406236
0.09441046 0.08783622 -0.09675831 0.066923775 -0.029161377 0.03520212 0.040988646 0.02608681
0.16549169 -0.05870557 -0.024383152 0.007712721 0.10816711 -0.11927355 0.055425726 -0.06434911
-0.14232606 0.004915119 -0.13753563 0.14613245 0.028196856 0.068248324 0.08627537 0.11783236
0.07763106 0.17986004 0.15702666 0.06383812 0.107725166 0.012806907 0.12375771 0.14009745
0.038923085 0.12824489 0.09134338 0.075505085 -0.12913989 -0.05941057 0.032780934 -0.12680213
0.005255524 0.08162005 -0.12184593 0.034094963 0.16681805 0.032132592 -0.051134814 -0.086882785
-0.06707201 0.015816228 -0.042909484 -0.080919564 -0.112170555 -0.08883709 0.08779882 0.09249346
0.094518326 0.020059278 -0.13472967 -0.1182156 -0.1096236 -0.10207672 0.020660229 0.1582482
-0.070691794 0.0913968 -0.0619234 -0.039104465 -0.033596568 -0.07597245 0.08090428 -0.080043375
0.014162117 -0.053499054 -0.043644648 0.0034653032 -0.12651758 -0.020501925 -0.109880075 -0.08552466
-0.16186765 -0.09123934 0.089819536 -0.14203419 0.09293772 0.042435724 -0.1193874 0.019457716
-0.11969256 -0.004674555 0.008607194 -0.07353924 0.11635197 0.07065182 -0.07425064 -0.02986865
-0.046943896 -0.09097836 0.061432146 -0.14140247 0.12867805 -0.12442426 -0.011866982 0.07326754
-0.032470398 0.0129365325 0.08271518 0.059820514 -0.06008595 0.042935744 -0.120223224 0.062168177
0.057607125 0.010626798 0.12708874 0.08660559 -0.042870913 0.07784691 0.09950133 -0.10523769
0.12638412 0.12770563 0.02070219 -0.07952421 0.019870175 -0.07604097 0.12908877 0.07615856
0.066568725 0.038788985 -0.14654844 -0.12431442 -0.033912078 -0.041894775 0.072491065 0.03480012
-0.08003818 0.016562058 0.0151530225 -0.10419722 -0.07561941 0.08323521 -0.1619139 0.02608144
-0.14262696 -0.0624676 -0.07499214 -0.13880748 0.053926237 -0.12567583 -0.15731798 -0.035771005
0.016281305 -0.06096787 0.09993352 -0.16699526 -0.11029954 -0.08762335 -0.063351534 0.06253662
-0.017624145 -0.123673104 0.115593925 0.04652999 -0.02417721 0.019404503 -0.087590575 -0.01829826
0.102487184 -0.049917128 -0.015573875 0.05585627 0.06238624 0.059645787 0.11392021 -0.15266854
0.043366823 -0.030861832 0.030542053 -0.031040754 0.019174576 -0.11962077 0.11429974 -0.13792698
0.12887995 0.05717663 0.065488316 -0.063341364 0.094507165 -0.08019168 0.11569429 -0.119368576
-0.012995821 0.12262389 -0.1131143 0.067444175 0.009291241 0.11546015 0.00074865203 0.004788468
0.111253865 0.0563949 0.14392757 0.1080496 -0.13003893 0.10851459 0.07099591 -0.030655628
0.15966886 -0.093382925 0.11466499 0.13198712 -0.10200266 0.0646433 -0.045638528 -0.06273693

shared_layers.0.bias f4 [128]
00000000: 5e80 953d 205c 333d 389d 8bbd 0b93 613c
00000010: 140e b5bd 8c28 373d 5d7c 39bd acf3 2cbc
00000020: b705 84bd 7da7 b53d 4985 b03d bdeb f43c
00000030: 79e6 833c 01c7 be3b 273e 493d 787b 773d
00000040: 6f07 0dbd 84a6 813c 4886 a2bc 9384 853d
00000050: f132 d03c 4bed 5dbd 09aa 52bd c55c 0c3d
00000060: aa75 ab3c 0dd8 c1bc 63be 98bc 6504 d8bc
00000070: 3383 22bd e4d3 943c 3152 6c3d 1a77 febc
00000080: 7d1d 353d 0448 31bd 0ba6 e03c cd18 413c
00000090: a49c da3c a6cf 5fbc 5f41 ab3d a1b2 4abd
000000a0: 9450 d33c 9c45 62bd 975b 813d ae5c e13c
000000b0: 793f abbb 9796 d53d 4a8f 32bd 1a13 7b3d
000000c0: 6715 623c 3184 5d3d fd12 0d3d 9727 04bd
000000d0: 24c9 4a3c 8ffb 3bbd 12ed 35bd a690 753d
000000e0: 8bdd 463d 5301 b5bd c2be 363d 1e22 8d3d
000000f0: 57b4 8c3c 3a6c d0bc 056e 593c 4cab f13b
00000100: b977 20bd c9e5 273d fef6 743d 28da 823d
00000110: 9978 41bd 0af3 02bd 8836 be3d 0821 e33c
00000120: 8ac3 4cbd c948 00ba 782f 203d 6d5d d2bc
00000130: bd24 afbd 8833 f23c ceb6 36bd 9eb3 40bd
00000140: 2353 003d 1bf8 363b 485f 9ebc 985e 983c
00000150: 2f0a 58bd 55bd 61bd 0dcb e8bb 2dfb 9c3d
00000160: 8e76 6c3d bd96 9c3c 4c4d ecbb fe95 ff39
00000170: 6816 903a af7a eaba 7e34 be3c f84e 8bbd
00000180: 1e42 3d3d 8674 443b ba6c 4b3d 3a72 a43d
00000190: e640 823d 283e 333d ea2d 403c 02f5 70bd
000001a0: 634f b23d 61cf ff3c aadf 3f3d 994b a03c
000001b0: 4fa8 613d db1f 7ebd f42a 8abd 2588 81ba
000001c0: d9a4 a3bd a24f 89bb 6e52 96bd b2c5 03bc
000001d0: 0b4a 94bd 89be c3bc 5fa1 813d f918 8ebc
000001e0: e51c d63c dba5 afbb 23fc 8abc bfc4 82bd
000001f0: f03e 6ebd 3314 7bbd f972 1b3d 7261 033b
0.07299875 0.04378903 -0.068170965 0.013767968 -0.08840576 0.044716403 -0.045284618 -0.010556143
-0.064464025 0.088698365 0.08619172 0.029897565 0.016101109 0.005822063 0.04913154 0.060420483
-0.034430917 0.015826471 -0.01983942 0.06519427 0.025414916 -0.05418138 -0.05143169 0.03426816
0.02093013 -0.023662591 -0.018645471 -0.026369283 -0.039675903 0.018167444 0.05769557 -0.031062651
0.044217575 -0.04328157 0.027422925 0.011785698 0.02668602 -0.013660347 0.08362078 -0.04948676
0.025795259 -0.055242166 0.063162975 0.027510013 -0.0052260724 0.10429113 -0.043593682 0.061297514
0.013799048 0.054081146 0.034441937 -0.03226432 0.012377057 -0.0458942 -0.04441554 0.0599524
0.048551124 -0.08838143 0.044615515 0.06891273 0.017175836 -0.025442231 0.01327086 0.0073751565
-0.039176676 0.040990625 0.059805863 0.06389266 -0.04723415 -0.03197006 0.09287745 0.027725711
-0.049991168 -0.00048936583 0.03910777 -0.025679315 -0.08551929 0.029565588 -0.04460793 -0.047046296
0.031329285 0.0027918878 -0.019332543 0.018599793 -0.052744087 -0.0551122 -0.0071042837 0.076650955
0.05773025 0.019114846 -0.007211363 0.00048749143 0.0010993006 -0.0017889346 0.02321839 -0.068021715
0.046205632 0.002997668 0.049664237 0.080295995 0.06360035 0.04376045 0.011729697 -0.058827408
0.08706548 0.031226816 0.046844162 0.019567298 0.055092152 -0.0620421 -0.06746474 -0.0009882493
-0.079904266 -0.004190401 -0.07339941 -0.00804274 -0.07240685 -0.023894565 0.06329607 -0.017345892
0.026136825 -0.0053603477 -0.016965931 -0.063851826 -0.05816549 -0.06129856 0.037951443 0.0020047096

shared_layers.1.weight f4 [64, 128]
00000000: 8d53 143d 18d5 093e 678e 17be 016c 853c
00000010: 3331 9b3b 01a1 15be 26af d7bd 3623 283e
00000020: 3cd6 c9bd 9b97 aebc f5bf 723d 4d11 eabd
00000030: 3211 15be 1448 1cbe abc1 2d3e c5cf c03d
00000040: e7e1 f0bc 15a1 0ebe 03ce 203e 2cd2 0a3d
00000050: 2bde 1f3e 24a4 c43d d08a a33d 6404 873c
00000060: 2c6e 323e 4bcb 2ebd aa23 06be 215f e13c
00000070: 6ff5 fbbc 45cf 51bd f68e 49bd 2548 443d
00000080: 2575 3a3e 7123 423b 2060 0cbe 8405 ff3b
00000090: 95d6 11be a2cb 193e 79b4 2a3e 038a b7bb
000000a0: 9ca3 323d 347b ed3d 86f8 d13d e14a 95bd
000000b0: 4b13 36bd e653 003e 22d8 463d 4f99 1c3e
000000c0: 0bfe 303d bcfd 2b3e 80bf 923d c0fb 8d3d
000000d0: ed5e 2b3e 52bd 8dbd f25a aebd 5e8b 8f3c
000000e0: 6cf9 d9bd b9a5 cbbd 6a2a a63d e97e 193e
000000f0: 9bb8 c43c a3eb ab3d 092d 243d 3ab1 f93d
00000100: de62 213e f760 ffbd e7de d43d 2f64 173e
00000110: 9fc2 a73d 2e42 1dbe 9788 12be 3a8c b13d
00000120: 9643 92bd bc9d 3fbd f3cc 283e cde3 543d
00000130: 0e1e 54bd ada2 6f3d 503d 273e 07e4 15be
00000140: 4e8e 5c3d 6b11 ed3d 6aa6 003e a764 6fbc
00000150: ed4c e5bd 1c9b b63c 3d22 6ebd 30e4 30bd
00000160: b7f4 32be 893e 313e 5f18 58bb 0ade 0e3e
00000170: 1e0b e2bd c49d ce3d c645 19be 5a51 16bc
00000180: cbfd c33d a8e6 743d c6b6 063e ee6e 2dbd
00000190: 4c66 81bd dfae d83d 5021 5dbd 1617 1ebe
000001a0: aedf 98bd 4734 aabd eb71 87bd 7602 b1bd
000001b0: cc80 a93d 740d b1bd 2bff c0bc 4997 823d
000001c0: 9742 37be e427 293e 0180 6ebd 8122 9e3d
000001d0: f953 f9bd c166 443c d147 4abe 3657 dd3d
000001e0: 7dfe d33c 94f6 903d d11e 45be bd86 193e
000001f0: b983 a63d 5e05 1c3e 3464 c23c d18e eabd
00000200: 7dc3 8c3d bf53 c4bd 9038 2fbe 88c8 70bd
00000210: 8eef f3bd 45a0 ea3d db0e 943d 5067 2abd
00000220: 8ee7 1bbd 3be6 1c3e 97df f03c 2ecd 13bd
00000230: 2643 19be 256b a1bd e2cf 913d 4eff 25be
00000240: 1f73 e0bd 28cd 0dbe e164 1c3e 3712 003c
00000250: 1742 cf3d 80f5 1cbd efdf 02be d61a 123e
00000260: 9865 183e 7d50 12bc b69c 443c 562a d2bd
00000270: 1743 b13c d3d8 4c3e 68a9 70bd f386 a6bc
00000280: f8c2 ee3d 9b26 ed3c fe53 c03d f87c 20be
00000290: d65b 553d c3a9 bdbb d0f2 35bd 8356 e8bc
000002a0: 5b27 18be ec52 af3c 5d9a f93d f9ba 9b3d
000002b0: 2f2c 00be 22fd 133e 7293 d9bd e481 dbbd
000002c0: 396c c83b 2c00 193e 65c2 d4bd ad96 883d
000002d0: 366f fdbd e40c b13d 41ca 1fbe ffee 18be
000002e0: a81d 273e 63f7 0ebc f239 ddbc 6a2f 133e
000002f0: 959b 333e 0354 2c3e e2af bd3d 33cd 39be
00000300: 3ecd d63d ea0b e53d 0fe0 c03c 7319 77bd
00000310: 16c0 de3d 2ce5 6dbc 8df9 03be b77d b3bd
00000320: a30f 01bd a375 ce3c a647 273e cd6f 953d
00000330: 771a 8fbd 6967 233e fd88 b7bd 29a8 3abd
00000340: d04b dc3d 3d3b 283e 7424 db3d 6f01 d5bd
00000350: e2a1 f6bd 5fbf 723c 0f71 9e3b 90a4 fdbd
00000360: 8ffe 103e 618a ddbd 7202 a53c 3d5c a3bd
00000370: 0667 ef3d 7a55 923d 49a6 303e dd6b 393d
00000380: dc85 4fbd 1a35 a1bd 2602 6ebc c8e9 44bd
00000390: 0c87 2e3e 31df 05be 6bb8 abb9 adf5 95bd
000003a0: 2488 703d ee59 0b3e 2e9c 383e 23f9 bfbc
000003b0: 45a8 6fbd 284f 20be 6750 6bbd 2cbb 363e
000003c0: cf81 cfbd c015 d2bd e548 5b3d f185 26be
000003d0: 2880 1e3d 80f0 3dbd ee16 e4bb 2049 23be
000003e0: 5c96 433e 81ef fcbd 5161 24bd 3667 fbbc
000003f0: c439 653c 09d5 803d 225b 8d3d f307 82bd
0.036212493 0.13460195 -0.14800416 0.016286852 0.0047360896 -0.146122 -0.10531454 0.16419682
-0.09855315 -0.021312525 0.059265096 -0.11429081 -0.1455734 -0.1526187 0.1696841 0.09414629
-0.029404594 -0.13928635 0.15703587 0.03389184 0.15612094 0.0960162 0.07985461 0.016481586
0.1742484 -0.042674344 -0.13099542 0.027511181 -0.03075668 -0.05122306 -0.049208604 0.047920365
0.1820875 0.0029623176 -0.13708544 0.00778264 -0.14242013 0.15019086 0.16670407 -0.005601169
0.04361306 0.11595765 0.1025248 -0.07289673 -0.044451993 0.12532005 0.048545964 0.15292858
0.043211024 0.1679601 0.07165432 0.06932783 0.1673543 -0.069208756 -0.0851344 0.01752251
-0.106432766 -0.099437185 0.081135586 0.14989819 0.024013808 0.083945535 0.04008201 0.121920064
0.15760371 -0.124696665 0.10394078 0.14784311 0.08191418 -0.15357277 -0.14309917 0.08669324
-0.07141797 -0.046781287 0.16484432 0.05197506 -0.051786475 0.05850475 0.16331983 -0.14637767
0.05384665 0.11575588 0.12563482 -0.0146114 -0.11196313 0.022290759 -0.05813812 -0.043186367
-0.17476164 0.17309012 -0.003297351 0.13951889 -0.11037277 0.10088685 -0.14968023 -0.009174669
0.095698915 0.059790283 0.1315566 -0.04234212 -0.0631834 0.10580229 -0.053986847 -0.15438494
-0.074645385 -0.08310752 -0.06613525 -0.086430475 0.08276519 -0.08645144 -0.023559174 0.063765116
-0.17896496 0.16519123 -0.058227543 0.07721425 -0.1217422 0.011987389 -0.19753958 0.1080765
0.025878185 0.07078281 -0.19250037 0.14992805 0.08130593 0.15236422 0.023729421 -0.11453021
0.06873224 -0.09586286 -0.1711142 -0.05878499 -0.11910926 0.1145635 0.07229396 -0.041602433
-0.038062625 0.15322201 0.029403491 -0.036084346 -0.14967021 -0.07881764 0.071197286 -0.16210672
-0.109594576 -0.13847792 0.15272857 0.007816843 0.101200275 -0.038320065 -0.12780736 0.1426805
0.14882505 -0.008930323 0.012000253 -0.10261981 0.021638436 0.20004587 -0.05875531 -0.02032802
0.11658281 0.028949073 0.0939102 -0.15672672 0.052089535 -0.0057880594 -0.044421017 -0.028361565
-0.14858763 0.021401845 0.121876456 0.076040216 -0.12516855 0.14452031 -0.10623826 -0.10718134
0.006116417 0.14941472 -0.1038864 0.06669364 -0.123747274 0.08645037 -0.15604497 -0.1493492
0.16319907 -0.008725974 -0.02700517 0.14373556 0.17539819 0.16828923 0.092620626 -0.18144684
0.104883656 0.11183913 0.02354434 -0.060327005 0.10876481 -0.014519971 -0.12888165 -0.087642126
-0.031509053 0.025202578 0.16335925 0.07296715 -0.0698747 0.15957417 -0.08961675 -0.045570526
0.107566476 0.16428848 0.10700312 -0.10400664 -0.120425954 0.014816134 0.004835255 -0.123849034
0.14159606 -0.10817409 0.020142768 -0.079765774 0.11689572 0.071452096 0.17250933 0.045268882
-0.050664768 -0.078714564 -0.014526879 -0.048074514 0.17043704 -0.13073422 -0.00032753064 -0.073222496
0.058723584 0.13608524 0.18028328 -0.023434227 -0.058510084 -0.15655196 -0.057449725 0.17844838
-0.10132181 -0.10258055 0.053536315 -0.16262032 0.038696438 -0.046371937 -0.0069607412 -0.15945864
0.19100326 -0.12350369 -0.04013187 -0.030688863 0.013990823 0.06290633 0.06902148 -0.063491724

shared_layers.1.bias f4 [64]
00000000: 2fa8 153d 8390 8fbd 2dc4 b1bd 8f58 65bd
00000010: e470 5fbd 57a0 6c3c e472 96bd fafc 1c3d
00000020: 1260 b43c 37b2 7d3d 4fa5 473d 6944 f8bb
00000030: 88d9 493d 2bf1 443d cce4 a53b bf71 38bd
00000040: 495e 25bd 1f55 123c 75e6 0cbd b8a5 9b3d
00000050: db44 f8bb c3e9 a53d f47f 4abb ad45 81bc
00000060: 1dc8 5ebc 5b8a a5bd 903c 913d 19a1 2b3c
00000070: 0878 21bd 3ec3 573d d663 333c 4af0 c23d
00000080: b81d 763d 63d5 35bd 2c0d abbd 1c9a d83c
00000090: 23d9 753d 7d33 633a 5247 e0bb 8174 97bd
000000a0: b088 283d 9764 d7bc a635 823d 7e18 76bd
000000b0: 08b6 003d 190a bf3c d061 b93d 9a54 6e3c
000000c0: c8a6 773d 9c72 8f3d 29c5 b43d 7703 f3bb
000000d0: c340 d03c 3f35 9fbd e577 b43c 5ecd 9abd
000000e0: cd7a 94bd 70d9 bc3d de9b 913d cf81 d0bc
000000f0: 583e ae3d 68be 323d 362f 44bd 5cc1 2dbc
0.036537345 -0.07009985 -0.08679996 -0.05599266 -0.05455102 0.014442525 -0.073461324 0.038327195
0.022018466 0.061937537 0.048741635 -0.0075765145 0.04927972 0.04808156 0.005062675 -0.04503035
-0.04037312 0.008931427 -0.03439947 0.07599968 -0.0075765676 0.08101227 -0.003089902 -0.015780294
-0.013597515 -0.0808303 0.070916295 0.01047542 -0.03942111 0.05267643 0.010949096 0.09518488
0.060086936 -0.044392955 -0.08352122 0.026440673 0.06002153 0.0008667035 -0.0068444395 -0.07395268
0.04114598 -0.026293082 0.06357889 -0.06008195 0.0314236 0.023320245 0.090518594 0.014546538
0.06046179 0.07004282 0.08826668 -0.0074161845 0.025421506 -0.07773828 0.022029826 -0.07558702
-0.07249985 0.092211604 0.071098074 -0.025452523 0.08507985 0.043638617 -0.047896586 -0.0106051825
