policy_ppo.pt (torch, 910129 bytes, 76 tensors)

sigma f4 [3]
0.0 0.0 0.0
00000000: 0000 0000 0000 0000 0000 0000

conv1.weight f4 [16, 3, 5, 5]
-0.004536952 0.060246304 -0.09438001 -0.08437884 -0.04133073 0.031181183 -0.002522841 0.09172875
-0.010857913 0.030279849 -0.035803873 -0.02479303 -0.11061963 -0.07652057 -0.04651671 -0.00011218091
0.04272636 0.068639785 -0.07695367 -0.048251275 0.03939374 0.09383214 -0.023854865 0.08859723
-0.017989181 0.0094206985 0.10220359 -0.1086982 -0.07638075 -0.034314085 -0.047123462 0.09686039
-0.07882929 -0.05756429 -0.085944265 -0.111558326 -0.07157845 0.0958095 0.048048936 0.0528724
0.0016973467 -0.063236274 0.01511901 -0.10994828 -0.08638506 -0.060407892 0.06978966 0.06253602
-0.052834805 -0.0038441604 0.072033875 0.11294923 0.04428064 0.01374534 0.0754477 -0.068230286
0.020905282 -0.09095545 -0.0824096 -0.06217798 0.050894275 0.045104597 -0.06837436 0.033816393
0.062718384 -0.017182823 0.003641453 0.027010817 0.07242834 0.11320964 -0.08730699 -0.042127825
0.043674584 0.0974956 0.10212726 0.106739484 0.024538554 -0.098160096 0.011731369 -0.07023353
-0.10342749 0.10500611 0.08798391 -0.11618549 0.02190144 -0.01697411 -0.017712962 -0.05476813
0.04364009 -0.07003108 0.043624796 0.05939972 0.08443525 0.0420028 -0.114527926 -0.07450698
0.05908446 0.026985327 -0.089255884 -0.067587845 0.1111138 0.077774346 -0.048550874 -0.027760573
-0.109377384 0.0018499099 -0.08428489 -0.08561855 -0.004966542 0.018698975 -0.044112075 0.07214015
-0.07026729 0.10700576 0.082685836 -0.09318308 -0.025683967 0.0067808474 0.017894065 0.03097313
0.048623916 0.008538089 -0.054953024 0.055818543 -0.10966732 -0.067529544 -0.028679568 -0.05717569
-0.040333368 -0.093045965 -0.02400492 0.025797455 -0.07486328 -0.0017713176 0.085836574 -0.012545853
0.0038010639 -0.010993422 0.025771711 0.07644016 0.10814627 0.07041627 0.110482775 -0.0063842055
-0.099940024 -0.055896293 0.07647184 0.00036953227 -0.0535595 -0.08792071 -0.10556733 -0.09548621
-0.02080918 0.06492255 0.060114007 -0.10711858 0.073847145 -0.089081526 -0.0228732 -0.04904915
-0.016335452 -0.018473037 -0.10296849 -0.101634935 -0.021184767 0.003609515 -0.048892204 0.04593224
-0.10332155 -0.008709305 0.101038314 -0.044613447 0.10699721 0.043704953 -0.10470439 0.07505455
-0.011774513 -0.050769668 0.09307832 -0.09557745 0.013381527 -0.023477308 0.07990078 0.031761914
0.052834976 0.046722334 -0.026050812 -0.026130894 -0.09845256 0.06054545 0.09214518 0.07972722
-0.083977856 0.0021651606 -0.08268735 -0.0668803 -0.06735119 0.036963608 -0.07185328 -0.0050825956
0.004445515 0.07284679 -0.086432755 -0.077574514 -0.06827682 0.08265388 -0.040019844 0.095972665
0.042037304 0.014185829 0.005005514 -0.019065091 0.016388396 -0.026293805 -0.0035207602 0.016863955
-0.08864583 -0.0594633 0.093647875 -0.095787406 -0.00856674 0.114363454 0.041584536 0.0023465725
-0.10026205 0.05756817 -0.081338584 -0.032214932 -0.03825086 -0.017624546 -1.3865976e-05 0.09588302
0.015234461 0.10435159 0.07217746 -0.073896796 0.051301375 -0.08094466 -0.048329845 0.034885425
0.03893218 0.08487065 -0.03715548 0.0026202756 0.06131639 -0.1108205 0.08207945 -0.096142545
0.0017526749 -0.02101856 -0.06037403 0.015208209 0.09250025 -0.03466905 -0.06889625 -0.04439615
00000000: b6aa 94bb d4c4 763d 4f4a c1bd d0ce acbd
00000010: 694a 29bd ae6f ff3c 4056 25bb 48dc bb3d
00000020: 63e5 31bc 720d f83c 15a7 12bd c11a cbbc
00000030: 8b8c e2bd d1b6 9cbd 4e88 3ebd ab42 ebb8
00000040: d601 2f3d 0493 8c3d e399 9dbd 21a3 45bd
00000050: 555b 213d 112b c03d 476b c3bc 7772 b53d
00000060: 0c5e 93bc 4659 1a3c 1e50 d13d 299d debd
00000070: 836d 9cbd ed8c 0cbd 8804 41bd bd5e c63d
00000080: 4071 a1bd 88c8 6bbd 8c03 b0bd b178 e4bd
00000090: b997 92bd c537 c43d f6ce 443d bb90 583d
000000a0: 8179 de3a 0582 81bd b9b5 773c 902c e1bd
000000b0: a6ea b0bd 446e 77bd e2ed 8e3d e312 803d
000000c0: 4f69 58bd 4fee 7bbb 7f86 933d ed51 e73d
000000d0: 9e5f 353d 2234 613c 5384 9a3d 52bc 8bbd
000000e0: 8e41 ab3c da46 babd 5dc6 a8bd 56ae 7ebd
000000f0: 8476 503d 99bf 383d db07 8cbd 0f83 0a3d
00000100: 7f72 803d fec2 8cbc 72a5 6e3b ca45 dd3c
00000110: 4f55 943d 75da e73d 02ce b2bd 3a8e 2cbd
00000120: 1fe4 323d c6ab c73d 1928 d13d 3b9a da3d
00000130: 1405 c93c 2908 c9bd ee34 403c 99d6 8fbd
00000140: cbd1 d3bd 720d d73d e930 b43d a8f2 edbd
00000150: a66a b33c 4a0d 8bbc c61a 91bc 8c54 60bd
00000160: f3bf 323d 746c 8fbd eaaf 323d 1f4d 733d
00000170: 63ec ac3d 210b 2c3d 9e8d eabd 1e97 98bd
00000180: 8c02 723d 5510 dd3c cacb b6bd 7f6b 8abd
00000190: a28f e33d 2848 9f3d 48dd 46bd 246a e3bc
000001a0: 4001 e0bd ad78 f23a 8e9d acbd c758 afbd
000001b0: 60be a2bb 982e 993c ddae 34bd 37be 933d
000001c0: 4ce8 8fbd d625 db3d 3157 a93d c5d6 bebd
000001d0: 2f67 d2bc df31 de3b 9396 923c 5dbb fd3c
000001e0: df29 473d 57e3 0b3c 6c16 61bd fca1 643d
000001f0: 4399 e0bd ee4c 8abd 6af1 eabc 0e31 6abd
00000200: 9a34 25bd e28e bebd f7a5 c4bc 2f55 d33c
00000210: eb51 99bd 8e2b e8ba 16cb af3d 1f8d 4dbc
00000220: 451b 793b c11d 34bc 321f d33c a98c 9c3d
00000230: cb7b dd3d 6836 903d cb44 e23d 9932 d1bb
00000240: 5bad ccbd 83f3 64bd 459d 9c3d c8bd c139
00000250: 3561 5bbd c60f b4bd af33 d8bd 468e c3bd
00000260: 0378 aabc 1df6 843d 1b3a 763d fc60 dbbd
00000270: 2c3d 973d 6070 b6bd 9460 bbbc c3e7 48bd
00000280: edd1 85bc c454 97bc 25e1 d2bd fa25 d0bd
00000290: ad8b adbc 9d8d 6c3b 3143 48bd 7223 3c3d
000002a0: 409a d3bd 79b1 0ebc 2ded ce3d 97bc 36bd
000002b0: 5a21 db3d f703 333d 416f d6bd 33b6 993d
000002c0: e3e9 40bc dbf3 4fbd d99f be3d 1cbe c3bd
000002d0: 313e 5b3c 7c53 c0bc 05a3 a33d c818 023d
000002e0: 7d69 583d eb5f 3f3d 8368 d5bc 7510 d6bc
000002f0: 7fa1 c9bd 81fe 773d 9db6 bc3d 0648 a33d
00000300: 95fc abbd 5ee5 0d3b fc57 a9bd 8af8 88bd
00000310: 6cef 89bd 2767 173d d027 93bd e78b a6bb
00000320: afab 913b b330 953d a803 b1bd 63df 9ebd
00000330: b8d4 8bbd 7046 a93d d9eb 23bd 518d c43d
00000340: 4f2f 2c3d ae6b 683c 4b05 a43b 652e 9cbc
00000350: f540 863c 1b66 d7bc 8ebc 66bb 4726 8a3c
00000360: f28b b5bd ca8f 73bd 75ca bf3d 302c c4bd
00000370: 835b 0cbc 6337 ea3d 8c54 2a3d f4c8 193b
00000380: 3156 cdbd 9acc 6b3d d894 a6bd cef3 03bd
00000390: efac 1cbd 5a61 90bc eaa1 68b7 515e c43d
000003a0: f699 793c 49b6 d53d c7d1 933d 3457 97bd
000003b0: 6421 523d 50c6 a5bd 84f5 45bd 05e4 0e3d
000003c0: 5977 1f3d aad0 ad3d 5830 18bd eeb8 2b3b
000003d0: e526 7b3d dcf5 e2bd 4519 a83d 62e6 c4bd
000003e0: 03ba e53a 1d2f acbc c24a 77bd da2b 793c
000003f0: c570 bd3d 2201 0ebd 7a19 8dbd bdd8 35bd

conv1.bias f4 [16]
0.047910124 0.10539999 0.10762582 -0.104318105 -0.07626018 -0.048567202 -0.0718077 0.11226242
-0.012697916 -0.07619081 -0.05050034 -0.06201564 0.043741148 -0.10124932 -0.10869053 -0.1146082
00000000: 683d 443d f3db d73d ed6a dc3d bba4 d5bd
00000010: 4c2e 9cbd 67ee 46bd ea0f 93bd d7e9 e53d
00000020: eb0a 50bc ed09 9cbd 72d9 4ebd 1d04 7ebd
00000030: eb29 333d ce5b cfbd 2499 debd b4b7 eabd

bn1.weight f4 [16]
0.9994985 0.99863106 0.99864805 1.0011643 1.0058879 0.99624294 0.9965737 1.0055784
1.0036372 0.99902356 1.0006624 1.0011903 0.99755305 0.9972198 0.99965036 1.0020354
00000000: 22df 7f3f 49a6 7f3f 66a7 7f3f 2726 803f
00000010: efc0 803f c709 7f3f 741f 7f3f cbb6 803f
00000020: 2f77 803f 02c0 7f3f b515 803f 0127 803f
00000030: a35f 7f3f cc49 7f3f 16e9 7f3f b242 803f

bn1.bias f4 [16]
-0.00025760723 -0.0017733946 -0.0020539719 -0.004662249 0.005094469 -0.0023380541 -0.0042216303 0.002546904
0.0026166793 0.0021290886 -0.0028070107 0.0014036499 -0.0017364111 -0.0021489186 0.00072297314 0.0035428228
00000000: 750f 87b9 4071 e8ba ee9b 06bb c7c5 98bb
00000010: 81ef a63b 0a3a 19bb 9a55 8abb f5e9 263b
00000020: 987c 2b3b 2e88 0b3b d3f5 37bb adfa b73a
00000030: 4a98 e3ba dfd4 0cbb e885 3d3a b42e 683b

bn1.running_mean f4 [16]
-0.053015918 -0.052970834 -0.15855478 -0.22759384 0.10393263 0.20263025 0.05994598 0.067375265
-0.03967093 0.037333608 -0.020812845 0.07043053 0.10551246 -0.23833677 -0.32454097 -0.47522277
00000000: 3827 59bd f2f7 58bd 2f5c 22be 5c0e 69be
00000010: a1da d43d 4e7e 4f3e ea89 753d 0bfc 893d
00000020: fc7d 22bd 20eb 183d b37f aabc e23d 903d
00000030: eb16 d83d 8e0e 74be 3c2a a6be 6650 f3be

bn1.running_var f4 [16]
0.014625426 0.010008732 0.018536821 0.0046796007 0.010356409 0.038235586 0.006123248 0.014692536
0.0039129234 0.0063550905 0.0030411312 0.0055846153 0.010549637 0.008271474 0.029562231 0.022236614
00000000: 7c9f 6f3c aafb 233c 88da 973c 5657 993b
00000010: edad 293c eb9c 1c3d 87a5 c83b f6b8 703c
00000020: fb37 803b 5d3e d03b b74d 473b 26ff b63b
00000030: 62d8 2c3c 1485 073c 7e2c f23c 8f29 b63c

conv2.weight f4 [32, 16, 5, 5]
0.020879466 0.025901482 -0.02730416 0.0126766665 0.033115238 0.00886153 -0.011568456 0.0015841245
-0.010144953 0.024227602 -0.036769122 0.024552977 0.02625831 -0.027596569 0.039116323 0.050168253
-0.016267926 -0.013576496 0.02713888 -0.03770931 0.022095762 0.012359029 0.029997647 -0.047539048
-0.043462772 0.02136246 0.014011962 -0.04699342 -0.030315848 -0.044690393 -0.03695419 -0.019781353
0.046403132 -0.008080623 0.030622022 0.04910783 0.020408345 -0.04831226 0.025428895 0.020182205
0.039061084 -0.050235666 0.031339128 0.042119306 -0.04518329 0.0064598774 0.045984324 -0.034262788
0.01755985 0.023714297 0.012815256 0.04971086 0.03898077 0.04655731 -0.0033385893 0.042576455
-0.046956815 -0.02779533 -0.008397395 -0.015188877 0.047302097 0.025045212 0.03192859 0.033308174
-0.03141253 -0.005447586 0.0087523 0.014050865 0.023837242 -0.021652753 -0.017714601 0.041340444
-0.015379231 -0.03148046 0.033354487 0.031168977 -0.016007384 -0.010930938 -0.037786175 -0.044833813
0.015908478 -0.020522336 0.040653773 -0.037278175 -0.0074264235 0.0015105731 0.025940578 0.040380955
0.030291855 0.02076952 -0.028403323 -0.03890752 -0.04455877 0.0012673483 0.045871396 -0.0126457
-0.0021423695 -0.037059255 0.019004062 0.032992985 -0.04769546 -0.03442173 0.037573993 0.010933141
-0.00021269084 0.004447446 -0.006722578 -0.033523347 -0.043963227 0.03322114 -0.010206981 -0.022245344
-0.012799731 -0.025568716 -0.018108275 -0.043459374 0.033824142 0.017194297 -0.028049666 -0.019918272
0.020644257 -0.018000921 0.010056236 0.012459746 -0.030465582 0.011888929 0.004126379 0.04481803
-0.018354436 -0.012964353 0.039657924 -0.043938242 0.0046225563 0.04856832 -0.02150341 0.04665586
0.042614117 0.047219466 -0.002967063 0.04525954 -0.022649627 -0.018953217 0.017736759 0.011839279
0.026540523 0.048615593 -0.034720704 0.023986552 0.014321813 0.025556844 0.017498687 -0.018081553
-0.03967833 0.03841341 -0.02798413 0.02881015 -0.050140105 -0.011331425 -0.0029671942 0.008512032
-0.0016769101 0.016153123 -0.005046226 0.013449652 0.04764857 -0.030996505 -0.0027016546 -0.01856461
0.042393424 0.042356633 -0.0018881719 -0.022581238 -0.032440066 0.03236139 -0.008264838 0.04637998
0.032496266 0.044371005 0.039063837 -0.034386404 0.012932743 -0.021677818 0.024845244 -0.009378341
-0.00016277908 -0.039676398 -0.047040485 0.01992732 0.008756328 0.0019362547 0.033968233 -0.019860186
0.019550296 -0.03036797 0.011570976 -0.0094743585 0.03726468 0.044526726 0.0404134 -0.0020878406
0.027745744 -0.04972336 -0.027782766 0.009760703 -0.00025934738 -0.038250852 -0.019577706 -0.0196089
-0.04901923 0.0048803664 0.036170222 0.02025121 -0.026206551 -0.04460084 -0.041398138 0.0024206168
0.035832733 -0.019254938 -0.028376827 -0.024973247 0.00072917284 -0.04534631 -0.045719076 0.047148827
-0.025070237 -0.010518044 -0.015306575 -0.042149633 -0.0066631385 0.014807181 -0.02320004 -0.002581578
0.0018916336 -0.051444873 0.03696576 0.03831675 0.034181107 -0.01414525 0.027737195 -0.047585934
-0.012548223 -0.00833448 -0.019769024 0.021575522 -0.020101052 -0.0073090754 -0.011984424 -0.04919346
-0.0077154553 -0.042450577 0.028623704 0.02550255 0.050199524 -0.016928164 0.0030172658 0.010057101
00000000: 6a0b ab3c 582f d43c f9ac dfbc cbb1 4f3c
00000010: d8a3 073d f32f 113c 9f89 3dbc 66a2 cf3a
00000020: 0437 26bc f778 c63c 389b 16bd 5323 c93c
00000030: ab1b d73c 3312 e2bc 7038 203d 3a7d 4d3d
00000040: 5044 85bc f46f 5ebc 5b52 de3c 1475 1abd
00000050: 2c02 b53c 867d 4a3c a0bd f53c 4eb8 42bd
00000060: 0506 32bd 5300 af3c 6e92 653c 2c7c 40bd
00000070: f158 f8bc 460d 37bd 475d 17bd 810c a2bc
00000080: 3611 3e3d 9764 04bc 09db fa3c 4b25 493d
00000090: 672f a73c 14e3 45bd 4250 d03c 2755 a53c
000000a0: 84fe 1f3d eac3 4dbd 755d 003d 4b85 2c3d
000000b0: 1d12 39bd 61ad d33b 0f5a 3c3d 2357 0cbd
000000c0: add9 8f3c 7c44 c23c 14f7 513c 9d9d 4b3d
000000d0: 4daa 1f3d e1b2 3e3d 3ccc 5abb a664 2e3d
000000e0: ca55 40bd 08b3 e3bc 3a95 09bc c4da 78bc
000000f0: d8bf 413d 9e2b cd3c 8ec7 023d 276e 083d
00000100: 6daa 00bd aa81 b2bb cf65 0f3c 9935 663c
00000110: 5246 c33c 1d61 b1bc 361e 91bc 9954 293d
00000120: 2cf9 7bbc a8f1 00bd b79e 083d 1556 ff3c
00000130: eb21 83bc ad17 33bc adc5 1abd a9a3 37bd
00000140: 7f52 823c 751e a8bc 9284 263d 00b1 18bd
00000150: 5b59 f3bb 6cfe c53a 5681 d43c 8066 253d
00000160: a026 f83c d724 aa3c 16ae e8bc 7e5d 1fbd
00000170: 4283 36bd 271d a63a a5e3 3b3d e92f 4fbc
00000180: ff66 0cbb 72cb 17bd 68ae 9b3c a723 073d
00000190: 515c 43bd cdfd 0cbd 30e7 193d eb20 333c
000001a0: c305 5fb9 e2bb 913b 1249 dcbb c74f 09bd
000001b0: c912 34bd e412 083d 2e3b 27bc de3b b6bc
000001c0: f7b5 51bc 7c75 d1bc ce57 94bc 7502 32bd
000001d0: 2f8b 0a3d 0edb 8c3c 6ac8 e5bc a52b a3bc
000001e0: 251e a93c ab76 93bc e9c2 243c f623 4c3c
000001f0: f592 f9bc c8c9 423c 9336 873b 1c93 373d
00000200: 0b5c 96bc 7068 54bc 5970 223d 96f8 33bd
00000210: d078 973b 93ef 463d eb27 b0bc 371a 3f3d
00000220: 248c 2e3d 3369 413d 0f73 42bb 1162 393d
00000230: b68b b9bc c743 9bbc ae4c 913c 89f9 413c
00000240: 836b d93c 2521 473d 4c37 0ebd 727f c43c
00000250: 0aa6 6a3c 965c d13c 6859 8f3c c41f 94bc
00000260: bf85 22bd 6157 1d3d f93e e5bc 4403 ec3c
00000270: b65f 4dbd 71a7 39bc 4275 42bb 0d76 0b3c
00000280: c4cb dbba 8e53 843c d05a a5bb ee5b 5c3c
00000290: 262b 433d 62ec fdbc 3e0e 31bb cf14 98bc
000002a0: baa4 2d3d 267e 2d3d 897c f7ba 4afc b8bc
000002b0: e0df 04bd 608d 043d 3e69 07bc eff8 3d3d
000002c0: ce1a 053d 5fbe 353d 6701 203d c2d8 0cbd
000002d0: dbe3 533c ae95 b1bc 4188 cb3c 9da7 19bc
000002e0: adaf 2ab9 b883 22bd 86ad 40bd 9e3e a33c
000002f0: b476 0f3c edc9 fd3a 4622 0b3d d4b1 a2bc
00000300: f127 a03c 40c6 f8bc 3194 3d3c 573a 1bbc
00000310: d9a2 183d a861 363d 8588 253d 27d4 08bb
00000320: 0b4b e33c b9aa 4bbd af98 e3bc 5beb 1f3c
00000330: 04f9 87b9 edac 1cbd 6d61 a0bc d8a2 a0bc
00000340: 63c8 48bd 7beb 9f3b 3a27 143d dee5 a53c
00000350: 1faf d6bc 5faf 36bd 1891 29bd 36a3 1e3b
00000360: 58c5 123d 88bc 9dbc 8576 e8bc b294 ccbc
00000370: f625 3f3a 0dbd 39bd ed43 3bbd 211f 413d
00000380: 1960 cdbc e053 2cbc 6ec8 7abc 18a5 2cbd
00000390: 7556 dabb d299 723c 030e bebc b12f 29bb
000003a0: b1f0 f73a dcb7 52bd 6969 173d 06f2 1c3d
000003b0: 7d01 0c3d 7bc1 67bc 1d39 e33c 78e9 42bd
000003c0: 1097 4dbc 588d 08bc a6f2 a1bc 26bf b03c
000003d0: f6aa a4bc f880 efbb 515a 44bc 157f 49bd
000003e0: eed1 fcbb a8e0 2dbd 427c ea3c b9ea d03c
000003f0: 049e 4d3d efac 8abc 52bd 453b 8ac6 243c

conv2.bias f4 [32]
-0.037456863 -0.0019983726 -0.034543816 0.019346993 0.010384516 -0.0026750052 0.029748585 0.024168197
-0.002398005 0.0012127609 0.020015096 -0.042539757 0.009928582 0.003189735 -0.0004486158 -0.014206487
-0.0257262 0.016405018 -0.03353165 0.019868461 -0.04007166 0.013829475 0.0051457034 -0.023677267
-0.022952948 -0.014114229 -0.022750262 -0.012566266 -0.011750078 0.04113841 0.0009590502 0.04565491
00000000: 5e6c 19bd 21f7 02bb d17d 0dbd 967d 9e3c
00000010: d123 2a3c 244f 2fbb 4eb3 f33c 62fc c53c
00000020: d927 1dbb 81f5 9e3a b3f6 a33c 2b3e 2ebd
00000030: 7eab 223c e00a 513b 3234 ebb9 53c2 68bc
00000040: c0bf d2bc d163 863c 7c58 09bd 2fc3 a23c
00000050: 2e22 24bd 0695 623c 4a9d a83b d4f6 c1bc
00000060: d207 bcbc 5e3f 67bc c25e babc bde2 4dbc
00000070: 6683 40bc c080 283d c568 7b3a a500 3b3d

bn2.weight f4 [32]
1.0002322 1.0017128 0.9982376 0.99663216 1.0005548 1.0053601 1.001453 0.9995694
0.99804795 0.9965831 1.0007374 0.99817806 1.0044363 0.99785405 1.0003506 0.9985425
0.99940246 1.0018303 1.000244 1.0024145 1.0005535 0.99981403 1.0038 1.0023004
0.9971356 1.0003589 0.99899215 0.9992647 0.9995677 1.0009933 0.9972915 1.0014064
00000000: 9c07 803f 2038 803f 808c 7f3f 4923 7f3f
00000010: 2e12 803f a4af 803f 9d2f 803f c8e3 7f3f
00000020: 1280 7f3f 1220 7f3f 2a18 803f 9988 7f3f
00000030: 5e91 803f 5d73 7f3f 7d0b 803f 7ba0 7f3f
00000040: d7d8 7f3f fa3b 803f ff07 803f 1e4f 803f
00000050: 2312 803f d0f3 7f3f 857c 803f 614b 803f
00000060: 4744 7f3f c30b 803f f3bd 7f3f d0cf 7f3f
00000070: abe3 7f3f 8c20 803f 7f4e 7f3f 162e 803f

bn2.bias f4 [32]
0.001867349 0.0023840636 -0.0035616753 -0.0017971094 -0.0021765807 0.0072658523 0.00026979306 -0.0017896482
5.71369e-05 -0.007490444 -0.0010058555 -0.0005197546 0.007875347 -0.0025607767 0.00096033735 -0.0046318523
0.00090692664 0.0015580392 -0.00014113178 0.0030145436 0.0028372768 -0.00032890096 0.0033702925 0.0010134015
-0.00012191692 0.0005682999 -0.0034251807 -0.00034868438 0.0016853607 -0.0003817185 -0.0026607492 -0.0011176573
00000000: d6c1 f43a f33d 1c3b ff6a 69bb fc8c ebba
00000010: f7a4 0ebb 6316 ee3b 0373 8d39 a192 eaba
00000020: 47a6 6f38 6672 f5bb e9d6 83ba 2440 08ba
00000030: 9907 013c b4d2 27bb 26bf 7b3a cbc6 97bb
00000040: d1be 6d3a 1f37 cc3a c6fc 13b9 a68f 453b
00000050: 9bf1 393b 5770 acb9 20e0 5c3b 1dd4 843a
00000060: a6ad ffb8 f6f9 143a ff78 60bb a0cf b6b9
00000070: 52e7 dc3a 6421 c8b9 f75f 2ebb 5b7e 92ba

bn2.running_mean f4 [32]
0.025859559 0.12369414 -0.10997474 -0.25087965 0.022641065 -0.32477438 0.1918096 -0.24571009
0.084396 -0.034272596 -0.12378447 0.16861087 0.20875548 0.1577334 0.056640234 0.11172776
-0.007793669 -0.113911726 0.3481972 0.15866637 -0.12354288 -0.0912061 -0.3895095 0.10602639
0.37199253 0.037626944 0.14318131 0.25414118 0.020604473 0.1108332 0.32375488 -0.023363866
00000000: 6dd7 d33c 5a53 fd3d 703a e1bd 4c73 80be
00000010: c179 b93c d448 a6be bc69 443e 6d9b 7bbe
00000020: cfd7 ac3d 6c61 0cbd b682 fdbd 54a8 2c3e
00000030: ffc3 553e dd84 213e 97ff 673d 86d1 e43d
00000040: 0962 ffbb 8d4a e9bd e746 b23e 7079 223e
00000050: 0d04 fdbd 44ca babd ca6d c7be 5d24 d93d
00000060: ce75 be3e b61e 1a3d 1f9e 123e cb1e 823e
00000070: b6ca a83c 84fc e23d 33c3 a53e 9465 bfbc

bn2.running_var f4 [32]
0.07325287 0.09859264 0.054433193 0.093542166 0.08606173 0.11669272 0.08532441 0.06583892
0.11390197 0.07082438 0.09742433 0.16283393 0.09888401 0.0817812 0.060732987 0.07937721
0.0863083 0.061883643 0.15900904 0.094026126 0.13272366 0.12388221 0.080694765 0.068114646
0.09846764 0.080421105 0.10057408 0.11430261 0.076283835 0.064787984 0.081908844 0.09273609
00000000: 9a05 963d f0ea c93d 57f5 5e3d 0993 bf3d
00000010: 2241 b03d 98fc ee3d 90be ae3d 8ed6 863d
00000020: 7045 e93d 5f0c 913d 6886 c73d f0bd 263e
00000030: b383 ca3d e77c a73d 27c3 783d 8590 a23d
00000040: 68c2 b03d b479 7d3d 44d3 223e c590 c03d
00000050: b6e8 073e f5b5 fd3d 4c43 a53d b17f 8b3d
00000060: 67a9 c93d d2b3 a43d c9f9 cd3d 7d17 ea3d
00000070: b33a 9c3d 90af 843d d3bf a73d 6bec bd3d

conv3.weight f4 [32, 32, 5, 5]
-0.0069699297 -0.02814843 -0.0070245843 0.014475842 -0.025420688 0.028134165 -0.0041847914 0.027833074
-0.012740283 -0.03155468 -0.0211942 0.0012505343 -0.024014885 0.031346463 0.031171719 -0.009112437
0.02396404 0.011917724 0.0005459092 -0.039329648 -0.02901693 -0.02839357 -0.0041001146 0.024907846
0.007393041 -0.008057651 0.018625816 0.012713388 -0.025015937 0.0075669405 0.00011438119 0.021690898
0.006510473 -0.009509344 -0.02025472 0.028105738 0.014602818 0.025177438 0.028555902 0.012228141
-0.024101477 -0.0036936067 0.024616485 -0.008513035 0.024311816 -0.01259621 -0.028942708 0.03268455
0.024375204 0.029673932 0.021101473 -0.031120034 0.010571447 0.034549974 -0.02302751 0.008385918
0.011316795 -0.03052973 0.005563189 0.015017031 -0.001495788 -0.030254683 0.020627204 -0.026822135
0.017584573 0.0021553293 0.0113216415 -0.02386142 -0.012303435 -0.009646855 -0.016955597 -0.01719053
0.0016411381 0.034627628 -0.012743722 -0.02944492 0.010153735 0.032656886 -0.035085596 0.026726225
0.027121533 0.009000027 0.021622963 -0.020127619 -0.03370362 0.031156942 0.017898642 -0.015466589
-0.025296465 0.010612724 0.01938771 0.02816113 0.0031525497 0.019347604 0.016876558 0.013053546
-0.018345674 -0.029556187 0.031973045 0.009065256 -0.03757874 -0.012526577 0.0055103474 0.007008668
-0.025349405 0.030482298 -0.034786694 0.017017817 -0.016572988 -0.025712183 0.01674107 -0.0107942475
-0.013653216 -0.0027381352 -0.014379319 0.03352536 -0.032957375 -0.011874929 0.002561152 -0.013638267
-0.020771502 0.0037496078 -0.00016548498 0.0240579 0.015271413 0.026569847 -0.021905802 0.025912913
-0.008360493 0.001687757 0.016208937 -0.008421699 -0.0106561985 0.02029564 0.028072393 -0.02451714
0.02075223 0.025224421 0.016596837 0.008703448 0.022187153 0.036173098 0.023987299 -0.0025781128
-0.02576858 0.0005144811 -0.020707501 0.036600675 -0.011525901 -0.0026567858 0.013069227 0.011205225
-0.030734923 -0.022991147 0.0063137873 -0.02733088 0.013321833 0.0075934012 -0.010370756 -0.025184043
0.008511257 -0.020566404 0.03540765 0.022928601 0.022472471 0.015901448 0.014900579 -0.025288846
0.032854475 -0.004182533 0.020360343 0.030773705 0.0010034459 -0.025095442 0.0021762643 -0.022052506
-0.028099636 0.020913541 -0.008781526 0.027977087 -0.017574076 0.014337009 -0.0068032853 -0.0029775447
0.015421003 -0.0316332 0.029144078 -0.009257317 0.012939435 -0.021896726 -0.020835431 0.00043048052
-0.008004134 -0.018438263 0.019813512 -0.005056892 -0.015761424 -0.011840247 0.035765998 -0.031132838
-0.0043301266 -0.005482776 0.017968547 0.028580641 -0.017982788 -0.0069791735 -0.03383579 -0.027542993
0.008357532 -0.006811382 0.030473368 -0.0021159162 -0.015555119 -0.0129654175 0.0013197295 0.023114076
0.0046625347 0.012248291 -0.01303867 0.012761526 -0.02665314 0.02204336 -0.0030597511 0.030140355
-0.014730086 0.039318733 0.019423604 -0.029735317 -0.01211442 0.027500711 0.01058091 0.030558765
-0.006413484 -0.015706794 0.021199588 -0.009627096 0.036993988 0.025112007 0.039453257 0.027070869
-0.007671709 0.027125333 -0.02748341 0.032429565 -0.0027987203 -0.017096266 0.008769625 0.018504312
-0.000513401 0.023921104 -0.00530056 -0.037820134 0.017983533 -0.001638103 0.01605095 -0.0188709
00000000: 0264 e4bb 8997 e6bc 7c2e e6bb 152c 6d3c
00000010: 0c3f d0bc 9f79 e63c 9320 89bb 3002 e43c
00000020: 9fbc 50bc 7b3f 01bd 759f adbc f8e8 a33a
00000030: ddba c4bc 2665 003d d55b ff3c 554c 15bc
00000040: 3c50 c43c 8f42 433c 591b 0f3a 2018 21bd
00000050: eab4 edbc a299 e8bc 415a 86bb 8a0b cc3c
00000060: 5341 f23b 3d04 04bc 2b95 983c d04b 503c
00000070: 39ee ccbc 19f4 f73b efdf ef38 1cb1 b13c
00000080: ce55 d53b 14cd 1bbc 3aed a5bc 013e e63c
00000090: a840 6f3c ea40 ce3c 11ee e93c 8a58 483c
000000a0: 7670 c5bc 7010 72bb 83a8 c93c 427a 0bbc
000000b0: 9329 c73c 5660 4ebc 4219 edbc 3ce0 053d
000000c0: 82ae c73c bf16 f33c ffdc ac3c 71ef febc
000000d0: dd33 2d3c 4684 0d3d 30a4 bcbc 1765 093c
000000e0: 146a 393c 7c19 fabc 694b b63b fe09 763c
000000f0: 510e c4ba abd8 f7bc 62fa a83c 18ba dbbc
00000100: 860d 903c 6d40 0d3b 687e 393c 0679 c3bc
00000110: 5994 49bc d80d 1ebc 77e6 8abc 28d3 8cbc
00000120: 751b d73a b3d5 0d3d 0bcb 50bc 7936 f1bc
00000130: da5b 263c 3ac3 053d eab5 0fbd f5f0 da3c
00000140: fa2d de3c d974 133c a422 b13c ade2 a4bc
00000150: cf0c 0abd d83c ff3c 2ca0 923c 9367 7dbc
00000160: 883a cfbc fee0 2d3c fad2 9e3c 2cb2 e63c
00000170: 029b 4e3b de7e 9e3c b540 8a3c 8ade 553c
00000180: ab49 96bc d11f f2bc 2bf6 023d 7186 143c
00000190: 2aec 19bd 463c 4dbc 2590 b43b f8a8 e53b
000001a0: 8ea9 cfbc 03b6 f93c 7e7c 0ebd f368 8b3c
000001b0: 13c4 87bc 5ba2 d2bc 9224 893c 5bda 30bc
000001c0: bdb1 5fbc 4972 33bb 3c97 6bbc e351 093d
000001d0: 50fe 06bd 108f 42bc 00d9 273b 0a73 5fbc
000001e0: ff28 aabc fbbb 753b 0986 2db9 1315 c53c
000001f0: f334 7a3c 02a9 d93c cc73 b3bc 5147 d43c
00000200: 73fa 08bc ba37 dd3a 9bc8 843c 2afb 09bc
00000210: 5697 2ebc 0b43 a63c 13f8 e53c 2bd8 c8bc
00000220: 9500 aa3c 72a3 ce3c 17f6 873c e898 0e3c
00000230: d5c1 b53c 3e2a 143d 0381 c43c 8ef5 28bb
00000240: a118 d3bc 3ede 063a c7a2 a9bc 97ea 153d
00000250: 22d7 3cbc 781d 2ebb 5020 563c 1f96 373c
00000260: cec7 fbbc ee57 bcbc e3e3 ce3b 02e5 dfbc
00000270: d143 5a3c 11d2 f83b 1aea 29bc c44e cebc
00000280: cd72 0b3c e07a a8bc 9d07 113d c3d4 bb3c
00000290: 3018 b83c c143 823c 8f21 743c 8e2a cfbc
000002a0: 6a92 063d a10d 89bb bcca a63c 2319 fc3c
000002b0: 0f86 833a f594 cdbc a89f 0e3b 75a7 b4bc
000002c0: 3531 e6bc e052 ab3c 64e0 0fbc 3430 e53c
000002d0: 82f7 8fbc c6e5 6a3c 18ee debb e922 43bb
000002e0: 60a8 7c3c d091 01bd 90bf ee3c 00ac 17bc
000002f0: edff 533c c360 b3bc 11af aabc 1eb2 e139
00000300: c523 03bc d70b 97bc f24f a23c 49b4 a5bb
00000310: 1a1e 81bc 98fd 41bc 5e7f 123d 4b0a ffbc
00000320: bce3 8dbb dca8 b3bb c632 933c f321 ea3c
00000330: a450 93bc 8db1 e4bb 6697 0abd d8a1 e1bc
00000340: 08ee 083c 0332 dfbb 49a3 f93c 2fab 0abb
00000350: e6da 7ebc e76c 54bc c6fa ac3a bb59 bd3c
00000360: 2dc8 983b 0ead 483c 25a0 55bc b815 513c
00000370: b057 dabc 4794 b43c 1b86 48bb e8e8 f63c
00000380: 7556 71bc ae0c 213d 401e 9f3c 7b97 f3bc
00000390: 8f7b 46bc 2c49 e13c 8e5b 2d3c 6056 fa3c
000003a0: 3428 d2bb 89ab 80bc c2aa ad3c f8ba 1dbc
000003b0: 0287 173d b2b7 cd3c bd99 213d bac3 dd3c
000003c0: f662 fbbb f235 de3c e324 e1bc ddd4 043d
000003d0: bc6a 37bb 780d 8cbc 79ae 0f3c 5b96 973c
000003e0: c295 06ba 31f6 c33c 52b0 adbb 49e9 1abd
000003f0: 3452 933c 9eb5 d6ba 487d 833c 2597 9abc

conv3.bias f4 [32]
0.035508275 0.030855842 -0.028815512 -0.034578957 0.03160665 0.013277134 0.010109037 -0.008146894
-0.026812993 -0.027165392 -0.023365935 -0.013965978 0.019437116 -0.030450232 0.034872223 0.029827949
0.032342076 0.007907223 0.021127185 0.010148993 -0.0042933794 -0.0076748477 -0.021924976 0.02591237
0.018191721 0.030674988 0.00447586 0.02299525 -0.021678997 -0.0230022 0.008034053 0.0100546125
00000000: 2071 113d 64c5 fc3c 820e ecbc aaa2 0dbd
00000010: fa75 013d 5688 593c 60a0 253c 8d7a 05bc
00000020: eca6 dbbc f589 debc eb69 bfbc 8fd1 64bc
00000030: 963a 9f3c c472 f9bc 2dd6 0e3d be59 f43c
00000040: 2079 043d 4c8d 013c eb12 ad3c f647 263c
00000050: 7aaf 8cbb 4a7d fbbb 029c b3bc 2e46 d43c
00000060: ce06 953c 1d4a fb3c 3caa 923b 8960 bc3c
00000070: 2798 b1bc 1c6f bcbc 43a1 033c 1abc 243c

bn3.weight f4 [32]
0.9976479 0.9974626 0.99827415 0.9988085 0.9996407 1.0069003 1.0010016 1.0000414
0.9981383 1.0010164 0.9960503 0.9991008 1.000578 0.998796 0.99639624 1.0003077
1.0008513 1.0011714 0.99932337 0.99893993 1.0031251 0.9969552 0.9976695 1.0002322
1.0046965 0.9964713 1.0018045 1.0009289 0.99808234 0.99880564 1.0000004 0.99621713
00000000: da65 7f3f b559 7f3f e58e 7f3f eab1 7f3f
00000010: 74e8 7f3f 1ce2 803f d220 803f 5b01 803f
00000020: fe85 7f3f 4e21 803f 27fd 7e3f 12c5 7f3f
00000030: f112 803f 18b1 7f3f d313 7f3f 150a 803f
00000040: e51b 803f 6226 803f a8d3 7f3f 87ba 7f3f
00000050: 6766 803f 7538 7f3f 4567 7f3f 9c07 803f
00000060: e599 803f be18 7f3f 213b 803f 701e 803f
00000070: 5382 7f3f bab1 7f3f 0300 803f 1608 7f3f

bn3.bias f4 [32]
-0.00041839195 -0.001124903 -0.0041004675 -0.00023474904 -0.0003848946 0.0062289024 0.0004344927 0.0015859564
-0.0019100138 0.00013315282 -0.005089141 -0.0013705902 3.4313525e-05 -0.002320995 -0.005378057 -0.0024816536
-0.00094623014 0.0044266623 -0.0002407737 -0.0035424929 0.0050394177 -0.0039186846 -0.001861279 0.00065402425
0.002987754 -0.0022625464 0.0006969789 0.0009395165 -0.0033694294 -0.0026457573 -0.0017531175 -0.0043877554
00000000: 9e5b dbb9 7b71 93ba 375d 86bb f726 76b9
00000010: aecb c9b9 d21b cc3b 9fcc e339 dedf cf3a
00000020: 6e59 faba f09e 0b39 cfc2 a6bb 60a5 b3ba
00000030: deeb 0f38 d61b 18bb 693a b0bb 3da3 22bb
00000040: 6e0c 78ba 890d 913b 3378 7cb9 2b29 68bb
00000050: b321 a53b 4f68 80bb 29f6 f3ba d372 2b3a
00000060: 32ce 433b 3b47 14bb 76b5 363a e349 763a
00000070: a5d1 5cbb 7164 2dbb ddc8 e5ba 29c7 8fbb

bn3.running_mean f4 [32]
0.15580718 -0.14971912 0.11498056 0.013671907 0.19477431 -0.1346011 0.10810024 0.11103506
0.14508606 -0.29512846 0.18070194 0.054383457 0.18811333 -0.23936984 0.39942622 0.15637083
0.20887388 0.28162852 -0.20343594 -0.03926084 0.14596617 -0.013215587 -0.42884603 0.033317875
0.06357634 -0.32686645 -0.13841169 -0.2177958 -0.2713695 0.26865962 -0.044951335 0.2273413
00000000: eb8b 1f3e f84f 19be ee7a eb3d 2200 603c
00000010: eb72 473e dfd4 09be a963 dd3d 5966 e33d
00000020: 7191 143e 141b 97be ee09 393e 30c1 5e3d
00000030: c8a0 403e 5e1d 75be 9881 cc3e ad1f 203e
00000040: 09e3 553e 9d31 903e 8351 50be f9cf 20bd
00000050: 2878 153e 3086 58bc b591 dbbe 5378 083d
00000060: 5034 823d 0a5b a7be cbbb 0dbe dd05 5fbe
00000070: f1f0 8abe c18d 893e e41e 38bd 28cc 683e

bn3.running_var f4 [32]
0.18217166 0.114774756 0.11408345 0.14014886 0.10200732 0.12919185 0.11541469 0.12870534
0.112379104 0.23023918 0.1306831 0.08920539 0.09657626 0.20931831 0.088129014 0.09672011
0.10000946 0.16061321 0.09382816 0.09710862 0.13877931 0.1688326 0.1397332 0.100823015
0.07914794 0.07220812 0.087759644 0.10073029 0.081634544 0.12987916 0.1239483 0.15985918
00000000: 358b 3a3e 070f eb3d 95a4 e93d 2f83 0f3e
00000010: 37e9 d03d de4a 043e 895e ec3d 55cb 033e
00000020: 0427 e63d d2c3 6b3e cad1 053e 51b1 b63d
00000030: c6c9 c53d 8a57 563e fc7c b43d 3115 c63d
00000040: c2d1 cc3d ca77 243e fa28 c03d e2e0 c63d
00000050: 2a1c 0e3e 74e2 2c3e 3816 0f3e 4c7c ce3d
00000060: 5118 a23d dae1 933d 54bb b33d af4b ce3d
00000070: 0330 a73d 0bff 043e 9bd8 fd3d 20b2 233e

shared_layers.0.weight f4 [128, 128]
0.023056054 -0.14713453 0.06084232 0.021898424 0.15780191 -0.057043824 -0.10937567 -0.031118132
-0.13821779 -0.09035711 0.0754858 0.07911912 -0.13161722 0.123364314 -0.13333133 -0.12425456
0.019067464 -0.09198085 -0.12165484 -0.067077585 -0.14037648 0.092898525 0.10140909 0.13203415
0.060753044 0.13069476 0.04055889 0.14472191 -0.05462388 0.05137544 -0.010062209 -0.1341065
0.06322617 -0.051281948 0.0826575 0.08455546 0.15433826 -0.10212188 0.11520289 -0.14470159
0.099175535 0.07248049 -0.10789589 0.039790343 -0.040702425 0.01166264 0.039026905 0.021905523
0.15329468 -0.07964638 -0.018702766 -0.015384528 0.109159715 -0.1292871 0.048925906 -0.07036528
-0.15175396 -0.019805951 -0.15264334 0.12563872 0.0071890415 0.05771407 0.08456941 0.108644836
0.08827439 0.14137693 0.14909928 0.0635201 0.094396725 0.004041223 0.10396017 0.14480093
0.053172015 0.124541715 0.06812817 0.075203575 -0.11860744 -0.050177444 0.014430279 -0.14012471
0.0016327823 0.052262057 -0.14893049 0.02779133 0.15278439 0.008251776 -0.06539231 -0.10063295
-0.08282378 0.016045982 -0.05240435 -0.068753265 -0.11215164 -0.08009222 0.08598316 0.08700596
0.09853826 0.018300425 -0.14089988 -0.1291823 -0.10519002 -0.11584223 -0.001639933 0.14617015
-0.08433528 0.0735737 -0.089325674 -0.046485897 -0.05027436 -0.08513253 0.03560139 -0.066657014
-0.013598165 -0.042052504 -0.07538705 0.009704268 -0.13008524 -0.0221067 -0.102493346 -0.09143808
-0.15022631 -0.0859939 0.06678168 -0.14568189 0.10828946 0.04708111 -0.12988132 0.029284056
-0.11928448 0.012282391 0.009315974 -0.07518005 0.12463121 0.079610124 -0.08204433 -0.012646689
-0.0401084 -0.08781033 0.07687188 -0.13580513 0.12147147 -0.11215396 -0.008321895 0.06857422
-0.027747856 0.018494112 0.094189465 0.06914698 -0.05744205 0.033288993 -0.11988564 0.06667025
0.0815321 0.019712785 0.13619013 0.09152539 -0.042987164 0.07715449 0.098225236 -0.106589876
0.1236934 0.13134855 0.019661218 -0.09015672 0.02015344 -0.07441762 0.13418958 0.0997536
0.06436189 0.04963911 -0.14378977 -0.13580042 -0.036545087 -0.03205306 0.06799481 0.03302764
-0.076803036 0.023610152 0.019764502 -0.08909205 -0.09333181 0.09057352 -0.15259284 0.027834667
-0.13239108 -0.06278153 -0.05502626 -0.1260534 0.072851874 -0.113523826 -0.1380939 -0.02702606
0.003080041 -0.04791042 0.092071325 -0.14766431 -0.09481436 -0.081214696 -0.056670632 0.07214846
-0.005988052 -0.12699643 0.10799249 0.04757193 -0.013431894 0.018820917 -0.09880963 -0.011374402
0.078867376 -0.045011166 -0.0098929005 0.04870711 0.069333866 0.07347168 0.12215424 -0.15409346
0.019336255 -0.031195568 0.031678278 -0.029921431 0.024990156 -0.10281185 0.11784097 -0.14123195
0.13176195 0.08366002 0.07133796 -0.06858433 0.11502486 -0.08209921 0.10120902 -0.110241026
-0.001077202 0.11742273 -0.1126313 0.07684332 0.011414955 0.12704916 0.021898678 -0.0034485382
0.11849634 0.048197966 0.14446771 0.1062967 -0.13661711 0.122180074 0.086270936 -0.030139685
0.14913006 -0.09609762 0.115498744 0.13212247 -0.10547057 0.07127062 -0.043024726 -0.06406874
00000000: 0de0 bc3c 6faa 16be cc35 793d 5364 b33c
00000010: d396 213e c9a6 69bd 5a00 e0bd 74eb febc
00000020: f788 0dbe 260d b9bd 4d98 9a3d 3509 a23d
00000030: aac6 06be 6ea6 fc3d 0288 08be 2d79 febd
00000040: 5f33 9c3c 7560 bcbd 2c26 f9bd f95f 89bd
00000050: dabe 0fbe 9541 be3d 92af cf3d f633 073e
00000060: 2fd8 783d d9d4 053e 1421 263d fb31 143e
00000070: 4abd 5fbd 0e6f 523d f7db 24bc 3753 09be
00000080: b97c 813d 050d 52bd 5648 a93d 6a2b ad3d
00000090: d90a 1e3e 4725 d1bd 7eef eb3d a72c 14be
000000a0: 8b1c cb3d a770 943d 85f8 dcbd 33fb 223d
000000b0: 96b7 26bd a814 3f3c adda 1f3d 3673 b33c
000000c0: 48f9 1c3e a41d a3bd 8b36 99bc 630f 7cbc
000000d0: 218f df3d d663 04be 8866 483d ac1b 90bd
000000e0: 6465 1bbe 1740 a2bc 894e 1cbe 70a7 003e
000000f0: 0d92 eb3b 9765 6c3d ba32 ad3d 2f81 de3d
00000100: 34c9 b43d 1dc5 103e 7bad 183e d416 823d
00000110: 1253 c13d 3c6c 843b 12e9 d43d b246 143e
00000120: e6ca 593d ba0f ff3d c886 8b3d 5504 9a3d
00000130: 75e8 f2bd dd86 4dbd fa6c 6c3c da7c 0fbe
00000140: 1503 d63a bd10 563d 3c81 18be a5aa e33c
00000150: 8373 1c3e 7532 073c 67ec 85bd a618 cebd
00000160: 849f a9bd dd72 833c f2a5 56bd 83ce 8cbd
00000170: c2af e5bd 6407 a4bd f017 b03d 2e30 b23d
00000180: 6dce c93d c6ea 953c 0f48 10be 5d48 04be
00000190: dd6d d7bd b13e edbd 05f3 d6ba a1ad 153e
000001a0: fab7 acbd cfad 963d 61f0 b6bd ff67 3ebd
000001b0: 7dec 4dbd f759 aebd c3d2 113d 7983 88bd
000001c0: d6ca 5ebc 3f3f 2cbd 8764 9abd a6fe 1e3c
000001d0: 1135 05be 1c19 b5bc 08e8 d1bd e343 bbbd
000001e0: edd4 19be 921d b0bd d5c4 883d a22d 15be
000001f0: ddc6 dd3d 1fd8 403d 9cff 04be 1ee5 ef3c
00000200: 6c4b f4bd 153c 493c 07a2 183c 00f8 99bd
00000210: a63e ff3d a20a a33d dc06 a8bd 0f34 4fbc
00000220: b548 24bd e7d5 b3bd 016f 9d3d 8010 0bbe
00000230: 09c6 f83d fab0 e5bd 8f58 08bc a470 8c3d
00000240: 794f e3bc f780 973c 68e6 c03d ef9c 8d3d
00000250: 5b48 6bbd 0a5a 083d 9a86 f5bd 698a 883d
00000260: 4dfa a63d b57c a13c 6d75 0b3e aa71 bb3d
00000270: 4f13 30bd 2c03 9e3d 502a c93d cb4b dabd
00000280: f752 fd3d 3c80 063e 9010 a13c 16a4 b8bd
00000290: d418 a53c 4468 98bd fe68 093e 9e4b cc3d
000002a0: 2bd0 833d 6152 4b3d a03d 13be 440f 0bbe
000002b0: 4db0 15bd 124a 03bd dd40 8b3d fe47 073d
000002c0: e94a 9dbd 146a c13c 2ae9 a13c e575 b6bd
000002d0: bf24 bfbd 9c7e b93d 4c41 1cbe 8705 e43c
000002e0: 8791 07be 9a93 80bd 3763 61bd 2414 01be
000002f0: 5d33 953d 2e7f e8bd 7d68 0dbe c165 ddbc
00000300: 83da 493b b73d 44bd e48f bc3d 5035 17be
00000310: 082e c2bd e453 a6bd 771f 68bd 92c2 933d
00000320: 6c37 c4bb 5a0b 02be 2b2b dd3d c9da 423d
00000330: 7211 5cbc 532e 9a3c b45c cabd b35b 3abc
00000340: 3885 a13d a15d 38bd d515 22bc 1b81 473d
00000350: eafe 8d3d 5278 963d 012c fa3d adca 1dbe
00000360: 1167 9e3c d98d ffbc 15c1 013d ca1d f5bc
00000370: 28b8 cc3c 058f d2bd 9b56 f13d 1c9f 10be
00000380: 9bec 063e f255 ab3d a319 923d f175 8cbd
00000390: 2792 eb3d a123 a8bd ad46 cf3d 0cc6 e1bd
000003a0: e730 8dba 547b f03d 3dab e6bd 0860 9d3d
000003b0: cb05 3b3c 2d19 023e db64 b33c df00 62bb
000003c0: 36ae f23d 3b6b 453d 58ef 133e 16b2 d93d
000003d0: 5be5 0bbe 8c39 fa3d d1ae b03d 80e7 f6bc
000003e0: 8db5 183e d4ce c4bd 9b8a ec3d 1d4b 073e
000003f0: f400 d8bd 55f6 913d b23a 30bd 7936 83bd

shared_layers.0.bias f4 [128]
0.06017176 0.04882284 -0.061958086 0.017836243 -0.082662724 0.053176586 -0.04628963 -0.026895463
-0.06738433 0.08061221 0.08831085 0.023789115 0.0064661354 0.0038515935 0.04885872 0.05553731
-0.029204983 0.014905729 -0.015951313 0.06111031 0.02826138 -0.049101055 -0.051752288 0.038639005
0.031021265 -0.027465243 -0.00847761 -0.024006287 -0.048431408 0.020426925 0.058892053 -0.03847149
0.027083699 -0.052735522 0.032386687 0.014057112 0.025470113 -0.01929595 0.07963617 -0.061090358
0.022169115 -0.079421625 0.063941285 0.024220968 -0.0064835134 0.090449385 -0.04824602 0.069572985
0.005558315 0.043111395 0.03342318 -0.042821765 0.011173095 -0.05368416 -0.042628177 0.051884912
0.04498485 -0.089649014 0.03239485 0.06362326 0.007372408 -0.022311995 0.013113315 0.0013400301
-0.03069063 0.035674736 0.06296065 0.07368326 -0.058168653 -0.023475537 0.092001356 0.038606115
-0.05332664 -0.00040965006 0.04742654 -0.032064117 -0.07593228 0.03183927 -0.0599504 -0.04760396
0.037315957 0.0019322074 -0.020519586 0.013288797 -0.057057526 -0.04969137 -0.006196403 0.07798728
0.061786562 0.02253446 -0.008334523 -0.01924424 -0.0035975063 0.016523419 0.018195337 -0.08578855
0.051459856 0.00072182255 0.04621629 0.082642615 0.073836334 0.041585676 0.0021194858 -0.069352224
0.08470877 0.019766323 0.04748493 0.024647297 0.059674107 -0.05651416 -0.058760636 0.002844781
-0.085286245 0.00021380889 -0.07372235 -0.02878678 -0.074984774 -0.029626485 0.06027403 -0.01704923
0.026512923 -0.0050691 -0.019275129 -0.07075158 -0.06291529 -0.0632649 0.042172343 0.0046829362
00000000: aa76 763d 75fa 473d c3c7 7dbd 501d 923c
00000010: 134b a9bd b1cf 593d 329a 3dbd e053 dcbc
00000020: cc00 8abd 0418 a53d 52dc b43d 64e1 c23c
00000030: e0e1 d33b 046b 7c3b 1520 483d 177b 633d
00000040: 4a3f efbc 2937 743c 54ac 82bc ce4e 7a3d
00000050: 6984 e73c 301e 49bd 35fa 53bd ef43 1e3d
00000060: 4f20 fe3c cafe e0bc ace5 0abc d5a8 c4bc
00000070: 0360 46bd 5e56 a73c cb38 713d 4894 1dbd
00000080: a2de dd3c 3401 58bd e7a7 043d cd4f 663c
00000090: b3a6 d03c 8a12 9ebc 4a18 a33d e239 7abd
000000a0: 019c b53c cea7 a2bd a6f3 823d 0d6b c63c
000000b0: a773 d4bb 873d b93d 9e9d 45bd 487c 8e3d
000000c0: 8722 b63b 9395 303d bfe6 083d e065 2fbd
000000d0: 5b0f 373c ece3 5bbd e29a 2ebd 4685 543d
000000e0: 0942 383d e799 b7bd 76b0 043d e94c 823d
000000f0: 3e94 f13b a5c7 b6bc 3bd9 563c f3a3 af3a
00000100: eb6a fbbc ac1f 123d 83f1 803d 40e7 963d
00000110: 4142 6ebd c54f c0bc 356b bc3d 7221 1e3d
00000120: 096d 5abd 4dc6 d6b9 5542 423d aa55 03bd
00000130: 6282 9bbd e569 023d 8d8e 75bd 5ffc 42bd
00000140: 9ed8 183d 1f42 fd3a b118 a8bc 41b9 593c
00000150: 27b5 69bd 2e89 4bbd 320b cbbb ccb7 9f3d
00000160: e813 7d3d 309a b83c 868d 08bc 19a6 9dbc
00000170: 24c4 6bbb 1f5c 873c 630e 953c e8b1 afbd
00000180: 92c7 523d b138 3d3a 4b4d 3d3d 8840 a93d
00000190: 8137 973d be55 2a3d 12e7 0a3b 8a08 8ebd
000001a0: cb7b ad3d fcec a13c 8f7f 423d 21e9 c93c
000001b0: d66c 743d 647b 67bd feae 70bd 816f 3a3b
000001c0: 8eaa aebd e331 6039 befb 96bd 41d2 ebbc
000001d0: 9e91 99bd 3eb3 f2bc e7e1 763d d4aa 8bbc
000001e0: a131 d93c b11a a6bb e0e6 9dbc 34e6 90bd
000001f0: bbd9 80bd 0791 81bd e8bc 2c3d 5173 993b

shared_layers.1.weight f4 [64, 128]
0.0440656 0.13457693 -0.15572158 0.019142289 0.003557554 -0.13894878 -0.09872026 0.15792593
-0.09621977 -0.032149572 0.059086353 -0.10786708 -0.14486352 -0.1557222 0.17738944 0.1089189
-0.028615437 -0.13551694 0.15041515 0.029287208 0.15257575 0.099068634 0.08129314 0.024673874
0.17526788 -0.039823513 -0.12743245 0.030468315 -0.029362228 -0.062371 -0.052032422 0.07135863
0.17801139 0.0133800255 -0.13668984 0.014972431 -0.13455608 0.14465688 0.16871567 -0.010969286
0.050685402 0.11702064 0.11265881 -0.0679182 -0.05111885 0.14073275 0.0472232 0.14586343
0.0373387 0.1662016 0.06988948 0.07279149 0.16546547 -0.06278019 -0.08082018 0.013332645
-0.101992935 -0.09319506 0.08898069 0.13620985 0.018831199 0.087704115 0.033811588 0.12585843
0.15415703 -0.11340472 0.102957994 0.14339396 0.08405472 -0.14564392 -0.14224139 0.08792449
-0.07157715 -0.04270105 0.16411144 0.054576136 -0.05736178 0.05848301 0.1670965 -0.14556111
0.066263504 0.11488669 0.13347131 0.0046799523 -0.109798916 0.029995643 -0.06431596 -0.052279435
-0.17761032 0.16605829 0.0079128025 0.12432571 -0.112386264 0.105796374 -0.15143245 -0.011056262
0.088679135 0.059799843 0.13104677 -0.039322093 -0.06378219 0.10355626 -0.052018166 -0.16129261
-0.07064182 -0.08622738 -0.06111508 -0.08774601 0.07258766 -0.092990965 -0.032333255 0.06893767
-0.17443307 0.16704886 -0.05852119 0.07201502 -0.12047425 0.011610561 -0.18000218 0.111697994
0.03251126 0.077624604 -0.17529783 0.12890545 0.07932053 0.156205 0.020335503 -0.107710406
0.06373598 -0.10537103 -0.17261934 -0.08299762 -0.13638318 0.10165846 0.07657181 -0.057364114
-0.050535575 0.15682958 0.029340934 -0.048809756 -0.14808972 -0.08269501 0.054730963 -0.16082706
-0.12306163 -0.1442174 0.13855788 0.0044035995 0.08316731 -0.04255365 -0.12664625 0.14601487
0.12642772 -0.011454213 0.0070098657 -0.10490437 0.019594599 0.17744206 -0.051372953 -0.0036696855
0.10232669 0.007454415 0.09496633 -0.16843584 0.046888836 -0.024270179 -0.057903446 -0.02847386
-0.1595414 0.018011654 0.13099836 0.05972969 -0.14628853 0.14386797 -0.114744164 -0.10914143
-0.0031311226 0.1465023 -0.10832215 0.062549144 -0.098882474 0.077595346 -0.15001893 -0.16002937
0.1578645 -0.023330515 -0.04486021 0.12617257 0.17731214 0.15728833 0.09784445 -0.17431669
0.101981424 0.10099887 0.012058685 -0.073701546 0.09753102 -0.021969507 -0.13231401 -0.07941915
-0.051523227 0.020315763 0.13623437 0.07848183 -0.08576203 0.15038396 -0.10941263 -0.055154614
0.10052788 0.15979797 0.09230214 -0.11608089 -0.14006872 0.024962744 0.015401087 -0.13948312
0.1346642 -0.116827294 0.02420812 -0.0930637 0.10363474 0.06252399 0.14482744 0.03485498
-0.039637405 -0.08234218 -0.019303055 -0.04829336 0.1622471 -0.13339624 -0.02005447 -0.071642786
0.0424192 0.1385319 0.17147641 -0.037006345 -0.057948675 -0.1530262 -0.05632184 0.16739582
-0.10954801 -0.12648089 0.06016051 -0.15448327 0.030106245 -0.0696905 -0.013697977 -0.15821764
0.17298199 -0.1410312 -0.039556332 -0.024554456 0.013782694 0.054426685 0.06851265 -0.0779178
00000000: 217e 343d 89ce 093e 7a75 1fbe 4ad0 9c3c
00000010: da25 693b 9748 0ebe d92d cabd 56b7 213e
00000020: df0e c5bd 45af 03bd 8804 723d 6ae9 dcbd
00000030: 1a57 14be a475 1fbe 94a5 353e df10 df3d
00000040: ec6a eabc f4c4 0abe 6e06 1a3e baeb ef3c
00000050: d13c 1c3e 7fe4 ca3d 057d a63d dd20 ca3c
00000060: 6c79 333e fb1d 23bd a77d 02be b098 f93c
00000070: 0e89 f0bc bc78 7fbd f31f 55bd 7924 923d
00000080: 9e48 363e e537 5b3c 6cf8 0bbe ed4e 753c
00000090: 12c9 09be ef20 143e cdc3 2c3e 85b8 33bc
000000a0: 7f9b 4f3d 84a8 ef3d aab9 e63d b218 8bbd
000000b0: 0062 51bd 3f1c 103e 1d6d 413d 395d 153e
000000c0: 77f0 183d c130 2a3e 3722 8f3d b413 953d
000000d0: c86f 293e e692 80bd 0d85 a5bd 2b71 5a3c
000000e0: ace1 d0bd 0ddd bebd 823b b63d 987a 0b3e
000000f0: e343 9a3c 379e b33d 057e 0a3d 08e1 003e
00000100: 57db 1d3e bc40 e8bd a4db d23d ded5 123e
00000110: e224 ac3d ae23 15be baa7 11be c111 b43d
00000120: 0a97 92bd 4ce7 2ebd d40c 283e 3a8b 5f3d
00000130: 30f4 6abd e18b 6f3d 581b 2b3e f90d 15be
00000140: 29b5 873d b749 eb3d b4ac 083e 495a 993b
00000150: 41de e0bd 6cb9 f53c 16b8 83bd f622 56bd
00000160: 7bdf 35be 2f0b 2a3e b3a4 013c 7a9e fe3d
00000170: c52a e6bd c5ab d83d 1c11 1bbe 5325 35bc
00000180: 689d b53d aef0 743d 2031 063e 3410 21bd
00000190: 3da0 82bd 4e15 d43d 0011 55bd e429 25be
000001a0: a9ac 90bd fb97 b0bd ce53 7abd 2eb4 b3bd
000001b0: d7a8 943d 0c72 bebd e06f 04bd 312f 8d3d
000001c0: 959e 32be db0e 2b3e eab3 6fbd 9c7c 933d
000001d0: 34bb f6bd 393a 3e3c 7e52 38be ebc1 e43d
000001e0: 872a 053d a6f9 9e3d 4681 33be caff 033e
000001f0: cd72 a23d 34f4 1f3e a496 a63c 4697 dcbd
00000200: 0288 823d c4cc d7bd 20c3 30be a8fa a9bd
00000210: 08a8 0bbe 5032 d03d aed1 9c3d a2f6 6abd
00000220: 64fe 4ebd ef97 203e 665c f03c bdec 47bd
00000230: d5a4 17be 005c a9bd 932d 603d d9af 24be
00000240: bc07 fcbd baad 13be 1ee2 0d3e 124c 903b
00000250: 9f53 aa3d bc4c 2ebd 8eaf 01be ec84 153e
00000260: 4576 013e 74aa 3bbc 04b3 e53b 1ad8 d6bd
00000270: da84 a03c 5fb3 353e 726c 52bd 1b7f 70bb
00000280: a890 d13d 2a44 f43b b57d c23d 727a 2cbe
00000290: 820e 403d 41d2 c6bc 2a2c 6dbd 0342 e9bc
000002a0: d25e 23be 2d8d 933c 6f24 063e 1fa7 743d
000002b0: a9cc 15be 2052 133e fdfe eabd 8b85 dfbd
000002c0: 8533 4dbb b304 163e 01d8 ddbd c419 803d
000002d0: e582 cabd 4fea 9e3d 909e 19be bdde 23be
000002e0: 3ba7 213e a31f bfbc 57bf 37bd 6233 013e
000002f0: 5091 353e 3110 213e ac62 c83d 1380 32be
00000300: a3db d03d 7fd8 ce3d ca91 453c d6f0 96bd
00000310: 58be c73d 65f9 b3bc 537d 07be 82a6 a2bd
00000320: 050a 53bd 3e6d a63c 0681 0b3e 15bb a03d
00000330: 01a4 afbd 41fe 193e bb13 e0bd cee9 61bd
00000340: 90e1 cd3d 14a2 233e e808 bd3d d1bb edbd
00000350: 2d6e 0fbe ab7e cc3c d754 7c3c aad4 0ebe
00000360: 69e5 093e 2643 efbd 1b50 c63c 2e98 bebd
00000370: 733e d43d 940c 803d a54d 143e 18c4 0e3d
00000380: d55a 22bd 04a3 a8bd 7121 9ebc 42cf 45bd
00000390: 1b24 263e 0699 08be 4649 a4bc 74b9 92bd
000003a0: c1bf 2d3d 4edb 0d3e 8397 2f3e f793 17bd
000003b0: 975b 6dbd e6b2 1cbe bbb1 66bd cf69 2b3e
000003c0: b55a e0bd 3584 01be de6a 763d dd30 1ebe
000003d0: 5fa1 f63c e5b9 8ebd 7b6d 60bc ce03 22be
000003e0: 3122 313e 7c6a 10be d205 22bd 6d26 c9bc
000003f0: cfd0 613c 84ee 5e3d 5c50 8c3d 5e93 9fbd

shared_layers.1.bias f4 [64]
0.038334467 -0.077568784 -0.08275808 -0.056370944 -0.047235887 0.010710756 -0.07277729 0.031629935
0.026054345 0.049710236 0.050460275 -0.0075444654 0.046732124 0.05891364 0.0074821664 -0.04358848
-0.043021463 -0.0020307403 -0.02467273 0.078105584 -0.00542804 0.07446572 -0.008208156 -0.01252042
-0.020072155 -0.078815505 0.06691476 0.009251366 -0.04143933 0.043637473 0.01445688 0.091850296
0.057140958 -0.04276076 -0.07624773 0.023308516 0.050655674 -0.007535073 -0.0110308835 -0.07943682
0.04115945 -0.021959316 0.056946225 -0.053312685 0.030456053 0.018693369 0.08567806 0.012568691
0.0499253 0.071242005 0.08350575 -0.006140822 0.021944245 -0.0834231 0.022459045 -0.07854979
-0.07019385 0.08502355 0.082097255 -0.024266886 0.08092892 0.048135474 -0.052224018 -0.010638553
00000000: 9a04 1d3d 62dc 9ebd 117d a9bd 38e5 66bd
00000010: 6b7a 41bd 2b7c 2f3c 430c 95bd 648e 013d
00000020: ec6f d53c f69c 4b3d 6faf 4e3d 9037 f7bb
00000030: 2f6a 3f3d 6e4f 713d f62c f53b d689 32bd
00000040: 4637 30bd 2b16 05bb 771e cabc d2f5 9f3d
00000050: b3dd b1bb 7c81 983d 807b 06bc 7322 4dbc
00000060: 5c6e a4bc 066a a1bd 9b0a 893d 0b93 173c
00000070: 49bc 29bd 35bd 323d 8ddc 6c3c 021c bc3d
00000080: a30c 6a3d e825 2fbd c527 9cbd 80f1 be3c
00000090: 537c 4f3d c6e8 f6bb e1ba 34bc c5af a2bd
000000a0: d096 283d 06e4 b3bc 7240 693d 675e 5abd
000000b0: f97e f93c d622 993c fb77 af3d e9ec 4d3c
000000c0: 797e 4c3d 54e7 913d 1005 ab3d f338 c9bb
000000d0: 6bc4 b33c bbd9 aabd 08fc b73c b6de a0bd
000000e0: cbc1 8fbd d420 ae3d 9b22 a83d 59cb c6bc
000000f0: 10be a53d b429 453d dae8 55bd 534d 2ebc
