policy_ppo.pt (torch, 304491 bytes, 30 tensors)

sigma f4 [3]
0.0 0.0 0.0
00000000: 0000 0000 0000 0000 0000 0000

conv1.weight f4 [16, 3, 5, 5]
-0.0008645035 0.06194317 -0.095037065 -0.084978916 -0.044473793 0.030964145 -0.0022878288 0.09155499
-0.010247279 0.030554825 -0.03489656 -0.022697415 -0.11031414 -0.07647375 -0.047599424 0.004277423
0.045649376 0.06928466 -0.078281894 -0.050282914 0.0419407 0.09588494 -0.023763757 0.086407594
-0.01861185 0.01221836 0.10455538 -0.107118145 -0.07269278 -0.029233003 -0.04501022 0.09976622
-0.07484534 -0.05315466 -0.08067205 -0.108144745 -0.067404546 0.09925783 0.05152486 0.055965163
0.0060727503 -0.05919959 0.019535765 -0.107813776 -0.08343476 -0.059528276 0.07285444 0.06770255
-0.051210396 -0.004166435 0.07385011 0.1147926 0.045828007 0.015599179 0.07742109 -0.06798904
0.021517154 -0.08952457 -0.080030695 -0.05964993 0.052247085 0.046437483 -0.068398975 0.034884322
0.06338982 -0.014574326 0.0044088247 0.026754955 0.07163492 0.11087366 -0.088983946 -0.04231628
0.045380875 0.09567264 0.10048288 0.10188578 0.02298022 -0.10041075 0.010622378 -0.07223868
-0.107612796 0.10259427 0.08779878 -0.115184605 0.021612767 -0.019452086 -0.019001884 -0.05285721
0.044404723 -0.06839332 0.04233032 0.05839414 0.082661726 0.043175537 -0.11428478 -0.07490507
0.05765593 0.024168039 -0.09007634 -0.066489905 0.10862837 0.07780579 -0.050347846 -0.029062055
-0.10999655 -0.0020754747 -0.08695575 -0.0890686 -0.0063623544 0.017337257 -0.04728848 0.06851734
-0.07026804 0.10477407 0.07913161 -0.097373925 -0.028738685 0.0052103116 0.016847206 0.027386526
0.045313712 0.0069166753 -0.056341156 0.054639157 -0.11076452 -0.06843987 -0.0289056 -0.056247003
-0.04039528 -0.09464176 -0.024562228 0.024682468 -0.07522479 -0.005925849 0.082659334 -0.01187035
0.0032091686 -0.009961475 0.023368988 0.07342041 0.10937857 0.07332994 0.109628834 -0.008350985
-0.10372923 -0.05474172 0.07862416 -0.00074853253 -0.057393968 -0.08848606 -0.108062886 -0.09745767
-0.02342157 0.06332447 0.062427852 -0.111363 0.072028145 -0.09035641 -0.024411557 -0.046819948
-0.022241294 -0.022671703 -0.10361704 -0.09970122 -0.018068694 0.0014932797 -0.052455146 0.043497477
-0.10392979 -0.007792755 0.10154661 -0.04709931 0.10426982 0.041817915 -0.10420721 0.07305759
-0.013324606 -0.051546622 0.09233601 -0.093310796 0.0123905055 -0.024175815 0.08245862 0.032232832
0.05548398 0.04077928 -0.027767627 -0.024283981 -0.09515672 0.06256677 0.09168069 0.07900748
-0.08145007 0.0051499517 -0.08139878 -0.063564435 -0.06728503 0.039461315 -0.06881013 -0.002519234
0.0048576086 0.07443465 -0.08728613 -0.0792716 -0.06704902 0.08082135 -0.04150744 0.097397685
0.04175484 0.014621512 -0.00085956184 -0.0228263 0.014487606 -0.026366971 -0.0008113427 0.014733175
-0.090321265 -0.060521483 0.09324123 -0.093709335 -0.008291464 0.11422745 0.04171206 0.0032693082
-0.1000675 0.05720131 -0.08224709 -0.03277782 -0.038742088 -0.017099658 0.0012630445 0.09524057
0.014415146 0.1034257 0.07063447 -0.07300178 0.051788792 -0.08162533 -0.048939113 0.03396236
0.0381273 0.08662887 -0.037171643 0.00018485157 0.059446704 -0.11167018 0.08348261 -0.09548477
0.0015914661 -0.019631844 -0.060814954 0.015261796 0.095484346 -0.03375415 -0.06855389 -0.04270531
00000000: d99f 62ba 1fb8 7d3d cba2 c2bd 6d09 aebd
00000010: 272a 36bd 85a8 fd3c 66ef 15bb 2f81 bb3d
00000020: 34e4 27bc 1d4e fa3c b2ef 0ebd eeef b9bc
00000030: 61ec e1bd 459e 9cbd 9df7 42bd a029 8c3b
00000040: d7fa 3a3d 1ee5 8d3d 4252 a0bd 75f5 4dbd
00000050: 03ca 2b3d 535f c43d 36ac c2bc 77f6 b03d
00000060: e177 98bc 842f 483c 2221 d63d c260 dbbd
00000070: f4df 94bd 0d7a efbc a35c 38bd 3b52 cc3d
00000080: 8348 99bd b3b8 59bd 6337 a5bd fe7a ddbd
00000090: 650b 8abd b047 cb3d bb0b 533d ba3b 653d
000000a0: ecfd c63b 457b 72bd 7809 a03c 78cd dcbd
000000b0: d8df aabd ecd3 73bd b534 953d a2a7 8a3d
000000c0: fec1 51bd 9786 88bb ba3e 973d 6218 eb3d
000000d0: 26b6 3b3d b393 7f3c f38e 9e3d d63d 8bbd
000000e0: be44 b03c a858 b7bd 22e7 a3bd 7c53 74bd
000000f0: 0a01 563d 3b35 3e3d c314 8cbd dde2 0e3d
00000100: 86d2 813d 27c9 6ebc e777 903b 352d db3c
00000110: 54b5 923d bb11 e33d 373d b6bd d653 2dbd
00000120: 4ce1 393d 04f0 c33d f8c9 cd3d 7ea9 d03d
00000130: 0441 bc3c 27a4 cdbd 7c09 2e3c e0f1 93bd
00000140: 1964 dcbd f21c d23d d9cf b33d e8e5 ebbd
00000150: 420d b13c fb59 9fbc d7a9 9bbc cd80 58bd
00000160: bae1 353d cc11 8cbd 8f62 2d3d b22e 6f3d
00000170: 8d4a a93d d5d8 303d 240e eabd d467 99bd
00000180: a028 6c3d 0dfc c53c f279 b8bd dc2b 88bd
00000190: 8d78 de3d a458 9f3d 8b39 4ebd 8c13 eebc
000001a0: df45 e1bd b004 08bb db15 b2bd 9969 b6bd
000001b0: 4c7b d0bb dd06 8e3c 91b1 41bd d252 8c3d
000001c0: b1e8 8fbd ca93 d63d c10f a23d fb6b c7bd
000001d0: 646d ebbc 43bb aa3b 2703 8a3c b559 e03c
000001e0: df9a 393d 47a5 e23b fcc5 66bd 4fcd 5f3d
000001f0: 82d8 e2bd 342a 8cbd 70cb ecbc 4263 66bd
00000200: 8575 25bd 8ad3 c1bd ba36 c9bc e332 ca3c
00000210: 740f 9abd a02d c2bb 4c49 a93d db7b 42bc
00000220: ea50 523b 7435 23bc 5270 bf3c 715d 963d
00000230: df01 e03d 022e 963d 1585 e03d 92d2 08bc
00000240: fe6f d4bd db38 60bd b405 a13d 2b39 44ba
00000250: f015 6bbd 2e38 b5bd 1350 ddbd e397 c7bd
00000260: 98de bfbc 42b0 813d 59b4 7f3d 4912 e4bd
00000270: 7e83 933d c80c b9bd bffa c7bc 46c6 3fbd
00000280: 6033 b6bc 02ba b9bc 2c35 d4bd 2730 ccbd
00000290: cc04 94bc 27ba c33a 35db 56bd 692a 323d
000002a0: 24d9 d4bd 5e5a ffbb abf7 cf3d 35eb 40bd
000002b0: 6a8b d53d 4349 2b3d 976a d5bd 389f 953d
000002c0: 734f 5abc 8d22 53bd a91a bd3d bb19 bfbd
000002d0: 8c01 4b3c 5c0c c6bc 11e0 a83d 9306 043d
000002e0: 2b43 633d 2d08 273d ef78 e3bc 33ef c6bc
000002f0: 87e1 c2bd 0223 803d 16c3 bb3d acce a13d
00000300: 4bcf a6bd edc0 a83b 67b4 a6bd 122e 82bd
00000310: bccc 89bd 30a2 213d 53ec 8cbd bc19 25bb
00000320: 932c 9f3b 3271 983d 12c3 b2bd 2659 a2bd
00000330: ff50 89bd aa85 a53d b503 2abd 7078 c73d
00000340: 2007 2b3d 118f 6f3c 3854 61ba 38fe babc
00000350: 6c5d 6d3c 8cff d7bc 49b0 54ba 6a63 713c
00000360: 5bfa b8bd 60e5 77bd 42f5 be3d aeea bfbd
00000370: ecd8 07bc 15f0 e93d 44da 2a3d e441 563b
00000380: 30f0 ccbd ec4b 6a3d 2a71 a8bd 0942 06bd
00000390: 06b0 1ebd 9514 8cbc be8c a53a 7d0d c33d
000003a0: 812d 6c3c dad0 d33d cea8 903d f581 95bd
000003b0: 7c20 543d 2e2b a7bd 6174 48bd 1e1c 0b3d
000003c0: 5f2b 1c3d 7a6a b13d 4b41 18bd b7d4 4139
000003d0: 637e 733d 56b3 e4bd eef8 aa3d 858d c3bd
000003e0: be98 d03a f6d2 a0bc 1a19 79bd 9d0c 7a3c
000003f0: 4c8d c33d cb41 0abd fb65 8cbd c3eb 2ebd

conv1.bias f4 [16]
0.04908564 0.103856765 0.10737046 -0.10508526 -0.07638116 -0.047743034 -0.07363537 0.11079352
-0.01019818 -0.07659597 -0.051382955 -0.06378157 0.047110554 -0.100718886 -0.10766463 -0.113825895
00000000: 060e 493d dbb2 d43d 0be5 db3d f136 d7bd
00000010: ba6d 9cbd 338e 43bd 24ce 96bd b7e7 e23d
00000020: 4416 27bc 59de 9cbd ef76 52bd e99f 82bd
00000030: fff6 403d b445 cebd 467f dcbd 8d1d e9bd

bn1.weight f4 [16]
1.0 1.0 1.0 1.0 1.0 1.0 1.0 1.0
1.0 1.0 1.0 1.0 1.0 1.0 1.0 1.0
00000000: 0000 803f 0000 803f 0000 803f 0000 803f
00000010: 0000 803f 0000 803f 0000 803f 0000 803f
00000020: 0000 803f 0000 803f 0000 803f 0000 803f
00000030: 0000 803f 0000 803f 0000 803f 0000 803f

bn1.bias f4 [16]
0.0 0.0 0.0 0.0 0.0 0.0 0.0 0.0
0.0 0.0 0.0 0.0 0.0 0.0 0.0 0.0
00000000: 0000 0000 0000 0000 0000 0000 0000 0000
00000010: 0000 0000 0000 0000 0000 0000 0000 0000
00000020: 0000 0000 0000 0000 0000 0000 0000 0000
00000030: 0000 0000 0000 0000 0000 0000 0000 0000

bn1.running_mean f4 [16]
0.0 0.0 0.0 0.0 0.0 0.0 0.0 0.0
0.0 0.0 0.0 0.0 0.0 0.0 0.0 0.0
00000000: 0000 0000 0000 0000 0000 0000 0000 0000
00000010: 0000 0000 0000 0000 0000 0000 0000 0000
00000020: 0000 0000 0000 0000 0000 0000 0000 0000
00000030: 0000 0000 0000 0000 0000 0000 0000 0000

bn1.running_var f4 [16]
1.0 1.0 1.0 1.0 1.0 1.0 1.0 1.0
1.0 1.0 1.0 1.0 1.0 1.0 1.0 1.0
00000000: 0000 803f 0000 803f 0000 803f 0000 803f
00000010: 0000 803f 0000 803f 0000 803f 0000 803f
00000020: 0000 803f 0000 803f 0000 803f 0000 803f
00000030: 0000 803f 0000 803f 0000 803f 0000 803f

conv2.weight f4 [32, 16, 5, 5]
0.021526206 0.02472273 -0.031053955 0.012398928 0.036909234 0.007265067 -0.010579079 0.003694117
-0.0053613842 0.025174959 -0.033950567 0.025355125 0.028181178 -0.030293733 0.04082818 0.04910924
-0.019711435 -0.014004719 0.024917776 -0.03917102 0.0197729 0.011665237 0.03151649 -0.04343034
-0.04153924 0.022456456 0.01801054 -0.046538312 -0.027882976 -0.045748927 -0.035821147 -0.022559984
0.041376926 -0.009952545 0.02871756 0.047484048 0.022786612 -0.04476052 0.025161136 0.019071728
0.03875328 -0.04932171 0.0307508 0.04092707 -0.046518236 0.005231315 0.042683657 -0.03636541
0.016405964 0.022093868 0.013104505 0.04971379 0.04093898 0.04289774 -0.0062323394 0.04193563
-0.046595633 -0.026981467 -0.010694057 -0.0148528395 0.046184737 0.023583263 0.03219065 0.03401047
-0.037350178 -0.0057910504 0.0073012295 0.013004625 0.025711631 -0.01989534 -0.015076721 0.041837066
-0.013419217 -0.03473207 0.03390199 0.033857774 -0.015678346 -0.0099960035 -0.036894 -0.04175469
0.018802477 -0.021359628 0.039804775 -0.04003566 -0.006911254 0.0010795891 0.025697356 0.040466536
0.033860225 0.022009803 -0.02294969 -0.035707384 -0.04473064 0.0024802329 0.04849401 -0.009497124
-0.0021049262 -0.0363347 0.015350485 0.03169917 -0.049295794 -0.03520611 0.037035387 0.0118382275
-0.003117305 0.008937913 -0.0076020956 -0.03494825 -0.046721496 0.0328854 -0.005946833 -0.018569363
-0.012905759 -0.027271152 -0.014809168 -0.04292072 0.03741718 0.020417124 -0.025216073 -0.017065663
0.022431875 -0.018515272 0.013184684 0.013767076 -0.03147466 0.012525076 0.0030592084 0.043669194
-0.018090999 -0.012853426 0.043080032 -0.040830117 0.003612423 0.048175115 -0.022418398 0.04793411
0.044367034 0.046516985 -0.0047711553 0.045231666 -0.021785969 -0.01711526 0.01891163 0.01056236
0.02756378 0.047515966 -0.031299453 0.026536334 0.016728228 0.026378406 0.023708617 -0.018703496
-0.0395178 0.04001924 -0.028511781 0.03196636 -0.047632176 -0.0086501185 0.0005299449 0.008651179
0.0040416005 0.015755314 -0.005567229 0.01224522 0.049479216 -0.032352604 -0.0027298392 -0.019086152
0.04387148 0.042801995 -0.0013634622 -0.01733163 -0.030893309 0.03577698 -0.0034431815 0.04709048
0.028513098 0.04376523 0.03954618 -0.032492112 0.01463511 -0.020732945 0.02508766 -0.00449549
0.0043284954 -0.03458044 -0.044686284 0.01882865 0.01161927 0.0043431404 0.033959728 -0.020878721
0.017749041 -0.02753808 0.010359997 -0.011414927 0.035016336 0.043724127 0.043426186 0.002249211
0.029484654 -0.049956918 -0.029329712 0.008936161 0.00027884843 -0.03925365 -0.022130579 -0.023352707
-0.049538106 0.0047685388 0.034084704 0.02029317 -0.023756647 -0.04591326 -0.04033885 0.0009274602
0.034395665 -0.020248627 -0.02720725 -0.026672823 -0.0043284358 -0.047482736 -0.044122227 0.04921953
-0.023845805 -0.009018183 -0.013377637 -0.04392531 -0.008814657 0.015305835 -0.02030288 -0.0021309913
-0.00023917556 -0.049775243 0.036335822 0.04038864 0.034090277 -0.016419917 0.026128162 -0.04684612
-0.012369335 -0.010169215 -0.017657483 0.021000003 -0.022782892 -0.005795193 -0.01443767 -0.04695415
-0.008257031 -0.042373814 0.029155208 0.026723146 0.046839602 -0.01679014 0.002542609 0.009794533
00000000: ba57 b03c 5387 ca3c dd64 febc e024 4b3c
00000010: 232e 173d cd0f ee3b e053 2dbc 0019 723b
00000020: 8dae afbb b73b ce3c c00f 0bbd 8db5 cf3c
00000030: 37dc e63c 902a f8bc 733b 273d c526 493d
00000040: e079 a1bc 0d74 65bc 5d20 cc3c cb71 20bd
00000050: c7fa a13c 8d1f 3f3c 6f17 013d 03e4 31bd
00000060: 0d25 2abd 9af6 b73c d78a 933c f59e 3ebd
00000070: d76a e4bc 3a63 3bbd 32b9 12bd b7cf b8bc
00000080: da7a 293d 0010 23bc 1741 eb3c a27e 423d
00000090: fdaa ba3c cf56 37bd ba1e ce3c 503c 9c3c
000000a0: c2bb 1e3d 9005 4abd 1ae9 fb3c 25a3 273d
000000b0: e889 3ebd 736b ab3b 0fd5 2e3d e5f3 14bd
000000c0: cd65 863c 33fe b43c 47b4 563c b0a0 4b3d
000000d0: a2af 273d 8ab5 2f3d a738 ccbb b2c4 2b3d
000000e0: 10db 3ebd 3d08 ddbc 2036 2fbc 5359 73bc
000000f0: 352c 3d3d b031 c13c 58da 033d 904e 0b3d
00000100: 80fc 18bd dac2 bdbb 273f ef3b 5a11 553c
00000110: 33a1 d23c 8dfb a2bc 5a04 77bc 585d 2b3d
00000120: 47dc 5bbc 3743 0ebd d0dc 0a3d 73ae 0a3d
00000130: e06f 80bc 47c6 23bc 2a1e 17bd f706 2bbd
00000140: a707 9a3c 63fa aebc 550a 233d 6ffc 23bd
00000150: cd77 e2bb 0081 8d3a 4383 d23c 3dc0 253d
00000160: 05b1 0a3d e74d b43c fd00 bcbc e841 12bd
00000170: 7a37 37bd 678b 223b a8a1 463d d399 1bbc
00000180: cdf2 09bb b2d3 14bd 9a80 7b3c fdd6 013d
00000190: 63ea 49bd 4834 10bd 6bb2 173d 20f5 413c
000001a0: b34b 4cbb 5370 123c 001b f9bb e525 0fbd
000001b0: 0a5f 3fbd d7b2 063d a7dd c2bb c71e 98bc
000001c0: ad72 53bc c067 dfbc 27a2 72bc a3cd 2fbd
000001d0: c242 193d d041 a73c f091 cebc 4acd 8bbc
000001e0: 0dc3 b73c 57ad 97bc 9304 583c 4d8f 613c
000001f0: 93eb 00bd fa35 4d3c 007d 483b 78de 323d
00000200: 9333 94bc 2d97 52bc b074 303d 7b3d 27bd
00000210: 67be 6c3b 4553 453d caa6 b7bc 8f56 443d
00000220: 35ba 353d 9888 3e3d 5a57 9cbb d744 393d
00000230: 7d78 b2bc 4d35 8cbc 90ec 9a3c c00d 2d3c
00000240: 70cd e13c 1aa0 423d db33 00bd ba62 d93c
00000250: a309 893c 8717 d83c 9338 c23c 1338 99bc
00000260: 6bdd 21bd 37eb 233d 8a91 e9bc 28ef 023d
00000270: f519 43bd 3ab9 0dbc 00ec 0a3a adbd 0d3c
00000280: 676f 843b 4a11 813c 4d6d b6bb 2da0 483c
00000290: b8aa 4a3d 2a84 04bd 1ae7 32bb 905a 9cbc
000002a0: 95b2 333d 2551 2f3d 33b6 b2ba 10fb 8dbc
000002b0: f713 fdbc e28a 123d 00a7 61bb f2e1 403d
000002c0: 4d94 e93c 2b43 333d 2dfb 213d 7316 05bd
000002d0: 1ac8 6f3c 23d8 a9bc a384 cd3c e74e 93bb
000002e0: 0dd6 8d3b 38a4 0dbd f708 37bd 8a3e 9a3c
000002f0: c05e 3e3c e750 8e3b 5b19 0b3d da09 abbc
00000300: 7066 913c 8a97 e1bc fabc 293c ad05 3bbc
00000310: 4a6d 0f3d 1218 333d a8df 313d 8067 133b
00000320: cd89 f13c a09f 4cbd dd44 f0bc fa68 123c
00000330: 6732 9239 6fc8 20bd 304b b5bc 2d4e bfbc
00000340: 78e8 4abd 6741 9c3b 679c 0b3d dd3d a63c
00000350: 4d9d c2bc 8b0f 3cbd 5a3a 25bd cd20 733a
00000360: 78e2 0c3d 73e0 a5bc bde1 debc f780 dabc
00000370: 8dd5 8dbb 427d 42bd 82b9 34bd 6b9a 493d
00000380: 4758 c3bc 00c1 13bc e02d 5bbc 07eb 33bd
00000390: 5a6b 10bc 53c5 7a3c 3a52 a6bc 1aa8 0bbb
000003a0: 33cb 7ab9 20e1 4bbd dfd4 143d 8f6e 253d
000003b0: 3fa2 0b3d 1083 86bc ba0a d63c b8e1 3fbd
000003c0: c0a8 4abc c79c 26bc 6da6 90bc 3308 ac3c
000003d0: 30a3 babc 9ae5 bdbb fa8b 6cbc ff52 40bd
000003e0: 8048 07bc 2a90 2dbd e7d6 ee3c 80ea da3c
000003f0: e2da 3f3d 7a8b 89bc e7a1 263b 4079 203c

conv2.bias f4 [32]
-0.03731018 -0.0014886319 -0.034297414 0.01998623 0.011891723 -0.003602475 0.030118788 0.024199814
-0.0028050006 0.00096606015 0.019804215 -0.042927742 0.009701031 0.004046464 -0.0012198508 -0.013406205
-0.024772698 0.01592794 -0.034314502 0.019357188 -0.041152496 0.0133531215 0.0045966925 -0.023978025
-0.023154575 -0.013734204 -0.02322634 -0.01370225 -0.011477835 0.04026657 0.0017965556 0.04395643
00000000: 8fd2 18bd 331e c3ba 727b 0cbd 2aba a33c
00000010: 80d5 423c 8017 6cbb adbb f63c b03e c63c
00000020: 1ad4 37bb 333f 7d3a 733c a23c 00d5 2fbd
00000030: 13f1 1e3c 3398 843b 67e3 9fba b3a5 5bbc
00000040: 1df0 cabc 507b 823c 5d8d 0cbd f792 9e3c
00000050: 858f 28bd 0dc7 5a3c da9f 963b 906d c4bc
00000060: aaae bdbc 6d05 61bc 2a45 bebc 677f 60bc
00000070: 870d 3cbc 8fee 243d 677a eb3a a80b 343d

bn2.weight f4 [32]
1.0 1.0 1.0 1.0 1.0 1.0 1.0 1.0
1.0 1.0 1.0 1.0 1.0 1.0 1.0 1.0
1.0 1.0 1.0 1.0 1.0 1.0 1.0 1.0
1.0 1.0 1.0 1.0 1.0 1.0 1.0 1.0
00000000: 0000 803f 0000 803f 0000 803f 0000 803f
00000010: 0000 803f 0000 803f 0000 803f 0000 803f
00000020: 0000 803f 0000 803f 0000 803f 0000 803f
00000030: 0000 803f 0000 803f 0000 803f 0000 803f
00000040: 0000 803f 0000 803f 0000 803f 0000 803f
00000050: 0000 803f 0000 803f 0000 803f 0000 803f
00000060: 0000 803f 0000 803f 0000 803f 0000 803f
00000070: 0000 803f 0000 803f 0000 803f 0000 803f

bn2.bias f4 [32]
0.0 0.0 0.0 0.0 0.0 0.0 0.0 0.0
0.0 0.0 0.0 0.0 0.0 0.0 0.0 0.0
0.0 0.0 0.0 0.0 0.0 0.0 0.0 0.0
0.0 0.0 0.0 0.0 0.0 0.0 0.0 0.0
00000000: 0000 0000 0000 0000 0000 0000 0000 0000
00000010: 0000 0000 0000 0000 0000 0000 0000 0000
00000020: 0000 0000 0000 0000 0000 0000 0000 0000
00000030: 0000 0000 0000 0000 0000 0000 0000 0000
00000040: 0000 0000 0000 0000 0000 0000 0000 0000
00000050: 0000 0000 0000 0000 0000 0000 0000 0000
00000060: 0000 0000 0000 0000 0000 0000 0000 0000
00000070: 0000 0000 0000 0000 0000 0000 0000 0000

bn2.running_mean f4 [32]
0.0 0.0 0.0 0.0 0.0 0.0 0.0 0.0
0.0 0.0 0.0 0.0 0.0 0.0 0.0 0.0
0.0 0.0 0.0 0.0 0.0 0.0 0.0 0.0
0.0 0.0 0.0 0.0 0.0 0.0 0.0 0.0
00000000: 0000 0000 0000 0000 0000 0000 0000 0000
00000010: 0000 0000 0000 0000 0000 0000 0000 0000
00000020: 0000 0000 0000 0000 0000 0000 0000 0000
00000030: 0000 0000 0000 0000 0000 0000 0000 0000
00000040: 0000 0000 0000 0000 0000 0000 0000 0000
00000050: 0000 0000 0000 0000 0000 0000 0000 0000
00000060: 0000 0000 0000 0000 0000 0000 0000 0000
00000070: 0000 0000 0000 0000 0000 0000 0000 0000

bn2.running_var f4 [32]
1.0 1.0 1.0 1.0 1.0 1.0 1.0 1.0
1.0 1.0 1.0 1.0 1.0 1.0 1.0 1.0
1.0 1.0 1.0 1.0 1.0 1.0 1.0 1.0
1.0 1.0 1.0 1.0 1.0 1.0 1.0 1.0
00000000: 0000 803f 0000 803f 0000 803f 0000 803f
00000010: 0000 803f 0000 803f 0000 803f 0000 803f
00000020: 0000 803f 0000 803f 0000 803f 0000 803f
00000030: 0000 803f 0000 803f 0000 803f 0000 803f
00000040: 0000 803f 0000 803f 0000 803f 0000 803f
00000050: 0000 803f 0000 803f 0000 803f 0000 803f
00000060: 0000 803f 0000 803f 0000 803f 0000 803f
00000070: 0000 803f 0000 803f 0000 803f 0000 803f

conv3.weight f4 [32, 32, 5, 5]
-0.00695595 -0.027602106 -0.008052202 0.01911391 -0.023958027 0.028250638 -0.003200105 0.027550507
-0.009032003 -0.031141907 -0.021091038 0.0032684798 -0.025434786 0.03096494 0.02955663 -0.008450014
0.02618691 0.010575816 -0.0030524856 -0.03492377 -0.029991155 -0.026918653 -0.0021417723 0.026950024
0.009130824 -0.0057471697 0.021726958 0.015722718 -0.02433216 0.00786977 0.0023808798 0.014381488
0.0036596912 -0.010525792 -0.01607789 0.027464174 0.0112123815 0.022757487 0.02754139 0.014440017
-0.028212857 0.004219271 0.021217335 -0.010008035 0.027055763 -0.016664114 -0.03300322 0.035221353
0.022806281 0.028989274 0.021736601 -0.03006632 0.010864384 0.032613996 -0.020054571 0.005963417
0.009805013 -0.031376567 0.0035731425 0.013025302 -0.0008650093 -0.029333234 0.018014817 -0.02932013
0.011081815 0.0015810295 0.0016460874 -0.025256041 -0.013648609 -0.0103795845 -0.016423697 -0.013440517
0.004132743 0.033955917 -0.014613245 -0.030616201 0.009698534 0.031690862 -0.034768775 0.03105691
0.025534138 0.01079281 0.020853562 -0.022403425 -0.032200847 0.0321269 0.017482717 -0.023196792
-0.024805482 0.009465099 0.023158405 0.030955788 0.004449953 0.020694142 0.01380537 0.012501907
-0.017701745 -0.025608368 0.034333788 0.007339208 -0.031784926 -0.013073452 0.0035095303 0.0059312545
-0.026437547 0.03088678 -0.032604676 0.01732305 -0.015625296 -0.025027798 0.015637256 -0.0084735025
-0.014056708 -0.0037084466 -0.012628241 0.032915987 -0.03329956 -0.012120216 -0.004291683 -0.00982905
-0.021691252 0.004685162 0.0007132849 0.022463113 0.011611478 0.024207078 -0.024971537 0.029494867
-0.014792339 -0.0004508027 0.013016954 -0.007306388 -0.009378834 0.016067939 0.025473207 -0.022993408
0.020366833 0.023414789 0.014695343 0.011365041 0.018980652 0.033490106 0.024016615 0.0011272344
-0.024135588 -0.00086463 -0.020317024 0.03117779 -0.010498519 0.0025486706 0.014956109 0.012297081
-0.028994324 -0.022822076 0.0060423706 -0.02596873 0.013764066 0.0093714995 -0.013764154 -0.027965484
0.005418336 -0.019739516 0.03393021 0.022832943 0.02262695 0.016538719 0.013785017 -0.026539143
0.033662904 -0.007224969 0.020484116 0.032462858 0.006798995 -0.02561979 -0.0016780726 -0.02058795
-0.028788453 0.025260955 -0.013351878 0.028403606 -0.020553831 0.014647754 -0.0023800663 -0.0039359806
0.020420806 -0.032012843 0.029547488 -0.0072491276 0.015967254 -0.020982465 -0.018441439 -0.0008198068
-0.008461731 -0.014371288 0.019131653 -0.0038599435 -0.014510313 -0.004039396 0.031669967 -0.028986841
-0.0058839615 -0.005530442 0.017214084 0.029145213 -0.022200294 -0.00654992 -0.03290476 -0.026146637
0.013255522 -0.0038500684 0.026176693 -0.0033634198 -0.016142681 -0.011662784 0.0037443263 0.022648597
0.0028960323 0.0080638435 -0.012415754 0.013432306 -0.023862 0.021963777 -0.0015227952 0.02970037
-0.017997308 0.03465945 0.022462236 -0.028554412 -0.010492955 0.030877125 0.01200784 0.029405575
-0.007415182 -0.015098856 0.023448197 -0.010608527 0.03206333 0.020645773 0.035197567 0.026664235
-0.0104984855 0.029819032 -0.027429406 0.03459558 -9.263456e-05 -0.016113061 0.010324031 0.018975474
0.001659136 0.025128758 -0.0025127742 -0.03474378 0.022800604 0.00031927504 0.01984106 -0.017462557
00000000: bdee e3bb d01d e2bc 62ed 03bc c694 9c3c
00000010: a043 c4bc e26d e73c dab8 51bb 9ab1 e13c
00000020: f7fa 13bc 501d ffbc 1dc7 acbc fe33 563b
00000030: 9d5c d0bc 30aa fd3c bf20 f23c ed71 0abc
00000040: ee85 d63c 3046 2d3c 360c 48bb 3a0c 0fbd
00000050: 03b0 f5bc 8284 dcbc fa5c 0cbb 4cc6 dc3c
00000060: 7499 153c c152 bcbb bcfc b13c eecc 803c
00000070: 3d54 c7bc 35f0 003c 8908 1c3b 55a0 6b3c
00000080: 6ed7 6f3b 5f74 2cbc c7b5 83bc 8cfc e03c
00000090: 23b4 373c e96d ba3c 7b9e e13c d295 6c3c
000000a0: a61e e7bc cf41 8a3b facf ad3c bef8 23bc
000000b0: 0ca4 dd3c 2e83 88bc 622e 07bd 4444 103d
000000c0: 3dd4 ba3c ea7a ed3c f510 b23c a54d f6bc
000000d0: 8700 323c 4196 053d 7c49 a4bc c468 c33b
000000e0: 35a5 203c b784 00bd 622b 6a3b 1468 553c
000000f0: cbc1 62ba 404c f0bc cf93 933c c530 f0bc
00000100: 8090 353c 8c3a cf3a 87c1 d73a c2e5 cebc
00000110: 6a9e 5fbc 220f 2abc fd8a 86bc 9d35 5cbc
00000120: f66b 873b 5c15 0b3d 646c 6fbc d4ce fabc
00000130: 9ae6 1e3c 47ce 013d b469 0ebd 106b fe3c
00000140: f82c d13c 53d4 303c 17d5 aa3c 6387 b7bc
00000150: 09e5 03bd 7f97 033d ea37 8f3c 3307 bebc
00000160: de34 cbbc 8113 1b3c b2b6 bd3c fe96 fd3c
00000170: e9d0 913b c386 a93c eb2f 623c ccd4 4c3c
00000180: 4003 91bc a4c8 d1bc 96a1 0c3d bd7d f03b
00000190: e930 02bd 0832 56bc 2600 663b f85a c23b
000001a0: 8e93 d8bc 4606 fd3c 7b8c 05bd 12e9 8d3c
000001b0: 9f00 80bc 1907 cdbc b419 803c 72d4 0abc
000001c0: 1b4e 66bc 6909 73bb afe6 4ebc ead2 063d
000001d0: 1f65 08bd df93 46bc 3fa1 8cbb 060a 21bc
000001e0: dab1 b1bc fd85 993b bdfb 3a3a 9004 b83c
000001f0: 123e 3e3c ec4d c63c 1c91 ccbc 389f f13c
00000200: 915b 72bc b759 ecb9 1045 553c 6d6a efbb
00000210: aea9 19bc e9a0 833c 30ad d03c ac5c bcbc
00000220: 58d8 a63c 5fd0 bf3c bcc4 703c 7034 3a3c
00000230: 507d 9b3c ec2c 093d 7ebe c43c b6bf 933a
00000240: ffb7 c5bc 56a8 62ba e36f a6bc 9168 ff3c
00000250: fb01 2cbc 9907 273b 780a 753c b279 493c
00000260: 8185 edbc 5df5 babc 14ff c53b 60bc d4bc
00000270: ad82 613c eb8a 193c 0c83 61bc df17 e5bc
00000280: 4c8c b13b c4b4 a1bc 67fa 0a3d 270c bb3c
00000290: 275c b93c 357c 873c 8dda 613c 9e68 d9bc
000002a0: 1de2 093d 6fbf ecbb 4ece a73c c6f7 043d
000002b0: 1bca de3b 98e0 d1bc c6f2 dbba 0fa8 a8bc
000002c0: c3d5 ebbc 10f0 ce3c d6c1 5abc aeae e83c
000002d0: 8260 a8bc 22fd 6f3c e3fa 1bbb 66f9 80bb
000002e0: 8949 a73c e61f 03bd 930d f23c 178a edbb
000002f0: c2cd 823c 6be3 abbc 8012 97bc 4ee8 56ba
00000300: 12a3 0abc 8d75 6bbc fcb9 9c3c 1bf7 7cbb
00000310: aabc 6dbc e95c 84bb 5eb8 013d d075 edbc
00000320: 3fce c0bb b638 b5bb 8d04 8d3c f1c1 ee3c
00000330: 64dd b5bc b6a0 d6bb 24c7 06bd 7931 d6bc
00000340: b02d 593c 6e51 7cbb 8170 d63c d26c 5cbb
00000350: a83d 84bc 4315 3fbc 5f63 753b 8d89 b93c
00000360: 5ccb 3d3b 361e 043c 726b 4bbc 2d13 5c3c
00000370: 3e7a c3bc 61ed b33c 8798 c7ba 314e f33c
00000380: 176f 93bc 11f7 0d3d b902 b83c f1ea e9bc
00000390: a5ea 2bbc 06f2 fc3c 88bc 443c f6e3 f03c
000003a0: 0efb f2bb 3161 77bc 6f16 c03c 63cf 2dbc
000003b0: d754 033d 5321 a93c 532b 103d f46e da3c
000003c0: d701 2cbc 0b47 f43c a2b3 e0bc 18b4 0d3d
000003d0: cd44 c2b8 8aff 83bc 2026 293c 7472 9b3c
000003e0: 5e77 d93a d3da cd3c 5bad 24bb 7e4f 0ebd
000003f0: 55c8 ba3c 5f64 a739 b889 a23c a30d 8fbc

conv3.bias f4 [32]
0.03496435 0.030903453 -0.02966458 -0.03471803 0.031970337 0.013372378 0.009633451 -0.008712015
-0.027847385 -0.027490009 -0.023441812 -0.013428454 0.02008931 -0.030581916 0.03517247 0.029905403
0.032524936 0.0074948566 0.02121619 0.0102322735 -0.0037457675 -0.007968073 -0.022311157 0.025409624
0.018114282 0.030642176 0.004327862 0.02293324 -0.02129985 -0.0225663 0.007964389 0.00955572
00000000: c736 0f3d 3d29 fd3c 2203 f3bc 7e34 0ebd
00000010: 54f3 023d d217 5b3c 9fd5 1d3c d7bc 0ebc
00000020: 3320 e4bc ba32 e1bc 0b09 c0bc 0503 5cbc
00000030: 5692 a43c ed86 fabc 0211 103d 2dfc f43c
00000040: de38 053d 6a97 f53b 93cd ad3c 44a5 273c
00000050: 8d7b 75bb 858c 02bc e3c5 b6bc d827 d03c
00000060: 6764 943c 4d05 fb3c bdd0 8d3b 7dde bb3c
00000070: 067d aebc f6dc b8bc 127d 023c 988f 1c3c

bn3.weight f4 [32]
1.0 1.0 1.0 1.0 1.0 1.0 1.0 1.0
1.0 1.0 1.0 1.0 1.0 1.0 1.0 1.0
1.0 1.0 1.0 1.0 1.0 1.0 1.0 1.0
1.0 1.0 1.0 1.0 1.0 1.0 1.0 1.0
00000000: 0000 803f 0000 803f 0000 803f 0000 803f
00000010: 0000 803f 0000 803f 0000 803f 0000 803f
00000020: 0000 803f 0000 803f 0000 803f 0000 803f
00000030: 0000 803f 0000 803f 0000 803f 0000 803f
00000040: 0000 803f 0000 803f 0000 803f 0000 803f
00000050: 0000 803f 0000 803f 0000 803f 0000 803f
00000060: 0000 803f 0000 803f 0000 803f 0000 803f
00000070: 0000 803f 0000 803f 0000 803f 0000 803f

bn3.bias f4 [32]
0.0 0.0 0.0 0.0 0.0 0.0 0.0 0.0
0.0 0.0 0.0 0.0 0.0 0.0 0.0 0.0
0.0 0.0 0.0 0.0 0.0 0.0 0.0 0.0
0.0 0.0 0.0 0.0 0.0 0.0 0.0 0.0
00000000: 0000 0000 0000 0000 0000 0000 0000 0000
00000010: 0000 0000 0000 0000 0000 0000 0000 0000
00000020: 0000 0000 0000 0000 0000 0000 0000 0000
00000030: 0000 0000 0000 0000 0000 0000 0000 0000
00000040: 0000 0000 0000 0000 0000 0000 0000 0000
00000050: 0000 0000 0000 0000 0000 0000 0000 0000
00000060: 0000 0000 0000 0000 0000 0000 0000 0000
00000070: 0000 0000 0000 0000 0000 0000 0000 0000

bn3.running_mean f4 [32]
0.0 0.0 0.0 0.0 0.0 0.0 0.0 0.0
0.0 0.0 0.0 0.0 0.0 0.0 0.0 0.0
0.0 0.0 0.0 0.0 0.0 0.0 0.0 0.0
0.0 0.0 0.0 0.0 0.0 0.0 0.0 0.0
00000000: 0000 0000 0000 0000 0000 0000 0000 0000
00000010: 0000 0000 0000 0000 0000 0000 0000 0000
00000020: 0000 0000 0000 0000 0000 0000 0000 0000
00000030: 0000 0000 0000 0000 0000 0000 0000 0000
00000040: 0000 0000 0000 0000 0000 0000 0000 0000
00000050: 0000 0000 0000 0000 0000 0000 0000 0000
00000060: 0000 0000 0000 0000 0000 0000 0000 0000
00000070: 0000 0000 0000 0000 0000 0000 0000 0000

bn3.running_var f4 [32]
1.0 1.0 1.0 1.0 1.0 1.0 1.0 1.0
1.0 1.0 1.0 1.0 1.0 1.0 1.0 1.0
1.0 1.0 1.0 1.0 1.0 1.0 1.0 1.0
1.0 1.0 1.0 1.0 1.0 1.0 1.0 1.0
00000000: 0000 803f 0000 803f 0000 803f 0000 803f
00000010: 0000 803f 0000 803f 0000 803f 0000 803f
00000020: 0000 803f 0000 803f 0000 803f 0000 803f
00000030: 0000 803f 0000 803f 0000 803f 0000 803f
00000040: 0000 803f 0000 803f 0000 803f 0000 803f
00000050: 0000 803f 0000 803f 0000 803f 0000 803f
00000060: 0000 803f 0000 803f 0000 803f 0000 803f
00000070: 0000 803f 0000 803f 0000 803f 0000 803f

shared_layers.0.weight f4 [128, 128]
0.022045398 -0.14577019 0.061985243 0.01942134 0.15006983 -0.05840424 -0.1100955 -0.035016324
-0.13797633 -0.091934 0.070257805 0.07725198 -0.13463739 0.12252852 -0.14061311 -0.13027969
0.014864158 -0.09220969 -0.12553576 -0.06558933 -0.14385134 0.08714482 0.098942995 0.121926725
0.058763914 0.1245494 0.037368786 0.14737226 -0.053174466 0.041989222 -0.013601798 -0.12642483
0.054653328 -0.04909405 0.08384556 0.083022885 0.15056638 -0.104724504 0.116266124 -0.14309393
0.095788956 0.07083527 -0.118716985 0.04341472 -0.041185524 0.010189134 0.031560518 0.017396636
0.14949092 -0.077731065 -0.01844735 -0.01579141 0.11149344 -0.12725228 0.045392103 -0.0755847
-0.14621647 -0.024749173 -0.15307093 0.11963593 0.0070746415 0.05453162 0.07580962 0.110965066
0.08413859 0.14194424 0.14968297 0.06387937 0.09470326 0.0030146646 0.096854106 0.14437371
0.049587987 0.118084125 0.064206995 0.07476715 -0.12445455 -0.052127823 0.011740504 -0.13998243
0.0028601226 0.0486999 -0.15231375 0.03177576 0.15253282 0.0041308785 -0.07764403 -0.10279739
-0.09339394 0.017345846 -0.058347426 -0.0659718 -0.11533509 -0.08363468 0.08197093 0.07928477
0.09134326 0.007496475 -0.14346963 -0.12668681 -0.1139444 -0.11770907 -0.0039276816 0.14227478
-0.08962134 0.076630235 -0.093564905 -0.05075262 -0.057204038 -0.08640703 0.0374971 -0.063729115
-0.015490538 -0.040341455 -0.08028632 0.00932072 -0.131461 -0.023960494 -0.103680305 -0.09153847
-0.15230453 -0.09142371 0.06733094 -0.1473332 0.10488779 0.04743977 -0.1341384 0.025936544
-0.11667963 0.0111153275 0.009841707 -0.07281041 0.12486262 0.081134014 -0.08490011 -0.009419672
-0.039452292 -0.089411 0.07920985 -0.13621087 0.12127388 -0.11169689 -0.004970183 0.06699185
-0.027350435 0.021877004 0.094144896 0.06816858 -0.05369443 0.032656897 -0.11671668 0.062253866
0.083155036 0.021344064 0.13758734 0.09001309 -0.040026184 0.07877276 0.101835735 -0.108904846
0.12455951 0.13416678 0.021440955 -0.093070984 0.02019228 -0.0744035 0.13683623 0.09906797
0.065188706 0.050728183 -0.14155602 -0.13534546 -0.03265808 -0.031679016 0.06848668 0.034707732
-0.07789404 0.024184952 0.022102375 -0.08894954 -0.094027214 0.08887209 -0.15085311 0.026689725
-0.13008939 -0.06211062 -0.052498665 -0.12750512 0.06993518 -0.11174197 -0.13943222 -0.027073087
0.0033597196 -0.051923312 0.09232818 -0.1472805 -0.09213408 -0.07889741 -0.05510624 0.071090445
-0.0034253472 -0.122796856 0.10779582 0.049270984 -0.014029379 0.018247183 -0.09913183 -0.011451805
0.07643671 -0.044004127 -0.01095699 0.05329614 0.069176316 0.075993925 0.12472903 -0.15233953
0.020900533 -0.029651556 0.034072157 -0.027417285 0.028052516 -0.10237637 0.119081736 -0.14112301
0.13526113 0.084021404 0.07418284 -0.06490829 0.11722812 -0.08308726 0.104384035 -0.11305897
-0.0009665082 0.11614111 -0.11372202 0.0716954 0.011472628 0.13008322 0.023914503 -0.0023341724
0.119182564 0.05127333 0.14737636 0.10885581 -0.13352835 0.12654997 0.0867938 -0.02662034
0.14977336 -0.09323105 0.11430785 0.13160387 -0.108870186 0.07253363 -0.03892335 -0.06710099
00000000: 8d98 b43c c844 15be 3de4 7d3d 8119 9f3c
00000010: e8ab 193e 4939 6fbd c079 e1bd 476d 0fbd
00000020: ab49 0dbe e547 bcbd 53e3 8f3d 4936 9e3d
00000030: 62de 09be 3cf0 fa3d e2fc 0fbe 0a68 05be
00000040: cc88 733c 6fd8 bcbd 728c 00be b353 86bd
00000050: c44d 13be fc78 b23d a0a2 ca3d b8b4 f93d
00000060: 6eb2 703d c113 ff3d 0310 193d c1e8 163e
00000070: 78cd 59bd e4fc 2b3d 13da 5ebc 8375 01be
00000080: 2bdc 5f3d d816 49bd 39b7 ab3d e707 aa3d
00000090: 132e 1a3e cd79 d6bd ef1c ee3d 3787 12be
000000a0: 002d c43d 1512 913d e421 f3bd a2d3 313d
000000b0: 27b2 28bd 53f0 263c 9a45 013d 6483 8e3c
000000c0: 2614 193e 7731 9fbd e61e 97bc fd5c 81bc
000000d0: ac56 e43d 6c4e 02be 12ed 393d 27cc 9abd
000000e0: c5b9 15be c7be cabc a0be 1cbe af03 f53d
000000f0: 65d2 e73b 8c5c 5f3d 1342 9b3d a741 e33d
00000100: da50 ac3d d559 113e 7e46 193e 30d3 823d
00000110: c8f3 c13d ae91 453b 725b c63d b4d6 133e
00000120: c61c 4b3d 17d6 f13d f57e 833d 851f 993d
00000130: 07e2 febd fc83 55bd 3e5b 403c 8e57 0fbe
00000140: e570 3b3b 8c79 473d 23f8 1bbe 4d27 023d
00000150: 9031 1c3e 525c 873b d503 9fbd 7087 d2bd
00000160: 5245 bfbd e018 8e3c b6fd 6ebd 391c 87bd
00000170: ce34 ecbd a948 abbd 60e0 a73d 0e60 a23d
00000180: 2d12 bb3d fda4 f53b b4e9 12be 30ba 01be
00000190: ae5b e9bd 7411 f1bd c8b3 80bb 7bb0 113e
000001a0: 658b b7bd 50f0 9c3d f59e bfbd fbe1 4fbd
000001b0: c84e 6abd 2bf6 b0bd 8f96 193d 6984 82bd
000001c0: 07cc 7dbc 153d 25bd 276d a4bd efb5 183c
000001d0: b69d 06be cc48 c4bc 5756 d4bd 8578 bbbd
000001e0: b8f5 1bbe 5b3c bbbd cee4 893d 84de 16be
000001f0: 69cf d63d 3450 423d 945b 09be e078 d43c
00000200: bbf5 eebd 101d 363c 1c3f 213c a01d 95bd
00000210: f9b7 ff3d 9729 a63d 1ce0 adbd f854 1abc
00000220: ba98 21bd 1d1d b7bd c638 a23d dd7a 0bbe
00000230: 715e f83d 57c1 e4bd ebdc a2bb 0633 893d
00000240: 050e e0bc 6737 b33c 0acf c03d f89b 8b3d
00000250: b1ee 5bbd 3dc3 053d 2809 efbd e9fd 7e3d
00000260: 304d aa3d bfd9 ae3c b2e3 0c3e c858 b83d
00000270: 7ff2 23bd 9d53 a13d 418f d03d 8109 dfbd
00000280: 0e19 ff3d 0463 093e f1a4 af3c 009c bebd
00000290: 486a a53c dd60 98bd cc1e 0c3e 26e4 ca3d
000002a0: a881 853d 5bc8 4f3d 10f4 10be 0098 0abe
000002b0: 7bc4 05bd dbc1 01bd bf42 8c3d b229 0e3d
000002c0: e986 9fbd 851f c63c 0a10 b53c 2d2b b6bd
000002d0: 5791 c0bd 9202 b63d 3d79 1abe 69a4 da3c
000002e0: 2736 05be b567 7ebd d708 57bd b490 02be
000002f0: 2d3a 8f3d f9d8 e4bd 52c7 0ebe 61c8 ddbc
00000300: be2e 5c3b 8aad 54bd 8f16 bd3d b3d0 16be
00000310: cbb0 bcbd f794 a1bd 15b7 61bd de97 913d
00000320: ca7b 60bb eb7c fbbd 0ec4 dc3d 5fd0 493d
00000330: 7bdb 65bc 1e7b 953c a105 cbbd 5aa0 3bbc
00000340: da8a 9c3d ac3d 34bd f284 33bc 0e4d 5a3d
00000350: 50ac 8d3d b4a2 9b3d ef71 ff3d e5fe 1bbe
00000360: 9837 ab3c d2e7 f2bc 3f8f 0b3d 379a e0bc
00000370: 64ce e53c b4aa d1bd 20e1 f33d 8d82 10be
00000380: e581 0a3e 6a13 ac3d 2ced 973d a3ee 84bd
00000390: 4c15 f03d a729 aabd 4cc7 d53d 768b e7bd
000003a0: 445d 7dba 64db ed3d 17e7 e8bd 0ad5 923d
000003b0: b1f7 3b3c 8934 053e 59e8 c33c eaf8 18bb
000003c0: fd15 f43d fc03 523d d4e9 163e cbef de3d
000003d0: a8bb 08be 5196 013e f3c0 b13d e612 dabc
000003e0: 305e 193e ecef bebd 3c1a ea3d 2ac3 063e
000003f0: 55f7 debd 838c 943d 176e 1fbd 3e6c 89bd

shared_layers.0.bias f4 [128]
0.056833696 0.05065616 -0.06441219 0.01983026 -0.08255921 0.052801203 -0.047793902 -0.025875162
-0.07121589 0.07881027 0.08727433 0.02247625 0.0068197814 0.0067491434 0.05034757 0.053535484
-0.02602964 0.014172679 -0.01751014 0.061384503 0.027259339 -0.05169612 -0.048481878 0.0395808
0.03292949 -0.026536478 -0.013876059 -0.024727082 -0.047137942 0.023346603 0.06265862 -0.036057744
0.027812747 -0.05073276 0.035355274 0.016929884 0.022494437 -0.019927535 0.08285741 -0.060334403
0.020032544 -0.08203491 0.07074332 0.027071299 -0.005930641 0.08809891 -0.04961885 0.072232164
0.00916655 0.039726198 0.035267122 -0.03922108 0.012188183 -0.05385302 -0.04034054 0.05349352
0.042137638 -0.08810407 0.035067875 0.062217966 0.0063915905 -0.02047004 0.011318652 0.0017741505
-0.030221028 0.03685218 0.06218995 0.075846836 -0.05883016 -0.020811776 0.086838245 0.038951527
-0.05221297 0.0020779343 0.04391139 -0.03726955 -0.077500194 0.034244556 -0.05800225 -0.04663434
0.03847886 -0.0027835253 -0.017484315 0.016008269 -0.053145383 -0.049487427 -0.004192621 0.073653
0.058308363 0.024152398 -0.00851026 -0.0166701 -0.0048898244 0.014372686 0.017162913 -0.084300965
0.04885926 0.0013072055 0.04552127 0.084717885 0.076088876 0.042554006 0.0017544574 -0.071327716
0.08701628 0.018287633 0.0486879 0.027676707 0.058845524 -0.06044919 -0.058822017 0.002973481
-0.084336355 0.0011736738 -0.07464159 -0.03022067 -0.07429011 -0.025619667 0.058198843 -0.016836759
0.023006784 -0.005022018 -0.017600082 -0.073811024 -0.06190313 -0.061646815 0.0417694 0.0071059796
00000000: 73ca 683d d57c 4f3d 8aea 83bd 1273 a23c
00000010: ce14 a9bd 1346 583d 8ac3 43bd 26f8 d3bc
00000020: a3d9 91bd 4767 a13d e2bc b23d 1d20 b83c
00000030: 7978 df3b eb27 dd3b 4139 4e3d 0648 5b3d
00000040: 1d3c d5bc 8634 683c 6d71 8fbc 516e 7b3d
00000050: fa4e df3c 50bf 53bd ef94 46bd 7a1f 223d
00000060: 13e1 063d 0763 d9bc 6958 63bc 7390 cabc
00000070: b713 41bd 6041 bf3c 2a53 803d 49b1 13bd
00000080: 8fd7 e33c 28cd 4fbd b1d0 103d 8ab0 8a3c
00000090: 4146 b83c 123f a3bc 25b1 a93d 3521 77bd
000000a0: 4a1b a43c eb01 a8bd e0e1 903d a1c4 dd3c
000000b0: d355 c2bb 346d b43d 233d 4bbd 75ee 933d
000000c0: 4c2f 163c f0b7 223d 4274 103d 48a6 20bd
000000d0: f2b0 473c fc94 5cbd 1f3c 25bd 051c 5b3d
000000e0: 8498 2c3d e86f b4bd 55a3 0f3d 44d8 7e3d
000000f0: 8c70 d13b c9b0 a7bc de71 393c 9d8a e83a
00000100: 1792 f7bc 50f2 163d e4ba 7e3d 9655 9b3d
00000110: e5f7 70bd 757d aabc 40d8 b13d a38b 1f3d
00000120: 44dd 55bd f42d 083b 6edc 333d f5a7 18bd
00000130: 6cb8 9ebd 0544 0c3d c493 6dbd a603 3fbd
00000140: 029c 1d3d ce6b 36bb 443b 8fbc c623 833c
00000150: f9ae 59bd 54b3 4abd 4162 89bb 62d7 963d
00000160: c0d4 6e3d 40db c53c 9e6e 0bbc bc8f 88bc
00000170: d23a a0bb 6a7b 6b3c 3d99 8c3c fca5 acbd
00000180: a620 483d 8a56 ab3a 8374 3a3d 9280 ad3d
00000190: 7cd4 9b3d 1c4d 2e3d d2f5 e53a 4414 92bd
000001a0: 9735 b23d f2cf 953c f76c 473d 43ba e23c
000001b0: 0108 713d 9299 77bd 5bef 70bd bcde 423b
000001c0: 8ab8 acbd f5d5 993a b1dd 98bd 5791 f7bc
000001d0: 6a25 98bd 56e0 d1bc e961 6e3d 3eed 89bc
000001e0: b978 bc3c be8f a4bb 0c2e 90bc 3c2a 97bd
000001f0: 238e 7dbd 5f81 7cbd 6416 2b3d 47d9 e83b

shared_layers.1.weight f4 [64, 128]
0.047579177 0.13483016 -0.1534563 0.022272227 0.0045549786 -0.13827401 -0.097967796 0.15849602
-0.09802134 -0.028506083 0.061934035 -0.10629125 -0.14377864 -0.15374835 0.17633724 0.10758242
-0.02969591 -0.13399962 0.15251796 0.03015607 0.15476826 0.09986396 0.07808618 0.02982686
0.1752789 -0.03803298 -0.12914416 0.031654686 -0.025782723 -0.06121621 -0.049733512 0.07382379
0.17360061 0.013870612 -0.13372096 0.016233891 -0.13543694 0.14610009 0.1691592 -0.006747921
0.05170666 0.11334048 0.1143052 -0.067742035 -0.050601672 0.14065197 0.048476674 0.14797385
0.039725237 0.16764317 0.07117161 0.07301921 0.16549724 -0.06036649 -0.08176925 0.013360087
-0.10069141 -0.09102758 0.091766015 0.13777733 0.02044004 0.08902183 0.0342994 0.12816557
0.15496601 -0.11181259 0.10458766 0.1461188 0.08710727 -0.1440931 -0.1414509 0.08840463
-0.06817638 -0.040964693 0.16687812 0.057120737 -0.05524851 0.059288394 0.16781105 -0.14387168
0.06828504 0.11674875 0.13586591 0.0067566875 -0.10770665 0.031400792 -0.06262461 -0.053304255
-0.17574395 0.17201157 0.011364307 0.12434041 -0.10927447 0.098550014 -0.14927126 -0.010331962
0.09010166 0.06415749 0.13222846 -0.03836851 -0.062180553 0.10300787 -0.05085447 -0.16307046
-0.06953486 -0.08549975 -0.059117362 -0.086754315 0.07317093 -0.0948177 -0.032139964 0.068242975
-0.17446947 0.16822107 -0.059201315 0.07241425 -0.11905631 0.014031507 -0.17587814 0.112902656
0.03271055 0.07723355 -0.17496075 0.12603572 0.0790175 0.15813072 0.022262977 -0.10537553
0.06568108 -0.10455904 -0.17253311 -0.08183034 -0.13964783 0.09968052 0.074559204 -0.05826964
-0.056028903 0.15768643 0.029537944 -0.051767413 -0.1509315 -0.088367544 0.05474336 -0.16058642
-0.12690146 -0.14171894 0.13808161 0.004880921 0.082218386 -0.044648074 -0.1273744 0.14531252
0.12944251 -0.012594932 0.006731568 -0.108760886 0.023333907 0.17357191 -0.055029284 -0.0070527904
0.09587995 0.005315687 0.09460343 -0.17089303 0.048719227 -0.022289276 -0.058108766 -0.030181631
-0.16114655 0.008853683 0.13111684 0.061953947 -0.15162264 0.14217927 -0.11531833 -0.10956429
-0.00676832 0.14242613 -0.11023253 0.058418922 -0.10236605 0.0772742 -0.1591342 -0.1598465
0.15791091 -0.02388053 -0.039701045 0.12028894 0.17201284 0.15608925 0.09753665 -0.1721048
0.10219785 0.097549595 0.011604587 -0.0731849 0.09867534 -0.025306443 -0.1287681 -0.08487052
-0.052097443 0.025332637 0.13962314 0.08065722 -0.087007195 0.14722678 -0.107867755 -0.062161583
0.100194775 0.15990523 0.090501234 -0.11294599 -0.13661665 0.024030067 0.011436842 -0.13665567
0.1314409 -0.11476444 0.020619523 -0.09869502 0.10218162 0.06439543 0.14293902 0.030085495
-0.043331113 -0.08349636 -0.017544026 -0.05065046 0.16289076 -0.13421918 -0.020043164 -0.069624715
0.0377747 0.13931617 0.17233351 -0.03928691 -0.05619711 -0.1520202 -0.056131404 0.16463165
-0.111444 -0.13092269 0.061770253 -0.15532386 0.027874302 -0.072765835 -0.0111979535 -0.15833806
0.1700795 -0.14413582 -0.040045362 -0.026665004 0.0126098525 0.05140727 0.067581564 -0.0782923
00000000: 62e2 423d eb10 0a3e a623 1dbe 3f74 b63c
00000010: ee41 953b b497 0dbe 57a3 c8bd c84c 223e
00000020: 6abf c8bd 9785 e9bc 8bae 7d3d 3aaf d9bd
00000030: b53a 13be 3570 1dbe c091 343e 2c54 dc3d
00000040: d644 f3bc 3237 09be ab2d 1c3e dd09 f73c
00000050: 927b 1e3e 7a85 cc3d a6eb 9f3d 7657 f43c
00000060: 507c 333e 78c8 1bbd 5e3e 04be 58a8 013d
00000070: 4a36 d3bc d9bd 7abd 5eb5 4bbd ed30 973d
00000080: 5cc4 313e 9041 633c 26ee 08be f0fc 843c
00000090: fbaf 0abe 439b 153e 1238 2d3e aa1d ddbb
000000a0: 5dca 533d 0e1f e83d d818 ea3d 56bc 8abd
000000b0: b343 4fbd 1207 103e 7a8f 463d 7586 173e
000000c0: eeb6 223d a7aa 2b3e 6cc2 913d 188b 953d
000000d0: 1c78 293e da42 77bd a376 a7bd 44e4 5a3c
000000e0: 4c37 cebd ab6c babd d2ef bb3d 8015 0d3e
000000f0: df71 a73c 1451 b63d 877d 0c3d d63d 033e
00000100: 69af 1e3e 00fe e4bd 0e32 d63d 2ba0 153e
00000110: 4c65 b23d 248d 13be 81d8 10be 7d0d b53d
00000120: 0fa0 8bbd 98ca 27bd 19e2 2a3e 6ff7 693d
00000130: 434c 62bd 63d8 723d a9d6 2b3e 1953 13be
00000140: 07d9 8b3d f819 ef3d 6f20 0b3e 3467 dd3b
00000150: 4e95 dcbd 1e9e 003d 5541 80bd 9055 5abd
00000160: 39f6 33be cd23 303e 5c31 3a3c 2fa6 fe3d
00000170: 4bcb dfbd 97d4 c93d 91da 18be 6447 29bc
00000180: 3887 b83d 0165 833d e666 073e 4c28 1dbd
00000190: 09b1 7ebd caf5 d23d c74c 50bd f1fb 26be
000001a0: 4b68 8ebd 7e1a afbd 0c25 72bd 3fac b1bd
000001b0: a4da 953d c82f c2bd 32a5 03bd f9c2 8b3d
000001c0: 20a8 32be 2542 2c3e 147d 72bd ec4d 943d
000001d0: cbd3 f3bd 68e4 653c 6619 34be 8239 e73d
000001e0: 7ffb 053d a02c 9e3d e928 33be 820f 013e
000001f0: edd3 a13d 05ed 213e d960 b63c 20cf d7bd
00000200: cd83 863d 0d23 d6bd 85ac 30be aa96 a7bd
00000210: d7ff 0ebe 4d25 cc3d 7fb2 983d 25ac 6ebd
00000220: 907e 65bd 8d78 213e 8ff9 f13c 110a 54bd
00000230: ca8d 1abe 0bfa b4bd 933a 603d c470 24be
00000240: 75f2 01be c51e 11be 4465 0d3e 22f0 9f3b
00000250: 1d62 a83d e6e0 36bd 6f6e 02be cecc 143e
00000260: 948c 043e f95a 4ebc 7c94 dc3b 07be debd
00000270: c026 bf3c d6bc 313e 6366 61bd 181b e7bb
00000280: b55c c43d 372f ae3b 71bf c13d 95fe 2ebe
00000290: d08d 473d 0098 b6bc 7503 6ebd 783f f7bc
000002a0: 9a03 25be 0a0f 113c 7e43 063e 6cc3 7d3d
000002b0: f742 1bbe 7197 113e 042c ecbd 3e63 e0bd
000002c0: c9c8 ddbb 28d8 113e 98c1 e1bd ae48 6f3d
000002d0: 4ba5 d1bd f041 9e3d 13f4 22be cdae 23be
000002e0: 66b3 213e 1aa1 c3bc 909d 22bd 0c5a f63d
000002f0: 2224 303e dcd5 1f3e 4cc1 c73d 3e3c 30be
00000300: 1b4d d13d 15c8 c73d 2a21 3e3c f7e1 95bd
00000310: 4c16 ca3d 754f cfbc c9db 03be 98d0 adbd
00000320: 2164 55bd 6486 cf3c 5ef9 0e3e 9d2f a53d
00000330: d430 b2bd 9ec2 163e c5e9 dcbd 259d 7ebd
00000340: eb32 cd3d 32be 233e b658 b93d 3a50 e7bd
00000350: 3ce5 0bbe b4da c43c 9861 3b3c 77ef 0bbe
00000360: 7198 063e 9e09 ebbd 46ea a83c 9d20 cabd
00000370: 9944 d13d c0e1 833d 9b5e 123e db75 f63c
00000380: f77b 31bd 2400 abbd 7db8 8fbc db76 4fbd
00000390: d6cc 263e c170 09be 9031 a4bc 6797 8ebd
000003a0: a5b9 1a3d e6a8 0e3e 3278 303e 50eb 20bd
000003b0: f12e 66bd 2fab 1bbe 0bea 65bd 3395 283e
000003c0: c03c e4bd 9910 06be ce02 7d3d 380d 1fbe
000003d0: a658 e43c 4106 95bd 9f77 37bc 5f23 22be
000003e0: 5229 2e3e 5798 13be 9b06 24bd 9170 dabc
000003f0: 8e99 4e3c 6e90 523d 3468 8a3d b757 a0bd

shared_layers.1.bias f4 [64]
0.03975316 -0.077381335 -0.078099445 -0.052637313 -0.04314499 0.01260255 -0.07580426 0.027144529
0.024913264 0.046867453 0.048013132 -0.006234372 0.042296976 0.05608812 0.008275323 -0.04129443
-0.040894106 -0.008216223 -0.026861766 0.076947354 -0.008150336 0.07890688 -0.008088538 -0.0112694455
-0.019074757 -0.0716849 0.071484216 0.013249683 -0.041142814 0.042383704 0.019456703 0.08796219
0.058342766 -0.04273077 -0.074896656 0.024110315 0.05208522 -0.01132078 -0.009760704 -0.08187996
0.0426982 -0.020639027 0.05705739 -0.051924918 0.025306085 0.020457268 0.08702628 0.013001449
0.051423315 0.07255757 0.08201315 -0.009512786 0.022572018 -0.086574644 0.019563219 -0.0763257
-0.073396206 0.08542834 0.084298395 -0.025083896 0.08176223 0.046521857 -0.053134024 -0.00760268
00000000: 36d4 223d 1b7a 9ebd 9af2 9fbd 399a 57bd
00000010: cdb8 30bd ed7a 4e3c 443f 9bbd 345e de3c
00000020: e716 cc3c 16f8 3f3d 6ba9 443d b449 ccbb
00000030: 983f 2d3d a8bc 653d 3895 073c 5924 29bd
00000040: 9480 27bd 569d 06bc 350d dcbc 9396 9d3d
00000050: fd88 05bc ee99 a13d ca85 04bc 7ba3 38bc
00000060: aa42 9cbc 88cf 92bd 5166 923d 3315 593c
00000070: 5e85 28bd 899a 2d3d aa63 9f3c 8525 b43d
00000080: d3f8 6e3d 7606 2fbd 6b63 99bd ff82 c53c
00000090: 5057 553d cb7a 39bc 5ceb 1fbc aeb0 a7bd
000000a0: 4fe4 2e3d 2d13 a9bc 03b5 693d 39af 54bd
000000b0: b54e cf3c 0096 a73c d63a b23d 0804 553c
000000c0: 41a1 523d 1099 943d 83f6 a73d 84db 1bbc
000000d0: f4e8 b83c 0c4e b1bd 0b43 a03c a650 9cbd
000000e0: c050 96bd 0ef5 ae3d a3a4 ac3d be7c cdbc
000000f0: f572 a73d b48d 3e3d 10a3 59bd e71f f9bb

critic_hidden.0.weight f4 [64, 64]
0.08667803 0.21197566 0.12754765 0.06791238 0.07892114 -0.07325333 0.17642109 -0.056046043
0.18024236 0.06840937 -0.18176933 0.10676164 -0.030358117 -0.05089902 0.113670625 -0.18204686
0.2023394 0.20817026 -0.15441547 0.20106156 -0.078368045 -0.12931074 0.018944222 0.01905048
-0.18906362 0.20071238 -0.19639514 -0.15539 -0.13863064 0.052482232 -0.16733742 -0.007311851
0.19181493 -0.09836145 -0.20177796 -0.040740248 0.1487889 0.048713572 -0.1853176 -0.1351316
0.06478093 -0.21280481 -0.045167003 -0.11299338 0.20524922 -0.16277364 -0.007249185 0.018199308
0.020582099 0.14816076 0.059274975 -0.1164371 -0.06550231 0.06283561 0.20498826 -0.000865911
0.2049028 0.055799432 0.14154942 0.11761678 -0.08278767 -0.19301951 0.1743443 0.15794519
-0.11393897 -0.094250605 0.028709041 0.15681857 -0.09868283 -0.20603651 -0.110686526 -0.15690498
0.21333379 -0.21007118 -0.014126351 -0.029884899 0.1253304 -0.0900152 0.10250786 0.06365411
0.2024751 -0.033350118 -0.14733516 -0.019370725 -0.12225504 0.03742475 -0.14073439 -0.11309972
0.0399529 0.19132836 -0.08660145 0.074579455 0.06248463 0.07003194 -0.059142005 0.018451648
0.20955665 -0.12849492 0.08369145 -0.081342414 0.06357808 -0.18810666 -0.13653086 0.16642459
0.063441366 0.13930845 -0.15623832 -0.07247474 0.06086167 -0.009476474 0.067406125 -0.13268632
-0.053901013 0.118267365 -0.15861791 -0.13271853 -0.175613 0.026945783 -0.15669763 -0.20154743
-0.088278815 -0.019414887 0.12300257 -0.093969025 0.057787776 -0.018472424 -0.118357025 0.20549038
0.011385762 -0.059277713 0.081449084 0.18308435 -0.19605498 0.001244718 0.09379744 -0.21238187
-0.1312544 -0.022931568 -0.10947353 -0.08899015 0.0107838055 -0.17905274 0.05140587 -0.08885163
-0.13465543 0.16926405 -0.09924344 -0.045749422 -0.1039038 -0.18311599 0.20307192 -0.056626864
-0.12998661 0.16851129 0.068682976 -0.05631702 0.0021719784 0.117787406 0.003911053 -0.0060809664
-0.05830722 0.10884938 0.039237075 0.15135127 0.14118533 0.13502678 0.058081076 0.13675985
-0.020188399 -0.030298162 0.0378001 0.06710193 0.041769225 -0.007932338 -0.16681965 0.14377485
0.00018329955 0.0702547 -0.108206585 0.11277132 -0.20937322 0.057648897 0.043002095 -0.16537431
-0.10911885 -0.19684283 -0.020061726 0.11550282 0.14312094 -0.0056761177 -0.1272213 0.15147805
0.056935184 0.0912608 0.06293542 0.13319246 -0.17822908 -0.15121976 0.11147509 -0.024896115
0.05907281 -0.051966324 0.123619445 -0.034097742 -0.0658313 -0.16422684 -0.050540294 -0.0942936
0.03994121 0.13643567 -0.17117424 -0.081291005 -0.0008567744 0.14616363 -0.08823633 -0.065988146
-0.15467077 -0.15464672 -0.2002245 0.019823942 -0.09550916 0.14034595 0.0009033865 -0.106246375
0.19123757 -0.1626769 0.0020084747 0.013976216 0.02325966 -0.12258915 -0.15771733 0.11133736
-0.17879534 -0.21187022 -0.20883487 -0.114323094 0.18442787 0.18268089 0.016334694 -0.12871383
0.12706082 -0.089614354 0.052961957 0.06902919 0.12695825 -0.10658012 0.035872307 -0.18141553
0.031291496 -0.09624674 0.15408234 0.16592056 0.18060529 0.18251711 0.0979151 -0.039952952
00000000: 4084 b13d 2610 593e da9b 023e a515 8b3d
00000010: 68a1 a13d d805 96bd bba7 343e 8990 65bd
00000020: 7491 383e 361a 8c3d bd21 3abe d9a5 da3d
00000030: 96b1 f8bc 7e7b 50bd 25cc e83d 7e6a 3abe
00000040: 0f32 4f3e 962a 553e 171f 1ebe 15e3 4d3e
00000050: 6d7f a0bd 096a 04be ea30 9b3c c10f 9c3c
00000060: e599 41be 8c87 4d3e cf1b 49be 8e1e 1fbe
00000070: 31f5 0dbe 9cf7 563d 805a 2bbe 4098 efbb
00000080: 226b 443e ba71 c9bd e29e 4ebe 3fdf 26bd
00000090: 1e5c 183e e287 473d e6c3 3dbe f05f 0abe
000000a0: ddab 843d 81e9 59be 0901 39bd 1369 e7bd
000000b0: da2c 523e 22ae 26be 928a edbb b716 953c
000000c0: ca9b a83c 74b7 173e 51ca 723d 9376 eebd
000000d0: 1326 86bd f5af 803d 71e8 513e 4efe 62ba
000000e0: 0ad2 513e f28d 643d 55f2 103e 11e1 f03d
000000f0: 958c a9bd e8a6 45be 5087 323e 62bc 213e
00000100: d658 e9bd 7606 c1bd 392f eb3c 0c95 203e
00000110: 391a cabd 3cfb 52be 9eaf e2bd b3ab 20be
00000120: 2c74 5a3e e61c 57be 3672 67bc 2dd1 f4bc
00000130: 9d56 003e e459 b8bd a4ef d13d 165d 823d
00000140: a255 4f3e 229a 08bd 07df 16be 5baf 9ebc
00000150: da60 fabd b24a 193d ad1c 10be d3a0 e7bd
00000160: a7a5 233d 95eb 433e 1a5c b1bd 1dbd 983d
00000170: e2ef 7f3d e86c 8f3d e33e 72bd e927 973c
00000180: 0596 563e 2c94 03be 6c66 ab3d da96 a6bd
00000190: 3935 823d 089f 40be bfce 0bbe 356b 2a3e
000001a0: 8ced 813d e0a6 0e3e f0fc 1fbe a36d 94bd
000001b0: 164a 793d 3643 1bbc 390c 8a3d ecde 07be
000001c0: 4fc7 5cbd 2936 f23d bc6c 22be 5ee7 07be
000001d0: e5d3 33be 67bd dc3c 5875 20be 7362 4ebe
000001e0: 86cb b4bd f80b 9fbc c5e8 fb3d d572 c0bd
000001f0: e0b2 6c3d 7b53 97bc 2b65 f2bd 126c 523e
00000200: 598b 3a3c 30cd 72bd c7ce a63d 777a 3b3e
00000210: a3c2 48be ce25 a33a df18 c03d a27a 59be
00000220: 8e67 06be fcda bbbc a833 e0bd 7840 b6bd
00000230: 8fae 303c 9a59 37be f68e 523d d8f7 b5bd
00000240: 1de3 09be 8e53 2d3e 2540 cbbd bf63 3bbd
00000250: 84cb d4bd c282 3bbe 16f2 4f3e 92f1 67bd
00000260: 361b 05be 398e 2c3e a9a9 8c3d adac 66bd
00000270: c057 0e3b 863a f13d 4a28 803b d842 c7bb
00000280: 8dd3 6ebd 6cec de3d 0eb7 203d d4fb 1a3e
00000290: e392 103e 7644 0a3e 6ce6 6d3d c60a 0c3e
000002a0: 2462 a5bc da33 f8bc 47d4 1a3d bd6c 893d
000002b0: 3516 2b3d a3f6 01bc c5d2 2abe b739 133e
000002c0: 1934 4039 b2e1 8f3d 6a9b ddbd a6f4 e63d
000002d0: ef65 56be 4021 6c3d f722 303d e257 29be
000002e0: b479 dfbd 2b91 49be 7d58 a4bc be8c ec3d
000002f0: 4c8e 123e bafe b9bb 4d46 02be 101d 1b3e
00000300: de34 693d f1e6 ba3d 49e4 803d 9b63 083e
00000310: af81 36be 5ad9 1abe 0d4d e43d f0f2 cbbc
00000320: 55f6 713d a4da 54bd 312c fd3d 13aa 0bbd
00000330: 90d2 86bd 152b 28be 5703 4fbd 011d c1bd
00000340: 6599 233d cbb5 0b3e 4d48 2fbe e67b a6bd
00000350: 2899 60ba ebab 153e 40b5 b4bd cb24 87bd
00000360: 0462 1ebe b65b 1ebe a707 4dbe d265 a23c
00000370: 4e9a c3bd d9b6 0f3e 3ed1 6c3a b397 d9bd
00000380: c8d3 433e c694 26be 9da0 033b 80fc 643c
00000390: 0b8b be3c 0510 fbbd a780 21be d804 e43d
000003a0: 2016 37be 82f4 58be cfd8 55be 3a22 eabd
000003b0: a9da 3c3e b310 3b3e 56d0 853c 8fcd 03be
000003c0: 3b1c 023e bb87 b7bd a3ee 583d 2d5f 8d3d
000003d0: 5801 023e ae46 dabd d7ee 123d fec4 39be
000003e0: 832b 003d 031d c5bd c3c7 1d3e 14e7 293e
000003f0: 98f0 383e c4e5 3a3e b687 c83d b5a5 23bd
