policy_ppo.pt (torch, 910129 bytes, 76 tensors)

sigma f4 [3]
00000000: 0000 0000 0000 0000 0000 0000
0.0 0.0 0.0

conv1.weight f4 [16, 3, 5, 5]
00000000: 2eb8 193b cc61 823d f43c b6bd 8747 a2bd
00000010: c748 cbbc f250 243d d6c1 733b a330 d23d
00000020: 037a 10bc eb26 123d 3413 cebc a464 29bb
00000030: 1165 c4bd ab81 a6bd b14e 59bd 00da 073c
00000040: ba46 4c3d b68a 953d 6e3f a5bd 14a9 6dbd
00000050: 5fd1 453d ad30 d63d 13a1 8bbc fa32 bb3d
00000060: 1ef3 a2bc 254f 543c a798 c83d c0d4 edbd
00000070: f36b 91bd 304f a4bb 88e8 44bd 2382 bf3d
00000080: 6653 9abd e73a 56bd 8f3b 6ebd 4f39 d0bd
00000090: f593 65bd c6d3 e23d cfe2 4f3d 3ec3 523d
000000a0: 674b 653c 3ffa 60bd 9838 b23c c895 e8bd
000000b0: b67c d0bd 0062 4cbd 9c7d 913d c018 7b3d
000000c0: 5c0e 57bd e7da 03bc 032b 713d 0bc0 dc3d
000000d0: 27a0 3b3d c612 773c 3eba a73d 25fd b3bd
000000e0: dbad d63b 37fb bebd c0ce babd 918b 53bd
000000f0: 24cb 313d 3697 203d d17e 9ebd 54ce a73c
00000100: b025 7c3d 202d e8bc 7a8f 3abc df7d 9b3c
00000110: acb3 873d ce80 e83d 9a16 d8bd c5ba 72bd
00000120: b94c 163d ec0e ca3d 20c9 c63d f9cc d73d
00000130: 5903 9d3c 509b cfbd afd7 0a3c 44be 90bd
00000140: 5869 debd 3f55 bc3d 306d 8d3d 89b2 fbbd
00000150: 7665 a83c 2a6a a1bc c78a b2bc 3672 86bd
00000160: ffab 123d 853d 9abd 5521 153d e3cb 4d3d
00000170: 8e7c 9b3d 20d6 153d f846 01be c944 a6bd
00000180: 91f9 503d 9c9c 943c 8542 bdbd ee79 a5bd
00000190: 787d d93d e215 7f3d e850 5ebd 7187 08bd
000001a0: a35e e6bd 169a 163b 7bf9 c6bd 08af c3bd
000001b0: 4eb5 d2bb eaf8 893c efe1 1fbd 28f2 9d3d
000001c0: 388a 90bd 4964 dc3d 2b2d b53d 0fe5 b8bd
000001d0: 98e9 a1bc 689e 233c 5114 cd3c 59c3 233d
000001e0: 44fd 523d c35c 7e3c c610 28bd 1352 8a3d
000001f0: 779a c5bd 7bf3 68bd 046e 05bd 7b10 57bd
00000200: d62a 1fbd 3fae b2bd 1894 86bc 370f c43c
00000210: 6634 90bd 8d58 903a b33a ab3d 12b1 f5bb
00000220: e68b 073c 427d 90bb 532c fe3c 67af a93d
00000230: ceaa e93d 4ca1 993d ffc7 e93d d6bd f6bb
00000240: 8b42 c9bd 69f8 5fbd 0c9f 993d 2223 3e3a
00000250: bc81 81bd e5e5 c1bd d15e cdbd ec58 bfbd
00000260: 3f7e 5ebc 08b6 8c3d ddcb 803d e04d d9bd
00000270: 1fd8 8e3d b910 b6bd fafe 98bc 9659 46bd
00000280: 5c70 83bc d56f c4bc 04c8 e2bd 5736 c0bd
00000290: ec4c 86bc 211b da3b 6d7d 3cbd 4be4 553d
000002a0: de52 c4bd b40c 74ba cc0d d13d 47b4 19bd
000002b0: 7b38 e73d da88 533d e436 c5bd 2777 b13d
000002c0: ab5b fdba ecaf 28bd de4d b63d 3f6b e3bd
000002d0: 217d 963c 40f7 bbbc cc60 a13d 7d4e f73c
000002e0: 7fd3 413d af17 693d 7cc8 d3bc bb3c 08bd
000002f0: 466e cfbd 6bee 603d 29f5 be3d f3ed a33d
00000300: 4f19 b3bd 57c5 593b 6f24 a5bd 3fcf 8abd
00000310: 6893 68bd fc51 2f3d de78 79bd 2aee 673c
00000320: 26b6 903c f411 a93d c752 9dbd 2081 a1bd
00000330: 38db 97bd 1dfd c13d 6978 0ebd f195 ca3d
00000340: 6511 4a3d 8f6a 563c ecc8 413c a53f 98bc
00000350: 039b 893c 4fb1 47bc 49fe e7b8 ed2b b03c
00000360: 6339 b8bd d99c 75bd b4b8 ce3d 1f6c c8bd
00000370: 0561 96ba 347f f83d 53f3 1b3d f388 643c
00000380: 6d4c babd cfbc 663d 4bf5 b2bd a4b0 42bd
00000390: d491 47bd 4a4d 7ebc e16a 7cbb 371a c53d
000003a0: b5b4 4c3c 3739 bb3d 0671 8e3d bdf7 92bd
000003b0: 793b 603d f9ff 9cbd 6fec 5dbd 2c5b 1c3d
000003c0: c943 3f3d d41c b93d 1e81 0bbd 8fff 873b
000003d0: c40e 8a3d d2b7 ddbd 6239 ae3d d364 bfbd
000003e0: 647e e93b c2f3 78bc f3a3 5ebd 74d9 aa3c
000003f0: bf52 ac3d 292e 31bd 7d38 96bd 7303 f1bc
0.0023455727 0.063663095 -0.08898345 -0.07923799 -0.024814976 0.040116258 0.0037194393 0.10263183
-0.008818152 0.035681646 -0.025155641 -0.002584734 -0.095895894 -0.08130201 -0.05305356 0.008291721
0.049872138 0.07301848 -0.08068739 -0.058022574 0.048295375 0.10458503 -0.01704458 0.091405824
-0.019891318 0.012958323 0.09794741 -0.116128445 -0.07100668 -0.0050143227 -0.04807332 0.093509935
-0.07535438 -0.052302267 -0.05816227 -0.10167181 -0.056049306 0.11075549 0.05075341 0.05145573
0.013995028 -0.054926153 0.021755502 -0.113566935 -0.10180037 -0.049898148 0.07104036 0.0613029
-0.05250393 -0.008047796 0.05887891 0.10778817 0.04580703 0.0150801595 0.0818982 -0.08788518
0.006551487 -0.09325259 -0.09121466 -0.051646773 0.04340662 0.039206706 -0.07739032 0.020484127
0.06155938 -0.02834183 -0.011386747 0.018980918 0.066260666 0.113526925 -0.10551186 -0.05926015
0.036694262 0.09866127 0.0970633 0.10537142 0.019166635 -0.101370454 0.008474275 -0.0706754
-0.108599365 0.09195947 0.069055915 -0.12289912 0.020556193 -0.019703943 -0.02179469 -0.06564753
0.03580856 -0.07531265 0.03640874 0.05024327 0.07592116 0.03658116 -0.12624729 -0.081185885
0.051019255 0.018141083 -0.09241203 -0.08079897 0.106196344 0.06227673 -0.054276377 -0.033332292
-0.11248519 0.0022980026 -0.097155534 -0.09554869 -0.0064303046 0.016842324 -0.039033826 0.07712203
-0.07057613 0.107613154 0.08846506 -0.090280645 -0.019764706 0.009986497 0.025034102 0.03998122
0.051511064 0.015525046 -0.04103162 0.06753936 -0.096486025 -0.056872826 -0.032575622 -0.05250595
-0.03885921 -0.08724641 -0.016428038 0.023933036 -0.07041244 0.0011012718 0.08360805 -0.007497915
0.0082731005 -0.004409463 0.031026995 0.082854085 0.114095315 0.07501468 0.11415099 -0.0075299544
-0.09827145 -0.05468026 0.07501039 0.000725316 -0.06323573 -0.09467677 -0.100278504 -0.093431324
-0.013579904 0.06870657 0.06288884 -0.106105566 0.069748156 -0.08889908 -0.01867627 -0.04842528
-0.016044788 -0.023979107 -0.11073306 -0.093853645 -0.016394101 0.006656066 -0.046018053 0.05221967
-0.09586118 -0.0009309754 0.1020771 -0.03752544 0.1129007 0.051644184 -0.0962961 0.08665305
-0.0019329687 -0.041183397 0.08901571 -0.1110444 0.018370213 -0.022945046 0.07879791 0.030188793
0.04732084 0.056907352 -0.025852434 -0.033261042 -0.10128455 0.054914873 0.09324104 0.080043696
-0.087450616 0.0033229196 -0.0806359 -0.0677781 -0.056781203 0.042802796 -0.060906284 0.014155904
0.01766498 0.082553774 -0.07681804 -0.07885957 -0.074148595 0.09472106 -0.0347828 0.0989188
0.049332995 0.013086929 0.011827689 -0.018585036 0.016797548 -0.01218827 -0.00011062303 0.02150532
-0.08995321 -0.059964035 0.10093823 -0.097862475 -0.0011473006 0.12133637 0.03807385 0.013948667
-0.09096608 0.056332406 -0.08738192 -0.04753174 -0.048723057 -0.015521357 -0.0038515853 0.09624141
0.012494256 0.09141772 0.06955151 -0.071761586 0.054744218 -0.076660104 -0.05418056 0.038172886
0.046695504 0.09038702 -0.034058683 0.004150338 0.067410976 -0.108260766 0.08507039 -0.093454026
0.0071256626 -0.015194835 -0.054355573 0.020855643 0.0841422 -0.043256912 -0.07334993 -0.02942059

conv1.bias f4 [16]
00000000: bb98 873d a1fc d33d 7aa8 e13d 90e5 dabd
00000010: 2e2f 98bd 6f70 46bd 7fe7 9dbd 4dbb df3d
00000020: 7e94 07bc 415f 9fbd 1b5d 77bd f7e6 54bd
00000030: 71ee 1a3d 2cc0 cfbd 5798 e1bd eada edbd
0.06620928 0.103509195 0.110184625 -0.10688317 -0.07430874 -0.04844707 -0.0771017 0.10924397
-0.008275149 -0.0778184 -0.060391527 -0.051978078 0.03782505 -0.10144076 -0.11015385 -0.1161402

bn1.weight f4 [16]
00000000: b5fb 813f d5a4 7c3f b8aa 803f 752c 803f
00000010: f0bd 823f b856 7e3f bbc7 7d3f fa51 813f
00000020: 0bba 813f abed 7e3f e236 803f 90d2 7d3f
00000030: 92e0 7b3f b620 7f3f e992 7c3f f2b2 803f
1.015494 0.98689014 1.0052099 1.0013567 1.0214214 0.9935107 0.9913289 1.0103142
1.0134901 0.995814 1.0016749 0.9914942 0.9838954 0.9965929 0.9866167 1.005461

bn1.bias f4 [16]
00000000: 0d21 a63b 0995 61bc dd1c 9c3a 2092 e3bb
00000010: c082 373c 7b7f 293c 9dcb 3a3b 4056 153b
00000020: 1119 3b3c 75a2 2c3b 0fe8 56bc 66a1 05bc
00000030: 7e19 64bc 4a68 5bbb bcb1 01bc c3b5 8b3c
0.005069858 -0.013768443 0.0011910457 -0.0069449097 0.011200607 0.010345335 0.002850271 0.0022787005
0.0114195505 0.002634195 -0.0131168505 -0.008156156 -0.013922093 -0.003347891 -0.00791591 0.017054444

bn1.running_mean f4 [16]
00000000: 03d5 733c e3f6 bfbd e0db 95bd c234 4dbe
00000010: 3b8d 843b 8956 483e c778 52bd 4291 e43d
00000020: 5402 dcbd e54d 853d 1b2b ffbb e1cb 2fbb
00000030: 6b7e 193e 0f0b 80be 690e e1be 1cec cebe
0.014882329 -0.09373262 -0.073173285 -0.20039657 0.0040451563 0.1956426 -0.051384714 0.11160518
-0.107426316 0.06508998 -0.007787121 -0.0026824402 0.14989631 -0.25008437 -0.43956307 -0.40414512

bn1.running_var f4 [16]
00000000: c46f 133c fa18 5f3c 61d2 583c c8b0 563b
00000010: 0c68 c43b 848d 2e3d 01d7 893b adb0 5c3c
00000020: 6412 a13b 6742 e43b 6498 5e3b ddbd 673b
00000030: a151 503c cf63 003c 6f19 103d aef5 963c
0.008998815 0.013616795 0.013233752 0.0032759178 0.0059938487 0.04261543 0.0042065387 0.013469857
0.0049155224 0.0069659236 0.0033965344 0.003536097 0.012714774 0.007836296 0.035180505 0.018427696

conv2.weight f4 [32, 16, 5, 5]
00000000: 8579 e73c 0b4e 513d 0e87 e5bc 685f 5f3c
00000010: a597 033d b3a3 833c 91f7 9c3b cfe3 a2bb
00000020: 9fee 81bc 711d a13c 3ea5 47bd 7ed7 c33c
00000030: 0516 123d 1b56 e1bc 45fb 1a3d 0580 613d
00000040: 9ee9 6dbc cca2 04bc 487d 373d 2a91 e9bc
00000050: a2a9 9b3c acaf 4b3c 847b c03c 3aa2 46bd
00000060: f890 0abd 90cc 833c 2783 8c3c d4bd 2cbd
00000070: da75 08bd 3047 38bd 26fc 46bd 3904 debc
00000080: 9832 783d 50d1 9ebc 6295 023d 8504 1a3d
00000090: c172 5a3c bc5c 50bd c8b7 ce3c a3c9 2e3c
000000a0: 5d7d 4c3d 0673 81bd 3905 133d a205 243d
000000b0: bb36 36bd da1f d53b 5b03 063d 65a0 52bd
000000c0: 7eea 303c 3e72 483c 8f3c 123c 68bf 673d
000000d0: 70d4 543d ee07 213d e2e1 60bb b6db 0f3d
000000e0: c3ce 82bd 82e4 fcbc e4b0 41bc d64d 03bd
000000f0: cc91 413d 095a 993c 1e3c 153d dcac ef3c
00000100: c936 06bd 02f5 fabb a443 733c 89b2 4c3c
00000110: 76e7 b33c d9d5 50bc 2b8b 35bc ffe2 1f3d
00000120: 0fbc 8cbc 3b91 0bbd 2a15 e33c 1979 be3c
00000130: 8dda 52bc 9b90 99bb b35f 13bd 033d 6dbd
00000140: 7bf1 833c 2c8b ddbc 7730 063d d2a4 ecbc
00000150: 551d 3fbc 67a0 af3c bf3f fd3b 9564 283d
00000160: 7f51 d13c db85 1c3c d529 acbc 15fe 39bd
00000170: 185e 59bd 8ee6 7b3b b59a 143d 2c73 c6ba
00000180: 5546 84bb dc62 5bbd 5d95 823c e6d3 ab3c
00000190: 1cec 0cbd 1621 66bd ca5a 193d b10e 43bc
000001a0: ba55 c73b 1fa0 e1bb 2c0f aebc e7f1 82bd
000001b0: 4b92 6dbd 2cf3 223d 14ec e4bb bc4c b7bc
000001c0: c658 1cbd 6d26 32bd c92f debc d150 12bd
000001d0: 87df 113d dacd 9b3c c8eb d7bc 9688 bfbc
000001e0: 5817 083d f59e 52bc 576f c73c 8603 a93c
000001f0: 3ad0 39bd 603b 313c a8e1 143c 4a9c 1a3d
00000200: a175 a4bc 5823 82bc 589f 1a3d 6705 44bd
00000210: e72d 4bbb 8a0b 183d f74d d3bc c822 3f3d
00000220: 2312 e23c bb6a 1f3d ac2a 70bc 92d7 343d
00000230: f9f7 bebc de08 04bd ad18 d13b 06c1 743b
00000240: 8362 7b3c c31c 253d 01ba ecbc a126 4d3c
00000250: 32f6 363c ae30 803c 6404 373c 6354 acbb
00000260: 4a34 2ebd ce3c 073d af7f e2bc e7dc 0c3d
00000270: 4670 5fbd 0c2e 65bc aa2e 86bc ae68 b9bb
00000280: 351a 013b f8fa b43c b740 a4bb a701 353c
00000290: b166 2e3d b381 03bd cb2f 3b3b 4ee6 37bc
000002a0: e8ba 3a3d 96ec 433d 8537 9239 2e0d cebc
000002b0: 700f bdbc 5a70 3c3d f208 b6bb e509 723d
000002c0: 3904 0c3d b5dd 2a3d be56 123d a39a 01bd
000002d0: b920 f23c 02f3 89bc 5a75 9e3c fc88 7cbb
000002e0: 1ae6 d9ba 98ef 49bd bdf0 34bd bf96 9d3c
000002f0: 6216 893c 79be c6bb 4759 163d a942 87bc
00000300: 43ed ec3c 9645 8fbc f079 833c 018d 9e3b
00000310: 123f 363d d60b 303d fc8b 453d 53ce ef3a
00000320: 1c21 0e3d 77aa 39bd cf60 bbbc f8bb 963c
00000330: a6b7 0f3a 78d9 f8bc 109d 0fbb 1b6e 4dbc
00000340: 88eb 11bd a5ae f03b 9564 ea3c 7166 b43c
00000350: a78e d6bc 823c 35bd 11e0 5fbd 26ee 3dbb
00000360: a38a f93c e7b0 e4bc b1cf acbc 3e7e 5bbc
00000370: 674b aeba 7cd0 10bd 1aa5 38bd 3bff 2b3d
00000380: d8eb c5bb 7b4a 73ba d23a 53bc d6ee 29bd
00000390: d6fa 473c 6c1f 093c bdf7 5cbc 2c8c 77bb
000003a0: 32fb 2b3c 98c9 45bd 101b 1e3d ae0e da3c
000003b0: 7b34 af3c 4a1b 8abb 4a6d e13c 3dc6 3fbd
000003c0: 0d9e 04bd 554b 76bc 7739 47bc 1989 813c
000003d0: 5197 8cbc 035b d6bc 73f9 73bc 9da1 82bd
000003e0: 9660 2fbc c45d 4dbd afd3 fd3c 8147 083d
000003f0: 6672 373d 8cb5 09bc 03e5 4d3c edaf 4a3c
0.028256187 0.05109982 -0.0280185 0.0136335865 0.03212704 0.016069269 0.0047902544 -0.0049710046
-0.015860854 0.01966736 -0.04874157 0.023906466 0.03566553 -0.027506879 0.037837286 0.05505373
-0.014521031 -0.008095454 0.044797212 -0.028511602 0.019001786 0.01243202 0.023496397 -0.048494555
-0.03382966 0.016088754 0.017152382 -0.04217322 -0.033315517 -0.044989765 -0.04858031 -0.027101623
0.060595125 -0.019386917 0.031880744 0.037601966 0.0133330235 -0.05086969 0.025234118 0.010668191
0.049924243 -0.06320767 0.035893653 0.040044434 -0.04448579 0.006504041 0.032718044 -0.051422495
0.010798095 0.012234269 0.008925571 0.056579024 0.05196041 0.039314203 -0.0034314324 0.035121642
-0.06387093 -0.03087068 -0.011821959 -0.032056652 0.047258183 0.01871969 0.036434285 0.02925723
-0.03276709 -0.0076586017 0.01484767 0.012493738 0.021960955 -0.012746298 -0.0110805435 0.03903484
-0.017179517 -0.03407405 0.027720053 0.023251103 -0.012869489 -0.004686428 -0.035979938 -0.057919513
0.016106358 -0.027043901 0.032761063 -0.028887186 -0.011664708 0.02143879 0.0077285464 0.041111547
0.025551556 0.009553398 -0.02101604 -0.045408327 -0.05306825 0.0038436982 0.036280353 -0.0015140525
-0.0040367045 -0.053561077 0.015940363 0.020975064 -0.03440486 -0.056183897 0.0374401 -0.011905358
0.0060832174 -0.006885543 -0.021247469 -0.063937955 -0.058000844 0.039782688 -0.0069861505 -0.022375457
-0.0381706 -0.043493677 -0.027122395 -0.035721604 0.035613563 0.019019056 -0.026357546 -0.023380559
0.033225387 -0.012855281 0.024345083 0.020631563 -0.045364596 0.010817379 0.009087004 0.037746705
-0.020075621 -0.015885994 0.03774962 -0.047856715 -0.0031002702 0.03712038 -0.025794012 0.04666403
0.027596539 0.038920145 -0.014658611 0.044150896 -0.023311602 -0.03223502 0.0063811154 0.0037346496
0.015343311 0.040310632 -0.028897287 0.012521417 0.011167096 0.015648212 0.01117048 -0.005259083
-0.042530335 0.033016972 -0.027648775 0.034390356 -0.05455043 -0.013988029 -0.016379673 -0.0056582307
0.0019699458 0.022092327 -0.0050125974 0.011047757 0.042578403 -0.032106113 0.0028562422 -0.0112243425
0.045588404 0.047833048 0.00027888655 -0.025152769 -0.02307865 0.046005584 -0.0055552656 0.059091467
0.034183715 0.041715343 0.035727255 -0.031641614 0.029556619 -0.016839508 0.019343067 -0.0038533797
-0.0016624362 -0.04930076 -0.0441749 0.01923692 0.016734306 -0.0060651866 0.036706235 -0.016511278
0.028921729 -0.017489236 0.016049355 0.0048385863 0.044493742 0.042980038 0.048229203 0.0018295742
0.034699544 -0.045328584 -0.02287331 0.018400177 0.0005482383 -0.030377135 -0.0021913685 -0.012538458
-0.03562501 0.007345038 0.028612414 0.022021504 -0.026191069 -0.044247158 -0.054657046 -0.002898106
0.030461615 -0.027916385 -0.021095129 -0.013396798 -0.0013297618 -0.035355076 -0.045079328 0.041991454
-0.0060400777 -0.0009280813 -0.012892442 -0.041487537 0.0122058 0.008369308 -0.0134868 -0.0037772758
0.010496901 -0.048287958 0.038600028 0.026618328 0.02138733 -0.004214679 0.027517933 -0.046819914
-0.03237729 -0.015032609 -0.012159697 0.015812444 -0.017161997 -0.026166445 -0.014891016 -0.063784815
-0.01070418 -0.05013825 0.030984728 0.033271316 0.044786833 -0.008405101 0.012566808 0.012371046

conv2.bias f4 [32]
00000000: ef95 21bd 2e02 00bb 50e1 2ebd 0ffb a43c
00000010: 77ce 0f3c 39a4 83bb 5efd e13c bdce dc3c
00000020: 488b 11bc c816 803b 1ea8 8a3c 258e 30bd
00000030: 79c3 1f3c efb6 273b 59ff f53a 3377 8fbc
00000040: 0ec7 f8bc 6d4e 873c 318c 05bd bc65 a13c
00000050: 6d2a 3abd 5815 403c a527 af3b e371 d1bc
00000060: bb36 ccbc 9501 88bc 4dde d4bc aadf 8abc
00000070: a19b 13bc bc59 313d 0a80 c03a b6f3 393d
-0.03944963 -0.001953255 -0.042695343 0.020139245 0.008777252 -0.0040173796 0.027586635 0.02695405
-0.008883305 0.0039089657 0.016925868 -0.04310431 0.009751194 0.0025591215 0.0018768116 -0.017512893
-0.030368354 0.016516889 -0.0326044 0.019701831 -0.045450617 0.011723839 0.005345302 -0.025567
-0.024928441 -0.016602317 -0.025984908 -0.016952354 -0.009009273 0.043298468 0.0014686596 0.045398436

bn2.weight f4 [32]
00000000: 2e4f 7f3f ca21 7f3f 7226 803f eefc 7e3f
00000010: 3d42 803f 0be2 7e3f f290 803f baf9 7f3f
00000020: 1bbd 7c3f 675c 7e3f e44a 7f3f 3136 803f
00000030: c16f 7d3f cb77 7f3f 98a0 803f 4917 7f3f
00000040: 071d 7c3f 6359 813f aa90 7c3f 0185 803f
00000050: 0956 803f af9e 813f 797f 823f fee9 7f3f
00000060: 275a 7d3f 1e5b 7e3f c0ff 803f 452a 803f
00000070: 6dd7 813f 423a 803f a1d3 7f3f b747 813f
0.99730194 0.99660933 1.0011733 0.9960469 1.0020214 0.99563664 1.0044234 0.9999043
0.9872605 0.99359745 0.9972365 1.0016538 0.9899865 0.99792165 1.0049009 0.99644905
0.9848179 1.0105404 0.9865824 1.004059 1.0026256 1.0126551 1.0195152 0.9996642
0.98965687 0.99357784 1.0078049 1.00129 1.0143868 1.0017779 0.99932295 1.0100011

bn2.bias f4 [32]
00000000: b282 38bb fcb7 cabb 607e 08bb 1716 98bc
00000010: c800 303b e795 55bb 1750 67bc de83 0cbc
00000020: b912 34bc 0fe3 bcbb 9ccf 1abc f675 89bb
00000030: 1d05 88bb 81f0 b0bb 8cb0 79ba a6d5 84bc
00000040: 670c babc cb18 803c 08c4 06bc a789 e0ba
00000050: 3705 95ba 9e52 933b e108 ca3b ed08 30bb
00000060: 9931 04bb 4d65 89bc b65e 99bc e21f 2dbb
00000070: 34f8 3e3c 51c8 bebb 5fac 88bc fd91 abba
-0.0028154072 -0.0061864834 -0.0020827278 -0.01856522 0.0026855934 -0.003259057 -0.014118216 -0.008576361
-0.010990792 -0.005764372 -0.009448912 -0.0041949702 -0.004151 -0.005399764 -0.0009524904 -0.016215157
-0.022710992 0.015636822 -0.008225448 -0.0017130867 -0.0011369352 0.0044959327 0.006165609 -0.002686079
-0.0020171164 -0.016771937 -0.01872192 -0.0026416709 0.011655856 -0.0058222194 -0.016683755 -0.0013089773

bn2.running_mean f4 [32]
00000000: 9785 4abc efc5 a13d 2d3c 50be ffc9 dcbe
00000010: e71d d0bd 5687 32be 0daf 473e 3712 dcbe
00000020: a8ef 033e 6367 e73d 994d 37be a339 b9bc
00000030: 4eb1 873e 2f96 36bc 72c0 8c3c 72ac 5c3d
00000040: 470a 13be 6046 98bd e441 e43e c11f d63d
00000050: 0dbf 87be 0b44 24be b3fd efbe e846 00be
00000060: 9917 da3e 7b91 df3e cc5d 2a3e 066a 353e
00000070: 607b 2dbd 5743 f83c 00f2 213e 1283 293e
-0.012360952 0.07899081 -0.20335455 -0.4312286 -0.101619534 -0.17434439 0.1950037 -0.42982647
0.1288439 0.11299016 -0.17900695 -0.022610491 0.2650246 -0.011144205 0.017181609 0.053875394
-0.14359389 -0.07435298 0.4458152 0.10455275 -0.26512948 -0.16041581 -0.46873245 -0.12527049
0.4259613 0.4366568 0.16637343 0.17716226 -0.042353988 0.030305548 0.15814972 0.16553906

bn2.running_var f4 [32]
00000000: a612 a63d d937 043e 5492 a33d 73fa ab3d
00000010: 30b8 0e3e 09b8 473e d051 b83d f5b1 cb3d
00000020: a9ac 1b3e 7fdf bd3d dee6 d93d 431f 173e
00000030: 7e70 0f3e 5ec5 e83d edc4 d03d ab94 d43d
00000040: 2e54 c73d e695 9c3d 2ef2 293e a988 fd3d
00000050: 59e4 1d3e fe2e 1d3e 4104 d83d b575 b23d
00000060: 1324 4d3e 00a9 f93d bcb8 e53d db99 3a3e
00000070: fb0f d53d 12fd a53d 24ee 003e 732d da3d
0.08109026 0.12911929 0.07986894 0.08397379 0.1393745 0.19503798 0.089999795 0.09946052
0.15202583 0.09271144 0.106397375 0.14758019 0.14007756 0.1136577 0.101938106 0.10379919
0.09732853 0.07645778 0.1659629 0.123795815 0.15419139 0.15349957 0.10547686 0.08713857
0.20033292 0.12190437 0.11216876 0.18222754 0.10403439 0.0810491 0.12590843 0.106532

conv3.weight f4 [32, 32, 5, 5]
00000000: cb1e 3fbc 766e f6bc 0795 37bc 7b52 c73a
00000010: 0b6e 36bc 9e7e aa3c 298b 1c3c 348b cf3c
00000020: 4e29 e2bb 4af6 cebc 6152 a2bc 6e1f 70ba
00000030: 07c9 72bc 3c32 d33c be98 153d a371 1cbc
00000040: 3dac a93c 9eaf 0a3d 9046 853b 16cb 35bd
00000050: f02f 1cbd 3031 16bd c5bd f4b9 351b 963c
00000060: 2ada 5f3a 8340 e9bb 295b 903b f20b 873c
00000070: 4d4f eebc d731 d53a dce3 05bc 35cf 4d3c
00000080: 4be1 8d3b 465c 48bc 877d 0ebd d4da cc3c
00000090: ae11 313c a17f cd3c e791 883c ae0b 493c
000000a0: 071a b9bc 3ba4 42bb ec29 543d fd6b 1f3b
000000b0: f792 e63c a3f5 99bc 8a72 97bc 9bb5 193d
000000c0: 948d ce3c 9ebf 8a3c ec80 973c 149b 0cbd
000000d0: 86cb 8f3c 4bf2 163d 7b68 64bc f05b cd3c
000000e0: 5c2d bf3b de2a 48bd 9b7e 8abb 4d2b 913c
000000f0: a3d2 3fbb b3d7 10bd 16b3 7a3c 2cad cabc
00000100: 63a8 a23c f54b 4e3c b9f0 2d3c 671f 95bc
00000110: ac17 113b cd80 813b c815 a33b 9fb2 6bbc
00000120: 46bf 4f3c 657b d83c 5fac 87bc 7c63 efbc
00000130: 654d 063c 0e64 173d 201a e6bc c620 fd3c
00000140: ba8c 743c 497a 6b3c 1d46 1f3c 422a 0ebd
00000150: 651d f0bc 6adb 9e3c c012 f53c 9d51 dbbc
00000160: 451b 8bbc a039 4f3c abd2 613c c6c0 ed3c
00000170: 815d bcbb 6cd4 c63c fda9 863c 703a de3c
00000180: 5948 98bc a702 12bd 171b 023d 29a3 993c
00000190: 9dbf 23bd 7c94 5ebc a9d9 30bb 4dd2 463c
000001a0: 952e d6bc 8bd7 f83c e77b ecbc fb0a 913b
000001b0: b9e8 23bc 3358 98bc 961a 613c f982 d83a
000001c0: 1342 15bc 6915 babb 0733 59bc 623c 293d
000001d0: 49ca 04bd 4921 10bc 2b8e ac3b c8c1 cbbc
000001e0: d5c7 8fbc 2f7e 713b 1e94 313b 34f4 e23c
000001f0: 4f4a 8e3c c93f 003d 9529 143a 95cf aa3b
00000200: 9635 4ebc 828d 1d3c b78a 713c ff29 32bc
00000210: 59f6 65bb 8e8e 743c f139 373d b4dc fcbc
00000220: 3dec a03c 7891 8c3c 270e a53c 982b 60bb
00000230: 0d80 e43c e544 453d 9ee5 ec3c 20a9 1c3c
00000240: f97f dbbc 98f9 d03a f584 e1bc a570 df3c
00000250: f839 a93b 5c27 4d3b 8d4a 983c 9639 073c
00000260: fb5a 0bbd d74f 11bd 651a 503c 2f99 e0bc
00000270: 9599 2f3c 054b 033c 29d7 143b ff1f 06bd
00000280: 1257 a1bb 58b5 83bc 6741 0e3d 65d7 e33c
00000290: 1bd1 e93c e318 563c ca22 d23c 099b babb
000002a0: 2257 3a3d aee6 b4bc d310 263c 47ce 173d
000002b0: bfbb 26bc e9f6 8abc c5a8 293c d6ef 7dbc
000002c0: ca15 cbbc f4fd d93c bb43 23bc b71d 0b3d
000002d0: 3f1d 3dbc 1d87 683c 4a41 0ebc 4f65 d3bb
000002e0: b011 9b3a 1d48 1ebd 9fa8 e13c 903b 39bc
000002f0: 49fa 603b 6f9a f9bc 8e0a 98bc a65c 4b3c
00000300: 2632 a1bc 9ecd aebc b013 a73c fb68 813b
00000310: 6399 2fbc 2884 debc ba48 0f3d 7f2c f5bc
00000320: a799 b2bb a5fe ad3b 6dde 7d3c dd59 dd3c
00000330: 4b2c 9cbc 8335 81bc db73 0cbd 4f60 a1bc
00000340: b427 a23c 3456 54bc 5a6a dd3c e705 0fbc
00000350: cadc 49bc 57c3 91bc 3527 b53a 73a0 ab3c
00000360: f660 bcbb e9f0 533c 1600 9cbc 1767 d03c
00000370: bc86 47bc 139a 9f3c e6b3 473b abdc 793d
00000380: 1088 13bc 13e8 153d 2878 a83c 5286 7bbc
00000390: 586d 2abc 843d 983c ef84 4d3c ffca 3f3d
000003a0: 8be6 e5bb 9dd3 97bc 6b92 793c a2ad 6dbc
000003b0: c533 563c c65d b63c 6ae4 f93c fbd2 393d
000003c0: 50ac 08bb 8e1c a23c e358 8bbc dc56 1a3d
000003d0: 9683 d638 f769 bebb 6882 d43a 98d3 113d
000003e0: 6d24 2ebc fbd2 4e3c f8d6 05bb 3011 fcbc
000003f0: 5724 c93c 47bf a3ba 40cd 583b 973f febb
-0.011665056 -0.030081969 -0.0112049645 0.0015207076 -0.011134635 0.020812329 0.009554663 0.025334932
-0.0069018966 -0.025263924 -0.019814672 -0.0009159957 -0.0148184365 0.02578079 0.03652262 -0.0095485775
0.020712012 0.033858888 0.0040672496 -0.04438313 -0.038131654 -0.036668003 -0.00046680696 0.01832352
0.0008539284 -0.007118286 0.0044053984 0.016485188 -0.029090548 0.0016265464 -0.008172002 0.012561609
0.0043298355 -0.012229031 -0.03478768 0.02500669 0.010807438 0.025085272 0.016671134 0.012270851
-0.022595419 -0.002969994 0.051797792 0.002432584 0.02814625 -0.018793887 -0.018487234 0.037526708
0.025213994 0.016937073 0.018494092 -0.03432758 0.017553102 0.036852162 -0.013940926 0.025068253
0.0058342647 -0.048869006 -0.0042265183 0.017720843 -0.0029269836 -0.035361957 0.0153014865 -0.024740778
0.019855684 0.012591352 0.010616475 -0.01820345 0.0022139354 0.003952122 0.0049769618 -0.014385848
0.0126798805 0.026426027 -0.016561685 -0.029222243 0.008197163 0.036960654 -0.02808863 0.030899417
0.01492613 0.014372417 0.009721306 -0.03470827 -0.029310891 0.019391734 0.029916167 -0.026772315
-0.016980777 0.012648016 0.013783137 0.029022586 -0.005748451 0.024271213 0.016438479 0.027127475
-0.018589186 -0.03564706 0.031764116 0.018754559 -0.03997766 -0.013585206 -0.0026985204 0.012135101
-0.026145259 0.030376216 -0.028867675 0.004426358 -0.010004216 -0.018596744 0.013739249 0.0016518525
-0.009109992 -0.005678822 -0.013256795 0.04131735 -0.032419477 -0.008796998 0.005265971 -0.024872676
-0.017551342 0.0036848893 0.0027096341 0.027704336 0.017369417 0.03131083 0.0005651948 0.005212734
-0.012586018 0.009616258 0.014742545 -0.01087427 -0.0035089462 0.014926566 0.04473299 -0.030866958
0.019643897 0.017159209 0.02014835 -0.0034205671 0.02789309 0.048161406 0.028918084 0.009561807
-0.02679442 0.0015943525 -0.02752922 0.027275393 0.005164381 0.0031303978 0.018590236 0.008253476
-0.034022313 -0.03547653 0.012701605 -0.027416794 0.010717769 0.0080134915 0.0022711253 -0.032745358
-0.0049237097 -0.016077682 0.03473034 0.027812669 0.028542092 0.013067457 0.025651354 -0.005694751
0.045493253 -0.022082653 0.010135847 0.037061956 -0.010176598 -0.016963439 0.010355179 -0.015499076
-0.024790663 0.026610352 -0.009964879 0.033963885 -0.011542617 0.01419237 -0.008682558 -0.006451286
0.0011830833 -0.03864299 0.027546225 -0.011305705 0.003432887 -0.030469147 -0.01855972 0.012412226
-0.019677233 -0.02133828 0.02039513 0.003949282 -0.010717723 -0.027162626 0.034981467 -0.029928444
-0.0054504457 0.005309897 0.015494925 0.02702039 -0.01906409 -0.015772587 -0.034290176 -0.019699244
0.019794323 -0.012960006 0.027028251 -0.008729435 -0.012320707 -0.01779334 0.0013820889 0.020950532
-0.0057488633 0.012935855 -0.01904301 0.025439782 -0.012178119 0.019482648 0.0030472218 0.06100146
-0.009004608 0.036598276 0.020565107 -0.015351849 -0.010402046 0.01858402 0.012543901 0.04682445
-0.0070160083 -0.018533522 0.015232663 -0.014506729 0.013073866 0.022261512 0.030504424 0.045367222
-0.002085466 0.019789007 -0.017010158 0.03768049 0.00010228825 -0.005810972 0.001621318 0.035602182
-0.010628802 0.012623544 -0.002042232 -0.030769914 0.024553461 -0.0012492918 0.0033081323 -0.0077590453

conv3.bias f4 [32]
00000000: f54a 173d 7399 fc3c 4a2f eebc 8cb4 14bd
00000010: 46d7 013d d199 563c 3e20 143c d5c2 10bc
00000020: 3c79 ddbc 88bb d8bc f8b7 c2bc 220d 60bc
00000030: f2ce 9f3c 6b12 edbc cd4c 0d3d 9b90 013d
00000040: b954 073d 9354 af3b 95ad a93c 5e4e 0e3c
00000050: be59 75bb 31e6 c4bb 4c67 bbbc f047 c83c
00000060: 0d67 963c 3f7f f73c 2b99 e63b 8140 c43c
00000070: 627a babc 0965 d3bc 8aea 1f3c a5b8 243c
0.03693672 0.030834889 -0.029075284 -0.036304995 0.03169944 0.013098196 0.00904089 -0.008835514
-0.027035348 -0.02645661 -0.023769364 -0.013675006 0.019507859 -0.028939446 0.03449707 0.031632047
0.033039782 0.005350658 0.020712653 0.008685676 -0.0037437524 -0.0060088863 -0.022876404 0.024448365
0.018359685 0.030212043 0.007037302 0.02395654 -0.022763435 -0.025805013 0.009760508 0.010053788

bn3.weight f4 [32]
00000000: 852b 7e3f 394f 823f 3c1f 7f3f 9922 7f3f
00000010: a21b 7f3f 9775 813f da56 813f fcf6 7f3f
00000020: 9f98 7e3f 6b42 813f 09b1 813f f7bc 7e3f
00000030: 6c64 7f3f 09dc 813f 07dd 803f c92e 813f
00000040: 34b0 813f e45f 823f b721 823f 6697 823f
00000050: 924f 813f 8597 7e3f 6d8f 813f 3b2d 813f
00000060: 28e8 813f f02b 813f db3a 823f d626 813f
00000070: 7828 803f 05f3 813f ef7b 833f 087a 7f3f
0.99285156 1.0180427 0.99657035 0.99662167 0.9965154 1.011401 1.010463 0.99986243
0.9945163 1.0098394 1.0132152 0.9950709 0.99762607 1.0145274 1.0067452 1.0092403
1.0131898 1.0185513 1.0166539 1.0202453 1.0102408 0.9944995 1.0121895 1.0091928
1.0148973 1.0091534 1.0174211 1.0089977 1.001235 1.0152289 1.0272197 0.9979558

bn3.bias f4 [32]
00000000: c9e3 efbb 9b57 7f3c df80 a2bb bc51 efbb
00000010: f954 9abb 2af8 9d3a 6fab 0dbb 0ce6 54bb
00000020: 520e 5938 f21f 953b 31c8 2bbb 20d7 203a
00000030: c9e8 97bb 847c 99bb 6d12 8eb9 d591 e03a
00000040: 3515 2aba fb3a 5b3c 1749 883c 93dd 9fbb
00000050: 39a3 b23b 3c04 30bc 5bb0 9d3a ff5c e33b
00000060: cbdf 763a bd39 043c fbaa 353c ed64 083c
00000070: b58c 73b9 143d 273c 12cf 973c 1404 a2bb
-0.0073208553 0.015584852 -0.0049592103 -0.0073034447 -0.0047098366 0.0012052108 -0.0021617075 -0.0032485751
5.175017e-05 0.0045509273 -0.0026211853 0.0006135572 -0.0046359044 -0.004684033 -0.0002709808 0.0017133305
-0.00064881454 0.013380761 0.016636414 -0.0048787086 0.0054515866 -0.010743197 0.0012030707 0.006938576
0.0009417503 0.0080704065 0.011088128 0.008324844 -0.00023226703 0.010207433 0.018531356 -0.004944334

bn3.running_mean f4 [32]
00000000: 05f9 fd3e 4c9e 94be 76c3 4a3e 884d 613e
00000010: 192a 47be a2c4 773d 48f1 853d 3292 42be
00000020: 4a6f a63e d72f 11bf 4892 28bd 1fe3 cf3d
00000030: 9905 853e 2635 4bbc 922c 593e 9bb0 613d
00000040: f909 d93d 5a3d d93d bf6f 98bc cd41 3f3e
00000050: f905 853e 7b9b f3bc 2314 843b 8856 2bbd
00000060: 02d1 c93c 1333 15be e232 aa3c f7d3 cfbd
00000070: 0d69 6cbd 23ce b53d 9037 843c b394 123f
0.4960405 -0.2902702 0.19801125 0.22002232 -0.19449653 0.060490258 0.06540161 -0.19001082
0.32506782 -0.5671362 -0.04115513 0.10150742 0.25980833 -0.012402808 0.21208408 0.055100065
0.10597605 0.10607405 -0.018607972 0.18677445 0.2598112 -0.029737225 0.004030721 -0.04183057
0.024635796 -0.14570265 0.020776216 -0.10147851 -0.05771737 0.08877208 0.016139776 0.57258147

bn3.running_var f4 [32]
00000000: 66e2 523e 011d 5f3e ae2f 393e f1be 413e
00000010: 436b 0e3e 1a4d 143e f262 1f3e b900 043e
00000020: 43fd 783e 9499 633e d19f 133e 0119 773e
00000030: 3c9e 273e 4320 283e 1576 0a3e f3a7 db3d
00000040: b431 0c3e 5af4 553e fbce 503e e7e7 383e
00000050: cea0 403e 084c fb3d 3b7a e43d 8285 213e
00000060: 52d4 5f3e c557 193e d74b 373e fb80 5e3e
00000070: bd24 ff3d ef70 db3d 9f9c e43d 5b60 4b3e
0.20594177 0.21788408 0.18084595 0.18920495 0.13908105 0.14482537 0.15565088 0.128909
0.24315362 0.22226554 0.14416434 0.24130632 0.16368955 0.16418557 0.13521607 0.10725393
0.13690835 0.20893994 0.20391457 0.18057214 0.18811342 0.12270361 0.11156126 0.15773585
0.21858338 0.14974888 0.17900024 0.2172889 0.12458179 0.107149 0.111626856 0.19860975

shared_layers.0.weight f4 [128, 128]
00000000: b6fd 153c 969c 0bbe aebd 853d 37c1 0e3d
00000010: 0f43 333e 3e20 6cbd 433a a9bd bea1 b0bc
00000020: 97b1 09be 3231 9cbd 2a9b 983d 1d2c c43d
00000030: 2257 f0bd 9c49 023e e886 03be 05d0 0cbe
00000040: 7ca2 133d d817 a6bd c983 d1bd 9639 11bd
00000050: f9f0 1fbe e031 a93d 420b 003e 5b60 113e
00000060: 22e4 b83d 98ad 0f3e 8b17 653d ab4a 1e3e
00000070: 8527 4dbd fadf 913d 3762 18bc baac 07be
00000080: 1058 4b3d 56d2 4fbc 9cdf cd3d bfad d43d
00000090: bbec 243e a8f0 dcbd b6c4 f63d 81dc 20be
000000a0: 9036 ab3d 807b af3d 0c70 c8bd 94ce 8e3d
000000b0: 1fa2 f1bc e628 243d 0356 353d 8def ec3c
000000c0: dc72 293e e2b1 64bd f38c d3bc 9954 7a3b
000000d0: 6ead db3d f5b0 03be 172f 6c3d 61be 85bd
000000e0: 3d01 14be 57c3 a739 0fb4 12be 5a5b 133e
000000f0: da35 f13c 9f8e 8e3d 5a5c ba3d 80d7 f53d
00000100: 86df 983d 929b 303e f8a2 253e d586 783d
00000110: b429 df3d 0cb1 8c3c 814a fb3d eec4 0c3e
00000120: a05f 1c3d 98af 023e 4a73 bd3d 7e52 9a3d
00000130: db74 05be 296f 8abd f4ec 153d e66c fbbd
00000140: 5380 943b cf3a 893d eca4 00be 832b 073d
00000150: 7e9a 213e 6f00 e93c 77af 68bd 0278 bdbd
00000160: 45b3 88bd d943 453c bba1 3ebd f2d2 a6bd
00000170: 8231 ecbd d866 b6bd 1ea6 b63d 7f15 bc3d
00000180: 73d3 bf3d 2b9f 943c 35b8 0cbe d333 f4bd
00000190: f90d ddbd 19ff ccbd 9ddc 983c 3001 1f3e
000001a0: 76c6 80bd 75e9 b83d a633 84bd a0b2 1fbd
000001b0: 5bfd 0ebd 6533 9dbd 1b61 a13d bded 9bbd
000001c0: 921b 3f3c 0125 58bd 6e26 32bd 3735 baba
000001d0: aae6 fabd 027d a9bc a840 d8bd 98e5 b8bd
000001e0: 74a4 26be 58ce b7bd b56b b63d 6b8a 12be
000001f0: b00a bc3d 6d61 393d 36e4 f9bd 166e b53c
00000200: 0a8f 00be 7ba0 99bb 1fea 523c b12c 9abd
00000210: 9a7c ed3d 4bad 953d 03bb 95bd 236f e7bc
00000220: 8fbd 3fbd 4c0e afbd 2edd 763d c325 15be
00000230: 4a29 033e fe35 fcbd 352f 37bc 13d0 933d
00000240: 0f22 f1bc 0d9b 833c 36c9 aa3d fdac 763d
00000250: a947 6bbd db7e 2e3d 4649 edbd ac56 843d
00000260: ca0a 6b3d 4d42 693c de94 023e 8007 b23d
00000270: d69a 2fbd 6f54 9e3d 6c88 d13d f7a7 ddbd
00000280: d971 023e 157e 063e f626 af3c 5837 a5bd
00000290: aa6c b03c b0db 8fbd 4290 073e 04d7 a23d
000002a0: 1117 823d 2ae9 183d 8c9d 14be 932f f8bd
000002b0: 7f84 09bd eda1 2abd d7fa 8e3d 5003 0b3d
000002c0: de2c a4bd 098d 913c 6096 873c 0d13 d6bd
000002d0: 8006 9fbd 26a0 b03d 9d22 26be 1996 c63c
000002e0: b0e2 12be 0a10 80bd f14c 96bd b126 0cbe
000002f0: f71d 503d 66a2 fcbd 52f7 1dbe 11c2 1bbd
00000300: 575a 743c eed2 67bd 417d c73d e635 2bbe
00000310: 6e99 debd 8ccb b2bd 7540 7dbd 37a2 7d3d
00000320: a25a 7fbc b0b1 f9bd f24d ee3d 91ee 313d
00000330: e05e bcbc 1ca1 ac3c 7a52 b3bd 3c2d 9abc
00000340: 11e7 cf3d af73 2bbd ae6a 3dbc 470f 6d3d
00000350: 3e16 853d f8b1 683d 5ab7 ef3d 0bbb 1dbe
00000360: 36ed 1a3d 1135 efbc 4b34 003d bd6b 10bd
00000370: ee9d b83c 12cc ebbd e80a f13d a673 0abe
00000380: d505 043e 14fc 803d bb3d 893d f3bb 85bd
00000390: e908 c23d af06 a6bd 6da9 ea3d 6cf4 f1bd
000003a0: 7aaa 35bc db6f fe3d e78d e7bd 18af 8f3d
000003b0: 0364 4d3c 8a06 ed3d d683 e83a 0c21 153b
000003c0: 93a1 e43d 3da7 6e3d ce0c 163e 3ad0 de3d
000003d0: 4eda 02be a9a5 e93d 6ba1 923d c23d ffbc
000003e0: e9b3 263e 6ecd bebd 29e6 ec3d a32b 093e
000003f0: ce41 ccbd 7e07 873d 8681 37bd c2ea 7bbd
0.009154728 -0.13633952 0.06530319 0.034852233 0.1750605 -0.057647936 -0.08263066 -0.0215615
-0.13446651 -0.07626571 0.0745147 0.095787264 -0.11735369 0.12723392 -0.12844431 -0.13751228
0.03604363 -0.081100166 -0.10230214 -0.03545531 -0.15619268 0.08261466 0.12504295 0.14196913
0.09027888 0.14031065 0.055930655 0.15458171 -0.050086517 0.07122798 -0.00930076 -0.13249484
0.04964453 -0.012684425 0.10052416 0.10384702 0.1610593 -0.10788089 0.120492384 -0.15709116
0.08360016 0.08568478 -0.09786996 0.069729954 -0.02949625 0.040078066 0.04427148 0.02892282
0.16547722 -0.055833705 -0.025824046 0.0038197397 0.107264385 -0.12860473 0.057662096 -0.065304525
-0.14453597 0.00031998262 -0.143265 0.14390317 0.029444624 0.069607966 0.09099646 0.12003994
0.07464509 0.17246845 0.16175449 0.06067546 0.10896626 0.017174266 0.1227007 0.13746998
0.038177133 0.12762296 0.09250505 0.075352654 -0.13032858 -0.06759483 0.03660293 -0.1227663
0.004531899 0.0670067 -0.12562913 0.03300048 0.1578159 0.02844259 -0.05680796 -0.09251405
-0.06674818 0.012040102 -0.046540957 -0.081457034 -0.1153288 -0.08906335 0.08918403 0.091837876
0.093665026 0.018142303 -0.13742144 -0.11923947 -0.10793681 -0.100095935 0.018659884 0.15527797
-0.062878534 0.090289034 -0.06455164 -0.03898871 -0.034909587 -0.07675818 0.078798495 -0.07613704
0.011664288 -0.052769665 -0.04349368 -0.0014206533 -0.12251027 -0.020689491 -0.10559207 -0.090281665
-0.16273671 -0.08974904 0.08907262 -0.14310615 0.09181726 0.045258928 -0.12201731 0.02214722
-0.12554565 -0.00468832 0.012873202 -0.075280555 0.115960315 0.07308444 -0.0731106 -0.028251236
-0.046811637 -0.08547649 0.060269527 -0.14565186 0.1280872 -0.12314986 -0.011180689 0.072174214
-0.029435186 0.016065145 0.08339159 0.06022357 -0.057441387 0.042601448 -0.115862414 0.06461844
0.057383336 0.014236999 0.12752101 0.08692837 -0.042872272 0.07730948 0.102310985 -0.108230524
0.12738742 0.13134034 0.021380883 -0.080671966 0.02153619 -0.07024324 0.13238624 0.07951167
0.06352056 0.037331738 -0.14513224 -0.12118449 -0.033573624 -0.04165833 0.06981438 0.033938706
-0.0801637 0.017767446 0.016551197 -0.104528524 -0.07764912 0.08624296 -0.16224141 0.024241494
-0.14344287 -0.06253059 -0.07338894 -0.13686635 0.050809827 -0.123356625 -0.15426376 -0.038026873
0.014914117 -0.056597643 0.09740687 -0.1671978 -0.10869108 -0.0873023 -0.06182905 0.06192228
-0.015585573 -0.12192094 0.11635961 0.043440405 -0.022994459 0.021072917 -0.087559655 -0.018820398
0.10151494 -0.04185837 -0.011561079 0.057875898 0.06498383 0.05681035 0.117048934 -0.15403382
0.03782388 -0.029200109 0.03129987 -0.035258997 0.022536244 -0.11513533 0.11769658 -0.13520679
0.1289285 0.0629808 0.06701227 -0.06529989 0.09474356 -0.081067435 0.11458097 -0.11814198
-0.011088008 0.124236785 -0.113063626 0.07015818 0.012536052 0.11573513 0.0017739485 0.0022755293
0.1116363 0.05826496 0.14653322 0.1087956 -0.12778589 0.1140855 0.07159694 -0.031157378
0.16279568 -0.09316526 0.11567337 0.13395552 -0.09973489 0.06593226 -0.044801258 -0.06150318

shared_layers.0.bias f4 [128]
00000000: cb6a 933d 4b2f 393d 81de 89bd d391 603c
00000010: fb20 afbd e33f 423d 5bdc 37bd b49e 49bc
00000020: 21ca 82bd efac b63d 56b9 b23d 7b7a f33c
00000030: 6c2f 853c 599b e83a f21e 4a3d 637d 643d
00000040: 8e95 07bd 0e82 893c 7651 acbc 91ae 803d
00000050: c450 c23c b1d5 55bd b24b 43bd 8ea7 013d
00000060: 2377 c33c 4ec4 b8bc 5c99 91bc 3727 dcbc
00000070: 5444 24bd 0bee 603c ebe2 683d b871 f5bc
00000080: 50c9 233d 022f 32bd 162c 063d 48a0 2b3c
00000090: 56ce e73c aafc 5cbc 6a4d a73d 1163 5cbd
000000a0: 6540 c63c 5d0d 67bd 1604 833d ef50 ec3c
000000b0: 465d 65ba e01b cd3d 1be8 3cbd 86b7 803d
000000c0: 9ec7 7d3c 2347 5a3d f878 033d cca2 17bd
000000d0: 9f3e 713c 4727 35bd 86eb 37bd 007e 7d3d
000000e0: 475b 453d 82b0 b4bd 0579 253d 1622 8c3d
000000f0: af96 8b3c d63c debc 4f20 493c 1f4e c73b
00000100: 7211 12bd 191d 253d dbb0 7e3d 5889 803d
00000110: 5147 57bd e664 f4bc 82d3 c03d d96b e73c
00000120: fd8c 50bd 89cb 0ebb 7dd4 1d3d a73b c9bc
00000130: 7417 abbd 70f8 f23c 2dac 41bd a0ef 40bd
00000140: 49b4 f13c 0131 623b ce21 92bc ac8a 8b3c
00000150: ac10 64bd 103c 65bd c9ae 0ebc fe2c 9d3d
00000160: 5163 5a3d 0597 923c d075 0bbc e2c3 e63a
00000170: b14e b83a c6eb 9c37 853e b53c c0b2 95bd
00000180: 8cb1 3f3d 0fb8 f23a a7ee 4c3d e655 a53d
00000190: 1b7a 843d 5cc0 293d af32 363c 45cc 74bd
000001a0: 9f98 b43d 3120 023d 4728 3e3d e2f7 993c
000001b0: ce02 713d a506 7abd e1f9 89bd c057 843a
000001c0: 3e66 a1bd 9fc3 9bbb cd85 93bd 698b 25bc
000001d0: 96a8 a0bd 2257 bfbc 2d2f 7f3d 796f 8fbc
000001e0: 2143 d23c 7c3a cfbb 393b 89bc 5ce6 79bd
000001f0: ea94 6dbd 144d 7ebd 3ab8 293d 582c 1a3b
0.071981035 0.045211118 -0.067318924 0.013706642 -0.085512124 0.04742421 -0.04488788 -0.012305904
-0.06386209 0.08919703 0.08726756 0.02972149 0.016257964 0.0017746493 0.049345918 0.05578364
-0.03310161 0.016785648 -0.021034937 0.06283296 0.023720153 -0.052205745 -0.04767961 0.031653933
0.02386052 -0.022554543 -0.017773323 -0.026874168 -0.040104225 0.013728629 0.05685703 -0.029961452
0.03998691 -0.04350186 0.032756887 0.010475226 0.02829663 -0.013487974 0.081690624 -0.053805415
0.024200628 -0.05640923 0.06397264 0.028847186 -0.00087495556 0.10015082 -0.04611979 0.06285004
0.015489487 0.053290498 0.032097787 -0.03702049 0.014724403 -0.04422691 -0.044902347 0.06188774
0.048182752 -0.08822729 0.040398616 0.06842439 0.017039625 -0.027128618 0.012275769 0.006082311
-0.03566117 0.040310953 0.06218038 0.06276196 -0.052558247 -0.029833268 0.09415342 0.028249668
-0.050915707 -0.0021788797 0.038532723 -0.024564577 -0.08354083 0.02965948 -0.04728334 -0.047103524
0.029504912 0.0034514072 -0.017838385 0.017033897 -0.055679962 -0.055965483 -0.008708664 0.07674597
0.05331737 0.017894277 -0.008511975 0.0017605985 0.0014061538 1.870644e-05 0.022124538 -0.073094845
0.04680018 0.0018517989 0.050032284 0.080730245 0.06468602 0.041443214 0.011120482 -0.05976512
0.08818173 0.03176898 0.04642513 0.018794958 0.058840565 -0.061041493 -0.06737114 0.0010096952
-0.07880829 -0.0047535445 -0.07203255 -0.010104039 -0.07844655 -0.023356978 0.06230085 -0.017509209
0.025666775 -0.0063241106 -0.016751872 -0.061010703 -0.058003344 -0.062085226 0.041435458 0.0023524966

shared_layers.1.weight f4 [64, 128]
00000000: 10e7 183d 72e2 063e b32e 1abe 3ecb 613c
00000010: ba4c 503b 5763 16be 22fa d4bd 96b1 233e
00000020: ac7e c7bd 7ece e8bc 2f3d 673d 0fea edbd
00000030: c2d4 12be 10e5 1cbe 131e 2d3e 98cd c13d
00000040: 77b9 f2bc 5e3d 0abe 6fa8 1d3e 21f3 093d
00000050: f0fb 1e3e d5b5 c53d 7b37 9f3d 3244 803c
00000060: a868 2d3e 704a 2ebd 4d53 06be 4c82 df3c
00000070: 4ac1 ebbc 8d74 5ebd e939 49bd 2f9a 423d
00000080: f769 403e 82dc 823b 2023 09be a714 033c
00000090: 6bc0 10be c372 1a3e 0971 263e 1c82 d8bb
000000a0: 80c5 2c3d 4ee3 e93d 1f6a c93d 022d 91bd
000000b0: 4192 39bd 41b4 ff3d 395a 423d a7c8 1b3e
000000c0: ac37 2b3d 6074 2b3e 106a 8e3d 3879 8f3d
000000d0: e2fa 2a3e fd97 89bd c37f aebd f04f 9f3c
000000e0: f7d3 d9bd ae62 cdbd 7ee7 9d3d 1a85 163e
000000f0: c1b0 a63c 73d7 a43d 7077 283d d5cc 003e
00000100: b255 233e 0c0c 00be f04d d13d 46da 153e
00000110: 6cdc a63d bcdf 1ebe c949 12be 138d b53d
00000120: d790 98bd db51 47bd fb83 273e d5ac 4c3d
00000130: 7abe 60bd 7afb 6a3d 52e4 243e e9a0 15be
00000140: 08b9 593d 5acd f13d 1e0a fd3d df3a a5bc
00000150: 4d2c e9bd d7e8 a33c a377 72bd 90ff 39bd
00000160: 5ac5 2fbe cf3d 2f3e 1b56 cdbb 3a4c 093e
00000170: 8e19 e0bd 553c d83d aeca 19be 0243 09bc
00000180: 3936 c63d afaa 7c3d d5fb 053e 30a7 30bd
00000190: 1a8f 84bd 6f33 ce3d 1c4a 55bd 5027 21be
000001a0: 6965 9cbd f4d1 afbd 76f7 85bd e9cb b8bd
000001b0: b196 af3d 083f afbd 2937 c4bc bb57 833d
000001c0: ba72 39be 65f9 283e 73bd 75bd b595 9b3d
000001d0: 6b8c f3bd ebdb 343c b006 47be 0235 de3d
000001e0: f366 f33c bbc6 8f3d b666 42be aafb 163e
000001f0: 70b7 a83d 67e5 173e 6fd7 b83c fc9d f2bd
00000200: cf0e 853d e43b cdbd 26e6 2fbe 19b7 7fbd
00000210: 329c f8bd bc75 e93d 8002 953d 46ec 35bd
00000220: 1b28 4ebd afb4 1c3e d6a6 ea3c 8375 1cbd
00000230: ed27 1ebe 5cec a5bd a3c1 963d 4917 23be
00000240: 21fa dcbd b2bd 0ebe 9104 183e 2040 603b
00000250: cbaf c23d 15ad 1cbd c063 05be dc97 143e
00000260: f216 103e c3fb dbbb 6c73 6a3c 40eb d9bd
00000270: 6ae2 8b3c 002a 4c3e 33ec 65bd 3774 a1bc
00000280: 8baa e73d 7e04 c93c 2c69 b23d e47a 24be
00000290: 3330 563d b6f5 b5bb 1fb3 41bd 0a63 dfbc
000002a0: 46b5 13be 4b3a a63c 6bd8 f93d 5faf 9a3d
000002b0: 127a 01be 8c25 113e d84b e0bd 176b e2bd
000002c0: d71b a63b 2653 153e 9914 e0bd ef8e 7e3d
000002d0: f478 f5bd 1d62 b13d bac6 1dbe d16d 1bbe
000002e0: 9866 253e 254f 3abc 43a8 a5bc 70d0 0d3e
000002f0: d534 323e 42ef 2b3e 9239 c23d 9da7 39be
00000300: e3e0 d13d 16a0 e63d 2a8c b03c 8726 81bd
00000310: b14f d83d 3e08 70bc b2d8 07be 21b5 adbd
00000320: 2d51 09bd 7a4a db3c cbd1 253e 373b 9e3d
00000330: aa83 92bd 54fb 1e3e 0754 c5bd d593 45bd
00000340: 3c11 da3d d369 253e 93f1 d83d b5db ccbd
00000350: 89c2 f7bd 0152 833c 2b1f 903b d760 febd
00000360: ff55 0f3e 23b6 debd 8ce6 c63c 12f3 abbd
00000370: 7672 ea3d fa34 8b3d 0e0e 283e e0f7 143d
00000380: 302c 56bd 5248 a3bd 1c4a a1bc 894b 41bd
00000390: 3250 2b3e 7fdf 08be 8ec7 86bb 3627 9ebd
000003a0: a396 583d a277 093e f849 363e 5108 e6bc
000003b0: 2cef 55bd 6dac 20be e521 7ebd 5833 373e
000003c0: ecb1 dbbd 6335 d8bd 7902 633d f80f 23be
000003d0: f02b f03c 273b 44bd da6c ffbb 82c1 27be
000003e0: 110e 453e 32ca 01be b9f5 20bd 0630 0ebd
000003f0: 60cb 393c c3a3 813d 9b6e 913d b57e 7fbd
0.037329733 0.1317232 -0.15056877 0.013781367 0.0031784014 -0.14686333 -0.103992715 0.15985712
-0.097409576 -0.028418776 0.056454834 -0.11616909 -0.14338973 -0.15321755 0.16906004 0.09463042
-0.029629452 -0.13499972 0.15396284 0.03367913 0.15525794 0.09653822 0.07774254 0.015657518
0.16934454 -0.042551458 -0.13117714 0.02728381 -0.02877869 -0.05431037 -0.049127493 0.047510322
0.18790422 0.0039935717 -0.13392305 0.008000529 -0.14135902 0.1508284 0.16254057 -0.006607307
0.04218054 0.11420308 0.09834694 -0.07088663 -0.045305494 0.124855526 0.047449324 0.15213262
0.04180114 0.16743612 0.069538236 0.070055425 0.16697267 -0.067184426 -0.08520462 0.019447297
-0.10636132 -0.10028587 0.07710169 0.14699212 0.020347955 0.08048906 0.04112953 0.12578137
0.15950659 -0.12504596 0.102199435 0.14634046 0.08147511 -0.15515035 -0.1428596 0.088647984
-0.07449501 -0.048662048 0.1635894 0.049969513 -0.054869153 0.057368733 0.16102722 -0.14612164
0.053154975 0.11806746 0.12355445 -0.020169673 -0.11385403 0.020008488 -0.059196126 -0.04540974
-0.17165127 0.17113422 -0.006266368 0.13407984 -0.10942374 0.105583824 -0.15018722 -0.008377792
0.09678311 0.061686214 0.13084348 -0.043128192 -0.06472607 0.10068404 -0.05207263 -0.15737653
-0.0763653 -0.08584967 -0.0654134 -0.09023268 0.08573664 -0.08556944 -0.023952084 0.06413218
-0.18110171 0.16501386 -0.059995126 0.07596914 -0.11892017 0.011038761 -0.19436145 0.10849954
0.029712176 0.07020327 -0.18984494 0.1474444 0.08238113 0.14833604 0.022563664 -0.118465394
0.06496965 -0.10021189 -0.17177638 -0.062430475 -0.12139167 0.11399409 0.072758675 -0.04441478
-0.050331216 0.153033 0.028644007 -0.038198005 -0.15444918 -0.081017226 0.07361152 -0.15926851
-0.10789896 -0.1393955 0.14845492 0.003421791 0.09506186 -0.038251 -0.13026333 0.14511055
0.14071253 -0.006713362 0.014309745 -0.106405735 0.017075736 0.19937897 -0.05613346 -0.019708736
0.11311825 0.024538275 0.08711466 -0.16062504 0.05229206 -0.0055529727 -0.047289964 -0.027268905
-0.14424619 0.020291468 0.121994816 0.07552981 -0.12644222 0.14174479 -0.10951966 -0.11055582
0.0050692367 0.145825 -0.10941429 0.06214803 -0.119859606 0.08661292 -0.1540784 -0.1517861
0.16152418 -0.011371409 -0.020221835 0.13849044 0.17402966 0.16790488 0.09483637 -0.18130346
0.10247972 0.11261003 0.02155121 -0.06306177 0.10562075 -0.014650403 -0.13266256 -0.08481813
-0.03352468 0.026768912 0.16193311 0.07726138 -0.07154019 0.15525562 -0.096351676 -0.048236687
0.106478184 0.1615365 0.105929516 -0.10002843 -0.120976515 0.016030313 0.0043982468 -0.124208145
0.13997649 -0.108745836 0.024279855 -0.08395971 0.11447613 0.06797214 0.16411611 0.036369205
-0.052288234 -0.079727784 -0.019688658 -0.047191177 0.16729811 -0.13366507 -0.0041131442 -0.07722323
0.052878033 0.13424543 0.17801654 -0.028080137 -0.052230045 -0.15690775 -0.062044043 0.1789068
-0.10727295 -0.10557058 0.05542228 -0.1592406 0.029317826 -0.047907975 -0.0077949585 -0.16382411
0.19243647 -0.12674788 -0.03929684 -0.034713767 0.011339992 0.06330063 0.071011744 -0.062376697

shared_layers.1.bias f4 [64]
00000000: d004 163d 3fc2 96bd dda5 b0bd 21a2 5abd
00000010: be93 60bd 36af 843c 01b6 98bd 9d76 183d
00000020: 90a6 c53c 859f 7e3d 99f8 493d 1ab0 fdbb
00000030: 6bf7 543d d4a9 463d 243e ee3b 11e7 2abd
00000040: 9ddb 2ebd 010b 293c e2e0 1bbd 78d5 9c3d
00000050: 5c9f e5bb 965b 9d3d 8abd 84bb 8c97 80bc
00000060: d905 5cbc b403 a2bd 3d58 903d 89f9 093c
00000070: d972 1bbd 2ff9 553d 357d 613c 11f2 c03d
00000080: f4dc 6d3d cc38 36bd 043f a6bd d837 013d
00000090: 4c7b 713d 20ff c23a a830 01bc b587 98bd
000000a0: a585 293d cf74 dcbc 5bc7 813d 1da9 70bd
000000b0: a3aa fd3c e753 bf3c 9855 ba3d 539d 6e3c
000000c0: 9a20 793d ad8c 8d3d b20f b63d 0cc7 adbb
000000d0: 5194 d13c e69a a2bd a5b5 9b3c 3791 9fbd
000000e0: 490c 94bd 492f ba3d 070e 943d 853e d8bc
000000f0: a5b2 ad3d c5b7 333d 8db2 4bbd b22a 3bbc
0.036625683 -0.07361268 -0.08625386 -0.053377274 -0.054828398 0.016196828 -0.074565895 0.037222493
0.024127275 0.06216385 0.049309347 -0.00774194 0.05199377 0.048501804 0.0072705913 -0.04172427
-0.04268991 0.010317565 -0.03805626 0.076579034 -0.0070075225 0.07683484 -0.004050915 -0.015697263
-0.013429129 -0.079108626 0.0704808 0.00842131 -0.037951324 0.052239593 0.013762762 0.094211705
0.058072045 -0.04448776 -0.08117488 0.031547397 0.058955476 0.0014877059 -0.007885136 -0.07447759
0.04138722 -0.026911167 0.06336852 -0.05875503 0.030965155 0.023355437 0.09098357 0.014563876
0.060822107 0.069115974 0.088897124 -0.0053032693 0.025583418 -0.07939701 0.019007513 -0.077913694
-0.07228906 0.0909105 0.07229238 -0.026397 0.08481339 0.04387643 -0.049730826 -0.011423754
